lab3_RL/model/policy_net.pth (torch, 71855 bytes, 6 tensors)

layer1.weight f4 [128, 4]
000000 b3 d3 68 be 1a 90 bf be 1d 79 6e bf dd 63 c1 be
       -0.22737007 -0.37414628 -0.93153554 -0.37771502
000010 6d 3e 3f 3d 2d d3 b9 be 9d 08 e8 be 98 05 b7 bd
       0.046690393 -0.36293927 -0.4531907 -0.08936614
000020 4e e2 f0 3d 6c 02 1b 3e 1e e1 a2 3d bd cd 90 be
       0.11761914 0.15137643 0.07953094 -0.28281966
000030 8e 03 9c be 8d 93 a8 3e 3f f3 39 3b 99 b4 91 3d
       -0.30471462 0.32925072 0.0028373746 0.071145244
000040 41 24 b7 3e da fd df 3e c3 6f ac 3e 82 d1 cb 3e
       0.35769847 0.4374836 0.33679017 0.3980828
000050 ac f5 91 3e 99 78 ea bd d9 6c da be f0 62 6a be
       0.28507745 -0.114487834 -0.4266117 -0.22889304
000060 a1 53 ae 3e 19 5a a3 3e 42 e1 8b 3e 51 fa 06 be
       0.3404818 0.31904677 0.27320296 -0.13181426
000070 27 21 d7 3e 19 56 ef 3d 34 a9 b0 3e cc ea 9c 3e
       0.4201748 0.11686344 0.34504092 0.30647886
000080 f8 cb 02 bf 6e 9a 21 be f1 5e 32 3f 0b 2d b7 3e
       -0.5109248 -0.15781567 0.6967612 0.35776553
000090 10 76 af 3d 91 0c 90 be 19 cb e6 3d b6 ca bc be
       0.085674405 -0.28134587 0.112692066 -0.36873406
0000a0 c5 15 0d 3d 12 d1 a5 3e 39 40 5b 3e 38 a1 b4 bd
       0.03444459 0.3238607 0.21411218 -0.088198125
0000b0 88 c5 8f be 05 06 99 3e 81 79 06 3f db 9c 38 3d
       -0.28080392 0.29887405 0.5252915 0.045071464
0000c0 e6 ae 78 3d 34 d7 7f 3e 35 aa a3 3d 31 a9 df bd
       0.06071367 0.24984437 0.07991449 -0.109209426
0000d0 81 ed 65 3c 72 c3 5a bc 5d 35 90 be e1 86 09 be
       0.014033676 -0.013352262 -0.28165713 -0.13430358
0000e0 a5 ff 06 3c 51 3d 2c be 63 c6 83 be 85 30 9e 3d
       0.008239661 -0.16820265 -0.25737295 0.07724098
0000f0 0c f3 be 3c ed 21 88 3e 10 28 69 be 19 51 bf 3c
       0.023309253 0.26588383 -0.22769189 0.0233541
000100 34 72 8e be 34 09 e3 3c b4 b3 34 3f eb a5 18 3f
       -0.27821505 0.02771435 0.70586705 0.5962817
000110 8e 12 71 be 66 c8 d3 be ea f9 b5 be 73 28 ab be
       -0.23542234 -0.4136383 -0.35542232 -0.33429298
000120 de 9e 98 bd 8e 42 d1 be b1 52 9a be cb e3 31 be
       -0.074521765 -0.4087109 -0.30141214 -0.17372052
000130 2f ff 1b bf f6 ed 7f be 64 9d 3a 3f 9a 34 eb 3e
       -0.60936254 -0.24993119 0.7289641 0.4593857
000140 58 a9 67 3e 91 74 c9 3d 87 21 a4 3e f9 fd c4 be
       0.22623193 0.098366864 0.3205683 -0.38475016
000150 35 8d 2e 3e ab ce 92 3e 02 50 16 3f f0 2e 8e 3e
       0.17046054 0.286733 0.5871583 0.27770185
000160 7a 90 c2 bd 17 04 5f bd bc 5d a4 3e 79 19 79 bd
       -0.09500213 -0.05444726 0.32102764 -0.06081531
000170 46 81 8b be 4e c5 84 be 65 53 f2 3d 82 d3 4a bc
       -0.27247065 -0.25931782 0.118323125 -0.012379529
000180 02 61 74 3e 90 75 24 3e 81 57 26 3e 70 49 cb be
       0.2386513 0.16060472 0.16244318 -0.39704466
000190 af d8 05 be d2 60 33 3d b7 bc 41 be 20 8f 0a be
       -0.1307094 0.043793507 -0.18919645 -0.1353116
0001a0 96 f5 ca be 3b 9f 8b be da ba 30 3f 85 88 46 3e
       -0.39640492 -0.2726992 0.6903511 0.19388016
0001b0 17 2d 55 bf 6d ed 82 be 33 05 e3 3e 20 d4 5d 3e
       -0.83271927 -0.25571766 0.44339904 0.2166295
0001c0 2c ae 3d 3e fe 1d 8d 3e 3d 41 10 3e 59 77 5c 3e
       0.18523473 0.27561945 0.14087386 0.21529903
0001d0 5d 52 a1 be bf 16 ca be af af 0e bf 01 56 92 be
       -0.3150815 -0.3947048 -0.5573682 -0.2858124
0001e0 43 ec d4 bd 33 1b 00 bf f5 f8 05 bf 03 2e df be
       -0.10396626 -0.500415 -0.52333003 -0.43589792
0001f0 dc 8c 24 bf 23 49 b6 be 37 f9 ee 3d 00 d2 e8 bd
       -0.64277434 -0.35602674 0.11668628 -0.11368179
000200 83 8d 96 3d a1 b6 a6 be 93 a0 98 bd 11 35 c7 be
       0.0735121 -0.3256121 -0.07452502 -0.38907674
000210 ca 86 93 bd b1 29 e8 bd bf c8 59 be 2a 12 b8 3e
       -0.07203443 -0.11336077 -0.21267985 0.35951358
000220 5b d1 02 bf 0c 89 90 be 9f 18 83 bf a9 81 b9 be
       -0.511007 -0.28229558 -1.0241889 -0.36231735
000230 ee 3f a8 3d e0 60 45 3e e6 68 40 3f 0f 17 0e 3e
       0.082153186 0.19275236 0.7516006 0.13875984
000240 16 c7 d4 bd e2 ad 2d bc 62 80 89 be db 74 9f 3d
       -0.10389535 -0.010600539 -0.2685576 0.0778596
000250 36 d3 a6 3e de a5 62 3d b7 f1 da be 37 e9 3a 3e
       0.32583016 0.055333965 -0.4276254 0.18253027
000260 7b 0a 05 3d e9 40 5c be 07 33 87 3e b3 ac 93 3d
       0.032480698 -0.21509136 0.26406118 0.07210674
000270 1c cf 32 be 9d 47 a8 3e fb ef 1b 3f 6b 5f a7 3e
       -0.17461818 0.32867137 0.60913056 0.32689986
000280 87 b1 ab 3c a7 ab 49 be ee 88 ec bc 67 26 df bc
       0.020958675 -0.19694386 -0.028873887 -0.027239991
000290 98 af 1d bf f6 ad 90 3e a0 c4 34 3e f8 14 a6 3e
       -0.6159606 0.28257722 0.17653131 0.32437873
0002a0 93 08 05 3f 00 d0 8e be c7 9c 0b 3f 2d b0 1f be
       0.5196621 -0.27893066 0.545361 -0.1559455
0002b0 a4 8c e0 be 22 af 12 be 06 9f 78 bf 79 8a bb be
       -0.438573 -0.1432462 -0.9711765 -0.36629084
0002c0 ea aa f0 be 93 f3 2a be 95 91 db bd a5 f8 09 3a
       -0.47005397 -0.16694479 -0.10721127 0.0005263186
0002d0 3f f6 d1 bd 8c 5a f6 3d 4a 15 b0 be 59 98 bc bd
       -0.10252046 0.12028989 -0.34391242 -0.092087455
0002e0 85 02 1c bf 71 00 90 be 50 0e b1 bd 11 2e 9f 3c
       -0.60941344 -0.28125337 -0.08645308 0.019431146
0002f0 4a 95 82 be 90 ad 93 be d6 13 30 bf 7e de 9c be
       -0.25504524 -0.28843355 -0.6878027 -0.30638498
000300 c9 f1 dd 3e f8 c8 77 bd 27 92 b3 be 66 69 33 3e
       0.4334853 -0.060494393 -0.35072443 0.17520675
000310 38 97 87 3e 48 2b bd 3c 1b 7c ec 3e c1 84 05 be
       0.26482558 0.023091927 0.46188435 -0.13038923
000320 b1 b4 ca 3e 18 2f eb 3d 74 3e 4e 3f d5 16 44 3e
       0.39590982 0.11483592 0.80564046 0.19149335
000330 43 2a bd bc 41 37 6b 3e df 84 02 3f 84 2c fd bd
       -0.023091441 0.22970296 0.50983995 -0.12362006
000340 05 d1 01 3f 4f f8 b0 3e 5d 8f 37 3f b5 68 7a 3e
       0.50709563 0.34564444 0.7170313 0.24454005
000350 f5 40 32 bf 1a c6 be be 98 9d 07 3f 4e c5 94 3d
       -0.69630367 -0.37260514 0.52974844 0.072641954
000360 6c 5c e5 bd cb f1 cb bc a6 2b a0 be 97 79 0c 3d
       -0.11199269 -0.02489557 -0.312833 0.034295645
000370 bc b0 85 3e db 5b b8 be 72 eb 95 be 52 a0 a7 be
       0.261114 -0.3600758 -0.29281193 -0.32739502
000380 a1 20 ff 3d 9a d3 ec bd ff e7 25 3e c9 aa 8f 3e
       0.12457395 -0.11563797 0.1620178 0.28059986
000390 d4 79 bb be c2 de 98 3e 4e b9 14 3e 1c d0 95 3d
       -0.36616385 0.2985745 0.14523813 0.07315084
0003a0 8e d8 c3 bd f7 18 cd 3c a6 92 0d 3e 4e 64 58 3d
       -0.09562789 0.025036318 0.13825473 0.052830033
0003b0 d9 26 98 3e a0 7d b7 3d 47 a8 a1 be 70 0e e5 3d
       0.29717138 0.08959508 -0.31573698 0.11184394
0003c0 8c 1d f3 3e 5b 80 66 3e b4 82 da 3e 02 d4 cf 3d
       0.4748348 0.22509901 0.42677844 0.10147859
0003d0 f8 41 0c bf 2b 1e 08 3e 82 24 03 3f 27 27 a4 3e
       -0.5478816 0.13292758 0.5122758 0.3206112
0003e0 5c 01 33 bf 37 43 ae be 60 2e 87 bf 5c be 8b be
       -0.6992395 -0.34035656 -1.0561028 -0.2729367
0003f0 fb 01 2f 3e c6 a5 39 be b1 c0 21 3f b9 8a a3 3e
       0.17090599 -0.18129644 0.6318465 0.31941774

layer1.bias f4 [128]
000000 16 19 52 bd fb ac 88 3e fb d0 19 3f d6 42 ad 3e
       -0.051293455 0.26694474 0.60084504 0.33840054
000010 ca b8 9c bd 97 de 2f 3f 2e 0d 18 be b3 a9 04 bf
       -0.07652433 0.6869902 -0.14848778 -0.5182144
000020 84 aa d3 be 8c a1 14 3f c2 79 34 3f 96 25 d7 3e
       -0.4134103 0.58059 0.7049829 0.42020863
000030 2c c7 0f 3f c7 f1 07 3f a9 e3 23 3f 91 a0 2d 3f
       0.5616329 0.531033 0.64019257 0.6782313
000040 18 16 3f 3c 06 7d 18 3f 60 b1 c1 3e 7c 87 83 be
       0.011662982 0.5956577 0.3783064 -0.25689304
000050 86 67 dc 3e 14 86 05 3f b0 35 f3 3e 7c a4 97 be
       0.43047732 0.5215771 0.47501898 -0.2961768
000060 7b 48 9b 3e 6a 1b 2f 3f 37 4a f8 be 9f c6 b2 bc
       0.30328736 0.68401206 -0.4849412 -0.021823226
000070 20 93 d5 be 3c d3 70 bd 79 b8 9c bd 6a 6d 33 be
       -0.4171381 -0.0587952 -0.07652373 -0.17522207
000080 f1 ff 27 3f 1f a4 c3 be b8 8e a1 bd 2c 9f 5b be
       0.6562491 -0.38211152 -0.078885496 -0.21447438
000090 69 c7 ed 3e ad a2 26 3f 6c e9 af 3e d6 21 31 3f
       0.464412 0.65091974 0.34357774 0.69192255
0000a0 c8 78 05 3f 3c c2 6d be 24 3e 60 bd 8b de e6 3c
       0.5213742 -0.23218626 -0.054746762 0.028182289
0000b0 6b 85 ca 3e d6 b7 25 3f b1 ae c0 bd 8a ab e5 bb
       0.39554915 0.64733636 -0.0940832 -0.0070089744
0000c0 1e 97 1f 3f 02 31 c0 be 43 f3 c5 be 6a c7 27 3f
       0.6233996 -0.3753739 -0.38662156 0.65538657
0000d0 80 81 da 3e 3c ee 6e be 02 e0 02 3f ef 30 f4 3e
       0.42676926 -0.23333067 0.5112306 0.47693583
0000e0 d0 ed b4 be 69 ac 7d 3d 4a 1a 27 3f bb 9b a1 3e
       -0.35337687 0.061932 0.6527449 0.31564125
0000f0 42 2c 09 bf 6e 59 bb be 87 16 89 bd 09 6b f3 3e
       -0.5358316 -0.36591667 -0.0669375 0.475426
000100 7a 1d 13 3f 61 be 0d 3f 6f f4 2f 3f bc f0 bb 3e
       0.5746685 0.5536862 0.6873235 0.36707103
000110 9e f2 cf be c9 21 ca 3e bd e5 1b 3f b8 7d c8 3e
       -0.4061479 0.394789 0.6089743 0.39158416
000120 18 fc 01 3f 53 7d de 3e 10 c5 a9 3e 2f cf 24 3f
       0.5077529 0.4345499 0.3315816 0.6437864
000130 ec 3e a4 3e c1 f3 f6 bd 46 67 23 3f 75 3b 91 be
       0.32079256 -0.12058211 0.6382946 -0.28365675
000140 32 cb 92 be e9 eb 0c 3f 76 27 e3 3e dc a3 bc 3e
       -0.2867065 0.5504747 0.44366044 0.36843765
000150 2d 3f ab 3e 6e b9 21 3f dc 51 76 bd d5 d1 95 3e
       0.33446637 0.6317357 -0.06013666 0.29261652
000160 c6 8f 02 3f 6f e8 dc 3e 6b 46 98 3e 57 b5 87 3e
       0.5100063 0.43146083 0.29741225 0.2650554
000170 b2 69 96 be 4d 4c ae bd 62 ec 2b 3e 0a dc a2 be
       -0.29377514 -0.08510647 0.16789392 -0.318085
000180 4a d6 b5 3e 48 f2 2c 3f ab 65 ad bd f6 9b 0c 3f
       0.35515052 0.6755719 -0.08466657 0.5492548
000190 78 87 1f 3f 79 36 b2 3e 8e 72 f7 3e 0c 46 35 be
       0.62316084 0.34807184 0.48329586 -0.17702502
0001a0 21 3a 1b 3f 13 58 ab 3c 9e 89 d8 3e dd 05 98 be
       0.6063557 0.02091602 0.42292494 -0.29691973
0001b0 66 8c 0e 3f 30 8a c4 be d6 06 b2 be b0 c5 0c 3f
       0.5568298 -0.3838668 -0.3477084 0.5498915
0001c0 38 39 a6 bd 78 51 1e 3f 5a 96 89 bd ca 6c 09 3e
       -0.08116382 0.6184306 -0.067181304 0.13420406
0001d0 d5 a3 8c be 46 6a 97 be eb 0e 20 3f 59 aa 2e 3f
       -0.27468744 -0.29573268 0.62522763 0.6822868
0001e0 f8 5f d4 be 2d a6 ca 3e c2 58 a4 bd 38 f7 2c be
       -0.41479468 0.39579907 -0.08024742 -0.16891181
0001f0 11 27 d0 be 7a 35 aa 3e 0b 14 f7 3e 73 3d b6 be
       -0.40654805 0.33243924 0.4825748 -0.35593757

layer2.weight f4 [128, 128]
000000 58 2b 7a be 61 6a ef 3d 79 04 3b 3e d8 ab 3f 3e
       -0.24430597 0.11690212 0.18263425 0.18717897
000010 65 54 2d bd 10 ba 4b 3e 99 42 d0 bd 12 a9 69 be
       -0.042316813 0.19895196 -0.101689525 -0.22818401
000020 fe 5b 8a bd a7 df 85 3d 8c a6 aa 3d 0d 8b 3a 3e
       -0.06755827 0.06536799 0.083325475 0.18217106
000030 bc 35 1c 3e 37 54 56 3e 14 70 86 3d 0f 2a 31 3e
       0.15254873 0.20930563 0.06564346 0.173012
000040 95 8a 38 bd 02 3e ce 3c 0e 9f 9f 3d 56 f9 d1 bc
       -0.045054037 0.025176052 0.07794009 -0.025631588
000050 b5 6d 4e 3d db 4f 87 3d 3e 44 45 3e da be ae be
       0.050397594 0.06607028 0.19264314 -0.34129983
000060 c4 49 6a 3d b2 63 ec 3d 42 cf 2c be 75 96 24 bd
       0.057199255 0.11542453 -0.16875938 -0.04018255
000070 dc 48 e3 be d7 24 84 be a7 e8 b6 be 26 1f 96 be
       -0.44391525 -0.25809357 -0.35724375 -0.2932064
000080 e9 4e 9e 3d 0e 45 02 bc 9a 60 43 be 4b 37 11 be
       0.07729895 -0.007951034 -0.1907982 -0.14181249
000090 02 14 3c 3e b2 57 58 3d 7d 54 e5 3c 7b 73 ee 3d
       0.18367007 0.052818008 0.027994389 0.1164312
0000a0 71 29 cc 3d 0c c2 ba be 4d 34 99 be ca 52 43 bd
       0.09968842 -0.3647617 -0.29922715 -0.047686376
0000b0 97 2e 0c 3e 94 7c 9f 3d 92 35 01 bd 0d 7f 3e be
       0.13689648 0.07787433 -0.03154523 -0.18603154
0000c0 eb 43 03 3e 6a 0c 94 bd 32 a4 9b be 3e a5 1e 3e
       0.12818877 -0.0722893 -0.3039871 0.15492722
0000d0 38 ed db 3d d7 27 2d be 41 bd b3 3d 34 12 c6 3d
       0.10738605 -0.16909729 0.08776332 0.09671441
0000e0 aa cc f7 bd bf 77 22 3e 3a 39 b0 3d 76 93 21 3e
       -0.120995834 0.15865992 0.08604665 0.15778908
0000f0 16 31 84 bd f1 db 9b be 7c 72 8a be 09 8b d0 3d
       -0.06454675 -0.3044124 -0.2704047 0.10182769
000100 78 27 2a 3e 6f 37 ef 3d cc 8d 72 3d da c5 f7 3d
       0.16616619 0.11680495 0.05921726 0.12098284
000110 8f 0c 5e bd ff ac f4 3d e7 e0 a2 3d a1 dd f3 3d
       -0.054211196 0.11947059 0.07953053 0.11907507
000120 2b 38 2f 3e e1 5e d9 3d c0 c6 98 3e f4 55 ca 3d
       0.1711127 0.106138 0.29839134 0.098796755
000130 3b 6e 97 3d 39 37 27 bf bc 44 05 3e 5a b7 60 bc
       0.07394072 -0.6531864 0.13014501 -0.013715589
000140 6e 8f 49 be 48 6e 9e 3d 00 f5 14 3d 6d 93 56 3d
       -0.1968362 0.07735878 0.036366463 0.05238669
000150 5c fc dc 3d 42 6c 20 3e c1 80 92 bd 41 2d 3a 3e
       0.10790321 0.15666297 -0.07153464 0.18181325
000160 b3 28 8b 3d 86 c3 29 3e df 33 ff 3d f1 60 6f 3e
       0.06794872 0.16578493 0.124610655 0.23376824
000170 56 62 01 be 95 de 49 be e5 ea bf 3d 28 ba 89 bd
       -0.12635168 -0.19713815 0.093709745 -0.067249596
000180 34 fc e1 3d 14 69 cd 3d ef bd c8 be 25 bf 35 3d
       0.11034432 0.10029808 -0.39207408 0.044371743
000190 74 1d ad 3d 4d 74 ae 3d ff 2a d1 3d 7f b3 96 be
       0.08452883 0.08518276 0.10213279 -0.2943382
0001a0 27 80 a5 3c 69 e0 f1 bd 32 26 b6 3d a6 24 96 bd
       0.02020271 -0.11810381 0.08894004 -0.07331209
0001b0 b8 ce 3d 3c 41 25 2c bd 21 fd 93 be dc 17 b3 3d
       0.01158493 -0.042027716 -0.2890406 0.08744785
0001c0 a7 d8 8e bd b8 7c 46 3e fe 75 01 be 98 bc 06 3d
       -0.06974917 0.19383514 -0.12642667 0.0328947
0001d0 e1 53 4f be 5e 84 d2 be 7e f3 18 3e 88 fc 0f 3e
       -0.20246841 -0.41116613 0.14936635 0.14061177
0001e0 16 d0 7c bd 41 59 a8 3d 5d 53 94 be c7 78 ad be
       -0.061721884 0.08220149 -0.2896985 -0.33881208
0001f0 79 45 9a be eb a2 a8 3d 19 a4 5e 3e ce c9 03 be
       -0.30131128 0.08234199 0.21742286 -0.12869951
000200 89 1b ef bd 2a ee 22 3e 96 8e a1 3d 3d 1d bf 3d
       -0.11675174 0.15911165 0.07888524 0.09331749
000210 7e f9 ce bd bc 62 82 3e 21 dc 5b bd 35 60 6f be
       -0.101061806 0.25465953 -0.05367673 -0.23376544
000220 0f 7c f1 bb 1b 53 6e 3e 8b 2c 27 3e 41 02 2c 3e
       -0.0073695253 0.2327389 0.16325586 0.16797735
000230 2f 86 32 3e 41 c2 9f 3e dc 97 8a 3e 22 da 28 3e
       0.17434 0.3120289 0.27068985 0.16489461
000240 e5 55 71 bd f4 d7 ed 3d ff 08 29 3e 7d 52 f7 3d
       -0.058919806 0.116134554 0.16507338 0.1207628
000250 99 4c 1b 3e 5d 42 16 3e 6c 7c 8f 3e 59 21 d4 be
       0.15165938 0.14673753 0.28024614 -0.41431692
000260 53 8d 23 3d b3 0d ad 3e 0c 15 40 bd b3 b2 91 3c
       0.0399297 0.33799514 -0.046895072 0.017785406
000270 64 fc 43 be 74 b7 bb bd b1 26 67 be 14 1e 88 be
       -0.19139248 -0.0916585 -0.22573353 -0.26585448
000280 a7 f1 81 3e 43 d7 81 bc c3 d2 51 be 13 2e 16 be
       0.2537968 -0.015849715 -0.20490555 -0.14666013
000290 80 ce 87 3e 70 37 79 3e 7e a4 0c 3e b1 d1 28 3e
       0.26524734 0.24337554 0.13734624 0.16486241
0002a0 4f 07 3f 3e f3 cf 33 be af aa 6a be d2 f0 bb bd
       0.18655132 -0.17559795 -0.22916673 -0.09176792
0002b0 35 10 4b 3e ac 80 5c 3e 4e 72 b2 3d 4f 17 2f be
       0.19830401 0.2153346 0.08713208 -0.17098735
0002c0 e6 d9 67 3e 95 a9 02 be 81 dc 3e be 61 b3 47 3e
       0.22641715 -0.12760003 -0.18638803 0.19502021
0002d0 0b 76 fe 3d 0d 73 38 3d 83 40 59 3e 0d bd 95 3e
       0.12424859 0.045031596 0.21216016 0.29245797
0002e0 55 a9 3f be 58 d1 7c 3c 09 55 85 3e ed bb c8 3d
       -0.18716939 0.015430771 0.2604144 0.09801469
0002f0 67 df 87 bd 8c 82 9e be 48 91 06 be d2 99 04 3e
       -0.066344075 -0.30958974 -0.13141358 0.12949303
000300 68 e3 79 3e 59 dd 1a 3e a4 f9 7b 3e 21 5f 3d 3e
       0.24403155 0.151235 0.24606949 0.1849332
000310 11 52 cb bb b8 84 d5 3d 13 91 9e 3e a9 cb 61 3e
       -0.0062048514 0.10425705 0.30970058 0.22050346
000320 8f ba 40 3e 32 1c 78 3e 39 d0 a2 3e 96 f8 21 3e
       0.18821166 0.24229506 0.31799486 0.15817484
000330 42 7d ad 3d b6 ab b7 be 21 4e 19 3e 98 51 ea bd
       0.08471157 -0.35873193 0.1497121 -0.11441344
000340 74 da 12 3c 78 fa 04 3e 2b 1b dc 3d 29 54 34 3e
       0.008963216 0.12986171 0.107473694 0.1761023
000350 5f 57 0d bd a7 5f 7e 3e 18 e4 2b bd 16 52 12 3e
       -0.03450715 0.24841176 -0.041965574 0.14289126
000360 cf 94 96 3e 92 76 7f 3e 6a b0 88 3a 34 14 2f 3e
       0.29410407 0.24947575 0.0010428552 0.1709755
000370 96 7d d9 bc 6b d6 ef bd 5d 7c b5 3d 05 33 b6 bd
       -0.026549142 -0.11710819 0.08861611 -0.0889645
000380 d9 d7 06 3e b0 34 51 3e 82 41 07 bd da fd 12 3e
       0.13168277 0.20430255 -0.033021457 0.14354649
000390 22 90 0a 3e e4 a7 8e 3d f1 48 d7 3d 77 32 98 bd
       0.13531545 0.06965616 0.10511959 -0.074315004
0003a0 32 ad 0b 3e 55 7b 47 3d 99 08 85 3d 05 80 9d 3c
       0.13640288 0.048701603 0.064957805 0.019226084
0003b0 3c 3c 3d 3e 0f 1d f1 bd 13 5e 89 bd 9b 94 36 3e
       0.18480009 -0.117731206 -0.06707396 0.17830126
0003c0 8c 0e b3 3d 88 08 96 3e b7 28 fc bc 44 ea 6d 3c
       0.08743009 0.29303384 -0.030781133 0.014521185
0003d0 d8 d5 06 3c db cb 8b be 75 32 40 3e d9 ca 92 3e
       0.008229695 -0.27303967 0.18769248 0.28670385
0003e0 08 a4 18 bd 8e 07 b4 3d 2f d2 10 be ec e0 2f be
       -0.037265807 0.087905034 -0.14142679 -0.17175645
0003f0 87 1a 03 be b8 4b 42 3e 42 45 44 3e e9 62 90 bd
       -0.12803088 0.18974197 0.19167045 -0.070501156

layer2.bias f4 [128]
000000 7f 1d 1a 3e 2f 89 8d 3e be 73 63 bd fd be 0d 3d
       0.15050314 0.27643725 -0.055530302 0.03460597
000010 1b 04 60 3e bf 9e 92 bd af 98 2e bd 59 6e 36 3e
       0.21876566 -0.07159185 -0.04262608 0.17815532
000020 6a d6 01 3e dc d3 59 bd e6 31 53 3e 78 b0 25 3d
       0.12679449 -0.05318056 0.20624503 0.040451497
000030 48 3b f1 3c 62 3f d7 bc bd 89 91 bc cc 82 9d 3c
       0.029447213 -0.02627534 -0.017765874 0.019227408
000040 2e bd 2d 3e e6 87 d7 3d 2d 9a 54 3e 3e f0 80 3e
       0.16966698 0.105239674 0.20761938 0.2518329
000050 8c 21 5d 3e 23 b6 a0 3e 5c e3 5c bd ab 98 81 3e
       0.21594828 0.3138896 -0.053927764 0.2531179
000060 88 51 16 3e 4d ff 23 bc 58 77 0e 3e 1a 7d 88 3e
       0.14679539 -0.010009599 0.13912714 0.26657945
000070 0f f3 2e 3d 90 29 1a 3e 01 c2 4f 3e 2c 6b 10 3e
       0.042712267 0.15054917 0.2028885 0.14103383
000080 68 71 57 3e 26 67 f0 3d 0f 10 26 ba 9d 2a de 3c
       0.21039355 0.11738424 -0.00063347904 0.027119929
000090 35 5e 46 3e 86 bb e4 3d 32 e5 2f 3e e0 56 0d 3e
       0.19371875 0.1116858 0.17177275 0.13802671
0000a0 f5 c6 c2 bc 64 fa 00 bd bd 19 90 bd 75 03 b2 3d
       -0.02377651 -0.03148879 -0.07036159 0.086920656
0000b0 94 3a aa 3d e1 6a 23 3d 40 f0 95 bc ca ac 9f 3e
       0.08311954 0.03989685 -0.018303037 0.31186515
0000c0 a7 c2 85 3d ed cf 53 3b d2 b0 14 3d a1 06 66 3d
       0.065312676 0.0032319978 0.03630144 0.056158666
0000d0 fd 2a 21 be 07 04 44 3d 1b 82 13 3d a0 cb 09 3b
       -0.15739055 0.047855403 0.03601275 0.002102591
0000e0 6b 71 32 bd da 33 84 bd 21 d5 78 bd 6c 23 cf 3d
       -0.043565195 -0.064552024 -0.06075013 0.10114178
0000f0 13 fa 9b bd 34 36 ad 3e 1f 11 28 3e 8c de 20 3d
       -0.07616057 0.33830416 0.16412781 0.039274737
000100 0a eb 79 3e 40 e0 96 bc e0 a0 ad bd 2c 66 b9 bc
       0.24406067 -0.018417478 -0.0847795 -0.022631727
000110 cd cf 15 3e a1 12 69 bc 61 1a 23 3d f2 90 89 3e
       0.14630051 -0.014225633 0.03982008 0.26868397
000120 b5 dd a0 bc ef 26 3d bd a2 e7 0f 3c 74 15 5f 3a
       -0.019636968 -0.046179708 0.008783253 0.00085099717
000130 b2 d9 85 3e 5b ce 2f 3e 3a 40 2d 3d 62 45 4b 3b
       0.2614265 0.17168562 0.04229758 0.0031016697
000140 be b8 a7 3c 9d 27 a7 3c ac 2c a3 3c 28 af 73 3e
       0.020473834 0.020404631 0.019918762 0.23797286
000150 18 59 d2 3c 4c 13 f5 bc 41 bb d8 bd e0 28 35 3e
       0.025677249 -0.029916428 -0.10582591 0.17691374
000160 d5 b7 8e 3e 4c 6e cf bb 76 ec 6b 3e ff ff 77 3e
       0.27874628 -0.006330287 0.23039421 0.24218749
000170 b3 6c 35 bc 31 c7 7a bd 5c bf 52 bc 15 ec 0b 3d
       -0.011073279 -0.06122512 -0.012863006 0.034160692
000180 0a 60 90 3e f6 0e 06 3e 7e 82 25 3e 5c fc 45 bd
       0.28198272 0.13091645 0.1616306 -0.04833637
000190 40 15 01 3e 4b 24 8f bc ba 3b a3 3e 28 63 74 bd
       0.12605762 -0.01747336 0.31881505 -0.059664875
0001a0 2e a0 df 3d 33 2f ef bc 58 ef fe bc b2 93 cb 3c
       0.10919224 -0.029197311 -0.031119987 0.0248507
0001b0 35 43 93 3e 91 95 af bd 9d 97 7b ba 05 e1 e4 3d
       0.28762212 -0.085734494 -0.0009597482 0.111757316
0001c0 1a dc a0 3e bc dc 93 3e cb e5 7a bd c4 e9 7e 3e
       0.31417924 0.28879344 -0.061254304 0.24893862
0001d0 48 9a c5 3d 3f a5 27 3e 18 83 53 3e b8 a6 88 3d
       0.096485674 0.1637163 0.20655477 0.06672424
0001e0 ec a3 75 3c 3a 07 9a 3e db f2 02 bd 84 1b 14 bd
       0.014992695 0.30083638 -0.031969886 -0.036159053
0001f0 34 d5 4c 3d 16 2e 27 bd bd cc 7c 3c 97 76 b3 3e
       0.050008014 -0.040815435 0.015429673 0.35051414

layer3.weight f4 [2, 128]
000000 a7 52 a9 3e c6 26 16 3e 74 02 1b be ae 62 7f be
       0.3307087 0.14663228 -0.15137655 -0.24939987
000010 16 e6 77 3e e8 2a 8c be 38 f3 b9 be 16 aa 80 3e
       0.24208865 -0.27376485 -0.36318374 0.25129765
000020 98 17 5f 3e 17 68 0c be 39 ac 73 3e fd 99 b2 bc
       0.21786344 -0.13711582 0.23796166 -0.021801943
000030 c0 4f 7a 3c fc 05 71 bd 9a 2d 83 be 3d ce 35 3e
       0.015277803 -0.058843598 -0.2562073 0.17754455
000040 11 c9 91 3e ad df 98 3e 48 cf 9c 3e 29 2e ac 3e
       0.28473714 0.2985815 0.30626893 0.33628967
000050 cf 45 90 3e eb 3c 9d 3e 40 e7 79 be c7 60 4b 3e
       0.2817826 0.3071054 -0.24404621 0.19861136
000060 ee e6 82 3e 0a b5 f9 be d8 50 8a 3e 5a 9d 7c 3e
       0.2556681 -0.48770934 0.27014804 0.246694
000070 90 cf 93 3e 20 83 95 3e 7d 1b 8d 3e 4b dc 82 3e
       0.28869295 0.29201603 0.27560034 0.25558695
000080 c1 af 87 3d 99 9b 80 3e 56 16 91 3e 2a 42 ec be
       0.06625319 0.25118712 0.28337353 -0.4614423
000090 73 fb 89 3e 2f d8 48 3e 33 90 58 3e d7 2b a6 3e
       0.26949653 0.19613717 0.21148758 0.32455322
0000a0 00 91 04 be 13 ca a8 be 91 95 ad bd b3 40 a0 3e
       -0.12945938 -0.3296667 -0.08475793 0.31299362
0000b0 be 9c 59 3e 79 68 a9 3c e1 86 ce be 2c 3f 90 3e
       0.21251199 0.0206797 -0.4033728 0.28173196
0000c0 9d f4 04 3d 8f 86 d1 be b2 11 e5 3c 38 b7 99 3e
       0.032459844 -0.40922973 0.02796254 0.30022597
0000d0 a4 4b e1 be 48 1b 25 be 55 e1 80 bd 41 74 0d 3d
       -0.44003022 -0.16123688 -0.06292979 0.034534696
0000e0 d1 42 b5 bc a9 8c a9 be 78 cd 8b be 41 2e 8b 3e
       -0.022126587 -0.33115128 -0.27305198 0.27183726
0000f0 db bb f5 be ad 28 80 3e d4 35 9c 3e 00 76 b8 be
       -0.47994885 0.25031033 0.30509818 -0.36027527
000100 5e 0f 92 3e 79 11 aa be 0b fc 20 bf 16 2d ce bc
       0.2852735 -0.33216456 -0.6288459 -0.025167983
000110 9c 91 9d 3e 65 94 f0 be ee 31 11 bd b9 70 78 3e
       0.30775154 -0.46988216 -0.035448007 0.2426175
000120 2a 1d 17 bf 71 a6 ec be da 3b 8b bd 6d b2 c1 be
       -0.59028876 -0.46220735 -0.06798525 -0.3783144
000130 2a 04 9e 3e 30 7a 56 3e b0 05 15 be 53 c8 0d be
       0.30862552 0.20945048 -0.14552951 -0.13845949
000140 84 7b 96 be 03 55 9e 3e 26 5f d7 be 7d 1f 9a 3e
       -0.2939111 0.30924234 -0.4206478 0.3010215
000150 5f 57 16 bf 92 07 15 3c df 14 6e bd 43 ea 75 3e
       -0.5872707 0.009096043 -0.058125373 0.24015145
000160 05 d6 9e 3e 8d 0c 3e 3c 5e 06 9c 3e 75 a2 a4 3e
       0.3102266 0.011599672 0.30473608 0.32155195
000170 4e c6 cc bc 96 42 7e 3d e0 91 4d be 15 e6 49 be
       -0.024996903 0.06207522 -0.20075178 -0.19716676
000180 66 3e 93 3e 50 3a 9a 3e 1f 95 8d 3e 33 78 29 bd
       0.28758544 0.30122614 0.27652833 -0.041374397
000190 1f 03 84 3e 54 f3 0b bf 4a 68 a1 3e ef e7 6d 3d
       0.2578363 -0.54668164 0.3152488 0.058082517
0001a0 89 9a 9c be 4f 79 80 bc ee 0b b5 be d6 d0 3c be
       -0.3058665 -0.015682844 -0.35360664 -0.1843904
0001b0 98 30 28 3e 09 25 a9 be c7 a7 41 bd 87 12 34 3e
       0.16424787 -0.33036068 -0.047279146 0.17585193
0001c0 95 46 7f 3e 34 ec b5 3e 67 2b 82 bd 5b d1 8e 3e
       0.24929269 0.3553177 -0.063559346 0.278941
0001d0 f8 fb 63 3e 24 7d 22 3e 13 47 90 3e ab ea 4f 3e
       0.22264087 0.1586805 0.28179225 0.20304362
0001e0 0f f6 6f 3d a1 3b c6 3e 5a 29 ed be 21 87 e1 bd
       0.05858427 0.38717368 -0.4632061 -0.11012102
0001f0 a3 f1 64 bd 5c bf da bd 12 69 70 3e 50 ed 81 3e
       -0.055894505 -0.1068103 0.23477581 0.25376368
000200 ff ed 86 3e 7f d4 92 3e 23 d0 d1 be af 6a 2c bf
       0.26353452 0.28677747 -0.40979108 -0.67350286
000210 28 74 92 3e c1 31 8a be d4 ac b8 be b3 30 a8 3e
       0.28604245 -0.26991084 -0.36069357 0.32849655
000220 4e 97 37 3e 8f 98 33 be c4 ff d2 3d b8 2a 24 3d
       0.17928812 -0.17538665 0.1030269 0.040079802
000230 85 f4 81 bd ab f8 1f 3b 9c 4c 1e 3d af d2 67 3e
       -0.063454665 0.0024409692 0.03864728 0.22638963
000240 12 02 80 3e 51 f7 a2 3e 62 e6 5c 3e 32 d0 4b 3e
       0.2500158 0.31829312 0.21572259 0.19903639
000250 95 89 a7 3e 4b d1 5d 3e 6d 9a c6 be 13 d8 98 3e
       0.32722154 0.2166187 -0.38789693 0.29852352
000260 13 30 a4 3e e7 bb 05 bf 06 21 3a 3e 88 23 39 3e
       0.32067928 -0.5223984 0.1817666 0.1807996
000270 41 fb 8d 3e a0 4e ab 3e ef 72 89 3e 0d 96 72 3e
       0.27730754 0.33458424 0.268455 0.23690052
000280 1a 2f 90 3e 02 f9 9f 3e 31 bf 77 3e 0e 2e ba be
       0.28160936 0.31244665 0.24194027 -0.36363262
000290 52 e0 aa 3e e2 c8 80 3e be 17 82 3e 04 de 93 3e
       0.33374268 0.2515326 0.2540874 0.28880322
0002a0 b6 e3 00 3b cd 99 3f be 26 fb fb be 6f 1f a9 3e
       0.0019666976 -0.18711014 -0.4921505 0.33031794
0002b0 9a 1a 81 3e e5 5b 90 bc 5c 45 0b bf e3 77 9b 3e
       0.25215608 -0.017621944 -0.5440271 0.30364904
0002c0 5d c6 95 3e de 57 ae bd 63 d9 4d bd 13 9f 94 3c
       0.29252902 -0.08512853 -0.050256144 0.018142259
0002d0 c2 e8 4c bf fa 99 82 be 10 4a fd bc 4a 8f 3e 3c
       -0.8004266 -0.255081 -0.030919105 0.011630842
0002e0 8c ab 9d bc ff 19 0b be c0 8d 90 3d 69 65 62 3e
       -0.019246839 -0.13584135 0.07058287 0.22108997
0002f0 73 2d cf bd 32 27 b6 3e 84 13 79 3e 1c 17 ec 3d
       -0.101160906 0.3557678 0.24323851 0.11527845
000300 cc de 87 3e ab 10 cd be c4 fa e9 be e9 cf 31 3d
       0.26537168 -0.4005178 -0.4569913 0.04341117
000310 04 be a8 3e e4 18 06 bf 0f 05 55 3d 0c 3d 87 3e
       0.3295747 -0.5238173 0.052006777 0.26413763
000320 0e 97 1a bf 2f cc 84 be ff 61 7c 3c 66 55 cb be
       -0.6038674 -0.2593703 0.015404223 -0.3971359
000330 a6 b2 9a 3e a4 1c 7f 3e 7a 43 2f 3e 45 2d 29 bd
       0.30214423 0.2491327 0.17115584 -0.041302938
000340 c0 96 13 be 3a d6 9d 3e a9 67 2e be bf ae 61 3e
       -0.14412975 0.30827504 -0.1703173 0.22039317
000350 b3 ed 26 bf b7 af 78 bb 65 24 9a be b5 91 8f 3e
       -0.6520645 -0.003794653 -0.30105892 0.28040853
000360 b2 a1 2b 3e ef d0 0b bc 5e 8e 46 3e d6 88 63 3e
       0.167609 -0.0085337 0.19390246 0.22220168
000370 53 5c 40 bd ec 67 52 3c 62 d8 66 be 2e 49 ee bd
       -0.046963047 0.01284216 -0.22543481 -0.11635052
000380 f6 35 8b 3e c7 d1 86 3e 6f 3d 9d 3e 39 a9 82 3d
       0.27189606 0.26331922 0.30710933 0.06379933
000390 83 b8 a6 3e 03 01 3a bf 89 e2 55 3e 92 45 c8 3a
       0.32562646 -0.72657794 0.20887198 0.0015279523
0003a0 20 c2 cc 3d a3 29 79 bd 7d 8f 46 be ce f6 2b be
       0.09997964 -0.060830723 -0.19390674 -0.16793367
0003b0 ca 56 9f 3e 29 9f e4 be f0 09 26 3d 68 6b 88 3e
       0.31120902 -0.4465268 0.04053682 0.26644444
0003c0 7b 36 63 3e e2 83 5c 3e 1a aa aa be a3 b9 99 3e
       0.22188751 0.21534684 -0.33332902 0.30024442
0003d0 3a 53 88 3e 47 cd 8e 3e 3b 03 9b 3e b6 71 6f 3e
       0.26625997 0.2789099 0.30275902 0.23383221
0003e0 7f 29 73 3d 18 28 8f 3e f3 00 ff bd 80 18 9f be
       0.059365746 0.27960277 -0.12451353 -0.3107338
0003f0 6b 6f 82 bd cf 68 3a 3d b8 c4 92 3e cd 79 a8 3e
       -0.063689075 0.04551011 0.2866571 0.32905427

layer3.bias f4 [2]
000000 ae 14 90 3d 88 e1 6e 3d
       0.07035194 0.058320552
