lab3_RL/model/target_net.pth (torch, 71855 bytes, 6 tensors)

layer1.weight f4 [128, 4]
-0.22739463 -0.37421677 -0.9318947 -0.37781277 0.0467197 -0.3629989 -0.4532471 -0.08939183
0.117662616 0.151407 0.07969823 -0.28286484 -0.30475447 0.32930255 0.0028630132 0.0712265
0.35775957 0.4375133 0.3368557 0.3982839 0.28515276 -0.114510916 -0.4266212 -0.22893104
0.34054065 0.3191235 0.2733582 -0.13193484 0.42025822 0.116887234 0.34511244 0.3065386
-0.51102996 -0.15785027 0.69690466 0.35783812 0.08570691 -0.2814035 0.11282118 -0.36880597
0.034472737 0.3239283 0.21429878 -0.08820259 -0.2808381 0.29891706 0.52544034 0.045135565
0.060747143 0.2498971 0.08007914 -0.10922066 0.014051632 -0.0133522125 -0.28161278 -0.13432634
0.008258569 -0.16823177 -0.2573024 0.077262856 0.023331376 0.26594034 -0.2276218 0.023365874
-0.278306 0.027691687 0.7061336 0.5963701 -0.23545326 -0.41373026 -0.35546765 -0.33434764
-0.074519895 -0.40879837 -0.30143496 -0.17374948 -0.60953027 -0.2499751 0.7291101 0.45947987
0.22630168 0.09837915 0.32073542 -0.3847813 0.17052417 0.28680387 0.5874594 0.27775082
-0.095005244 -0.05445405 0.32122922 -0.06082314 -0.2725243 -0.25937146 0.118347004 -0.01238195
0.23874795 0.16060296 0.16248964 -0.3970359 -0.13072164 0.04380529 -0.18912749 -0.13533342
-0.39648238 -0.27275285 0.69049424 0.1939189 -0.8328664 -0.2557906 0.44346803 0.21670404
0.18527344 0.2756731 0.14090373 0.21534373 -0.31514707 -0.39478225 -0.5574755 -0.28587192
-0.1039871 -0.5005253 -0.5234373 -0.43598723 -0.6429055 -0.35609826 0.1167101 -0.11370416
0.07354006 -0.32567596 -0.07445438 -0.38914803 -0.07200236 -0.11346677 -0.2128073 0.3596245
-0.51111805 -0.2823595 -1.0244541 -0.36238763 0.08216958 0.1927911 0.7517556 0.13878666
-0.103900366 -0.010600755 -0.26849744 0.07788466 0.32591367 0.055347662 -0.42760253 0.18257025
0.032516167 -0.21510024 0.26428473 0.0720702 -0.17463407 0.32874328 0.60941166 0.32697034
0.020980407 -0.19697708 -0.028739562 -0.02724491 -0.6160801 0.28263685 0.1765671 0.3244443
0.51975405 -0.27904415 0.54550594 -0.15590446 -0.43863532 -0.14312506 -0.9715527 -0.36650565
-0.47010556 -0.1669859 -0.10714404 0.00054854393 -0.10252716 0.12031634 -0.34387454 -0.092101544
-0.6095286 -0.28128013 -0.08651416 0.019390825 -0.2551021 -0.288493 -0.688076 -0.306456
0.4335954 -0.06050394 -0.35067496 0.17524919 0.26487923 0.023096766 0.46197948 -0.13041605
0.39598727 0.114859775 0.80580723 0.19153209 -0.023075106 0.22975373 0.5101009 -0.123636305
0.5072366 0.34571853 0.71733665 0.2445994 -0.6964446 -0.3726694 0.5298596 0.07264499
-0.11199975 -0.024898222 -0.3127904 0.034309812 0.26118106 -0.3601479 -0.29280713 -0.3274505
0.12460988 -0.11568431 0.16201672 0.280664 -0.36602727 0.29881218 0.14529751 0.072925724
-0.095629476 0.025045354 0.13842186 0.0528456 0.29724947 0.089610584 -0.31572354 0.11187695
0.47493035 0.22514372 0.42686784 0.10149945 -0.5479889 0.1329544 0.5123831 0.32067677
-0.69939226 -0.34043297 -1.056364 -0.2729931 0.17094669 -0.1813604 0.6321562 0.31961042
00000000: 23da 68be 5799 bfbe a790 6ebf ad70 c1be
00000010: 285d 3f3d feda b9be 0110 e8be 1013 b7bd
00000020: 19f9 f03d 700a 1b3e d338 a33d a9d3 90be
00000030: c708 9cbe 589a a83e 64a1 3b3b 33df 913d
00000040: 432c b73e be01 e03e 5a78 ac3e deeb cb3e
00000050: 8bff 913e b384 eabd 186e dabe e66c 6abe
00000060: 585b ae3e 2864 a33e 9bf5 8b3e ed19 07be
00000070: 162c d73e 9362 ef3d 94b2 b03e a1f2 9c3e
00000080: dcd2 02bf 80a3 21be 5868 323f 8f36 b73e
00000090: 1b87 af3d 1f14 90be ca0e e73d 23d4 bcbe
000000a0: 4933 0d3d eed9 a53e 2471 5b3e 8fa3 b4bd
000000b0: 03ca 8fbe a80b 993e 4283 063f 12e0 383d
000000c0: ffd1 783d 06e5 7f3e 8800 a43d 15af dfbd
000000d0: d138 663c 3dc3 5abc 8d2f 90be d88c 09be
000000e0: f34e 073c f344 2cbe 24bd 83be fd3b 9e3d
000000f0: 7121 bf3c 5529 883e b015 69be ca69 bf3c
00000100: 207e 8ebe add9 e23c 2cc5 343f b6ab 183f
00000110: a91a 71be 74d4 d3be dbff b5be 9d2f abbe
00000120: e39d 98bd 054e d1be af55 9abe 62eb 31be
00000130: 2d0a 1cbf 79f9 7fbe f6a6 3a3f f240 eb3e
00000140: a1bb 673e 027b c93d 6f37 a43e 0e02 c5be
00000150: e39d 2e3e f5d7 923e bd63 163f 5b35 8e3e
00000160: 1c92 c2bd 360b 5fbd 2878 a43e af21 79bd
00000170: 4e88 8bbe 56cc 84be ea5f f23d aadd 4abc
00000180: 587a 743e 1a75 243e af63 263e 4a48 cbbe
00000190: e5db 05be 2d6d 333d a3aa 41be d894 0abe
000001a0: bdff cabe 43a6 8bbe 3bc4 303f ad92 463e
000001b0: bb36 55bf fcf6 82be 3e0e e33e aae7 5d3e
000001c0: 52b8 3d3e 0625 8d3e 1149 103e 1183 5c3e
000001d0: f55a a1be e620 cabe b7b6 0ebf ce5d 92be
000001e0: 30f7 d4bd 6d22 00bf fdff 05bf b839 dfbe
000001f0: 7495 24bf 8352 b6be b405 ef3d badd e8bd
00000200: 2c9c 963d 00bf a6be 8a7b 98bd 693e c7be
00000210: f975 93bd 4461 e8bd 28ea 59be b420 b83e
00000220: a2d8 02bf 6d91 90be 5021 83bf df8a b9be
00000230: 8648 a83d 086b 453e 0e73 403f 171e 0e3e
00000240: b7c9 d4bd caae 2dbc 7f78 89be fe81 9f3d
00000250: 28de a63e 3bb4 623d b8ee dabe b2f3 3a3e
00000260: ac2f 053d 3d43 5cbe 5450 873e 8b99 933d
00000270: 46d3 32be 0a51 a83e 6702 1c3f a868 a73e
00000280: 1adf ab3c 5cb4 49be 3b6f ebbc b830 dfbc
00000290: 6db7 1dbf c7b5 903e 02ce 343e 901d a63e
000002a0: 9a0e 053f e0de 8ebe 47a6 0b3f 6ba5 1fbe
000002b0: cf94 e0be 608f 12be aeb7 78bf a1a6 bbbe
000002c0: adb1 f0be 5afe 2abe 566e dbbd 29cc 0f3a
000002d0: c2f9 d1bd 6a68 f63d 5310 b0be bc9f bcbd
000002e0: 110a 1cbf f303 90be 562e b1bd 82d9 9e3c
000002f0: be9c 82be 5bb5 93be c025 30bf cde7 9cbe
00000300: 3700 de3e fbd2 77bd ab8b b3be 8674 333e
00000310: 409e 873e 6e35 bd3c 9388 ec3e c98b 05be
00000320: d8be ca3e 9a3b eb3d 6249 4e3f fd20 443e
00000330: 0108 bdbc 9044 6b3e f995 023f 0835 fdbd
00000340: 42da 013f 0502 b13e 60a3 373f 4478 7a3e
00000350: 314a 32bf 86ce bebe e1a4 073f e6c6 943d
00000360: 2060 e5bd 5bf7 cbbc 1026 a0be 7288 0c3d
00000370: 86b9 853e 4e65 b8be d1ea 95be 98a7 a7be
00000380: 7733 ff3d e5eb ecbd b6e7 253e 31b3 8f3e
00000390: ed67 bbbe e9fd 983e dfc8 143e 155a 953d
000003a0: 63d9 c3bd ea2b cd3c 76be 0d3e a174 583d
000003b0: 1531 983e c185 b73d 84a6 a1be be1f e53d
000003c0: 122a f33e 138c 663e 6c8e da3e f2de cf3d
000003d0: 0049 0cbf 3325 083e 8a2b 033f bf2f a43e
000003e0: 5f0b 33bf 3b4d aebe f036 87bf c0c5 8bbe
000003f0: a60c 2f3e 8ab6 39be fdd4 213f faa3 a33e

layer1.bias f4 [128]
-0.051206008 0.26694515 0.6009037 0.3384507 -0.076597415 0.68707824 -0.14857574 -0.5183217
-0.41349214 0.5806546 0.7050718 0.42026713 0.561696 0.5310878 0.6402702 0.67832065
0.01157739 0.595727 0.37832567 -0.25695008 0.43051726 0.5216196 0.47506022 -0.29623654
0.30330506 0.6841037 -0.48503673 -0.021636188 -0.41722155 -0.05880709 -0.07653862 -0.1752578
0.6563306 -0.38214016 -0.0788351 -0.2145191 0.46445584 0.65098965 0.34359387 0.6920124
0.5214248 -0.23223403 -0.05496321 0.028442733 0.39555344 0.64741564 -0.09414104 -0.006869904
0.62346756 -0.3754514 -0.38669905 0.6554626 0.4267841 -0.2334052 0.5112871 0.47697842
-0.35346594 0.06190857 0.65282196 0.31564057 -0.53593886 -0.36598822 -0.06687976 0.475422
0.57474583 0.55372536 0.6874152 0.36707962 -0.40620714 0.39478052 0.60904455 0.39160576
0.5078053 0.43458462 0.33159474 0.6438614 0.32079282 -0.120591 0.6383713 -0.2837937
-0.28676626 0.55052334 0.4436647 0.36841246 0.334501 0.6318054 -0.060330823 0.29260752
0.51006603 0.43149516 0.29732648 0.26504546 -0.29387546 -0.08511259 0.16820715 -0.31811947
0.35516605 0.6756495 -0.08460461 0.54929984 0.6232209 0.34807107 0.48330763 -0.17706072
0.60641855 0.020848883 0.42293718 -0.29701585 0.5568771 -0.38386527 -0.34774262 0.5499399
-0.08121223 0.6185065 -0.06705141 0.13420667 -0.27474108 -0.29583403 0.62530875 0.6823732
-0.41483408 0.39580372 -0.08023476 -0.1689446 -0.4066314 0.3324385 0.48261964 -0.356009
00000000: 64bd 51bd 09ad 883e d3d4 193f 6949 ad3e
00000010: 1bdf 9cbd 5ce4 2f3f 3d24 18be bbb0 04bf
00000020: 3eb5 d3be c8a5 143f 967f 343f 412d d73e
00000030: 4fcb 0f3f 5ff5 073f bfe8 233f 6ca6 2d3f
00000040: 18af 3d3c 9181 183f e7b3 c13e f68e 83be
00000050: c26c dc3e dd88 053f 183b f33e 51ac 97be
00000060: cd4a 9b3e 6c21 2f3f bc56 f8be 603e b1bc
00000070: 109e d5be b4df 70bd 48c0 9cbd c876 33be
00000080: 4805 283f e0a7 c3be 4c74 a1bd e5aa 5bbe
00000090: 28cd ed3e 42a7 263f 89eb af3e ba27 313f
000000a0: 187c 053f c2ce 6dbe 1a21 61bd bc00 e93c
000000b0: fb85 ca3e 08bd 253f 05cd c0bd ef1c e1bb
000000c0: 929b 1f3f 2a3b c0be 6bfd c5be 66cc 273f
000000d0: 7283 da3e c601 6fbe b6e3 023f 8436 f43e
000000e0: 7df9 b4be d793 7d3d 571f 273f a49b a13e
000000f0: 4a33 09bf cf62 bbbe 41f8 88bd 836a f33e
00000100: 8b22 133f f2c0 0d3f 71fa 2f3f dcf1 bb3e
00000110: 62fa cfbe ac20 ca3e 58ea 1b3f 8d80 c83e
00000120: 87ff 013f e081 de3e c9c6 a93e 1ad4 243f
00000130: f53e a43e 6af8 f6bd 4d6c 233f 684d 91be
00000140: 07d3 92be 19ef 0c3f 0528 e33e 8fa0 bc3e
00000150: b743 ab3e 00be 213f 741d 77bd a7d0 953e
00000160: b093 023f efec dc3e 2d3b 983e 0ab4 873e
00000170: d876 96be 824f aebd 7f3e 2c3e 8ee0 a2be
00000180: 53d8 b53e 5ef7 2c3f 2f45 adbd ea9e 0c3f
00000190: 688b 1f3f 5f36 b23e 1974 f73e 684f 35be
000001a0: 3f3e 1b3f 47cb aa3c 398b d83e 7612 98be
000001b0: 7f8f 0e3f fd89 c4be 520b b2be dcc8 0c3f
000001c0: 9952 a6bd 7156 1e3f 4052 89bd 796d 093e
000001d0: ddaa 8cbe 8f77 97be 3c14 203f 03b0 2e3f
000001e0: 2265 d4be c9a6 ca3e 1f52 a4bd d0ff 2cbe
000001f0: fe31 d0be 6135 aa3e ec19 f73e d046 b6be

layer2.weight f4 [128, 128]
-0.2443623 0.11687128 0.182628 0.18715343 -0.04232374 0.19895092 -0.101748675 -0.2282317
-0.06757224 0.06532463 0.083303556 0.1821479 0.15254089 0.20928882 0.06560898 0.17300583
-0.045084637 0.025113171 0.07789709 -0.025614569 0.05037702 0.06606211 0.19262552 -0.34137136
0.05718113 0.11538797 -0.16879216 -0.040168393 -0.44400465 -0.2581472 -0.35731527 -0.29326615
0.07725745 -0.007972162 -0.19083694 -0.14184222 0.1836476 0.052800667 0.027957765 0.11641409
0.09965731 -0.3648333 -0.2993753 -0.047850866 0.1368549 0.07783022 -0.031544212 -0.18609655
0.12819102 -0.07230423 -0.30404684 0.15491572 0.107401475 -0.16912977 0.087722026 0.09668127
-0.12107068 0.15855092 0.0860168 0.15780397 -0.06456016 -0.30447212 -0.2704621 0.101824835
0.16614074 0.116802186 0.059171703 0.120950654 -0.054263216 0.11946948 0.0794869 0.11905713
0.17109369 0.10611572 0.2983972 0.09878156 0.07394443 -0.65331787 0.13013247 -0.013735334
-0.19687493 0.077309184 0.036366764 0.052368265 0.107907586 0.15665695 -0.07155984 0.18183568
0.06790033 0.16577104 0.1245953 0.2337945 -0.12637597 -0.19717695 0.09379048 -0.067274705
0.110309325 0.10027825 -0.39215216 0.04434749 0.08451809 0.085194066 0.10206893 -0.29439804
0.020144148 -0.11813933 0.088915996 -0.073344946 0.011532585 -0.042056657 -0.28910518 0.08741907
-0.06979287 0.19381988 -0.12647237 0.032896604 -0.20251012 -0.411249 0.14934582 0.1405972
-0.06174516 0.0821795 -0.28975812 -0.33888358 -0.3013709 0.08230964 0.2174045 -0.12872633
-0.11677788 0.1590706 0.078879334 0.09329011 -0.10107352 0.2546701 -0.05376385 -0.2338132
-0.0073720803 0.23275217 0.1632612 0.16797727 0.17434986 0.31204537 0.2706806 0.16488431
-0.059067413 0.11610934 0.16504811 0.12083308 0.15169176 0.14673932 0.28026253 -0.41440034
0.039954472 0.33801332 -0.046904758 0.017830119 -0.19143122 -0.0916764 -0.22577828 -0.26590812
0.25381118 -0.015872924 -0.20494726 -0.14669 0.26523522 0.243381 0.13731498 0.16484411
0.18653445 -0.17563371 -0.22920318 -0.091841795 0.19828114 0.21532862 0.087159865 -0.17103203
0.22641683 -0.12762685 -0.18642674 0.19503093 0.12426751 0.045042228 0.21213938 0.29247478
-0.18725918 0.015421058 0.2604159 0.09800217 -0.066357486 -0.30965525 -0.13144155 0.1294655
0.24403147 0.15120974 0.2460756 0.1849014 -0.0062211296 0.10420458 0.30970374 0.22049114
0.18818733 0.24228318 0.31800228 0.15815108 0.08470639 -0.35880348 0.14969194 -0.11444483
0.008965086 0.12983556 0.10745631 0.17608368 -0.034579642 0.24841821 -0.04195255 0.14289215
0.29411545 0.24947909 0.0010455326 0.17098057 -0.02655235 -0.11713176 0.088598885 -0.08898669
0.1316472 0.20429203 -0.03302844 0.14351135 0.13528916 0.06966467 0.10509618 -0.074329965
0.1363756 0.04873437 0.06488967 0.019224996 0.1847972 -0.11776359 -0.06708903 0.17831369
0.08739587 0.29304466 -0.030795874 0.014547653 0.008231372 -0.27309284 0.18767245 0.28672445
-0.037277583 0.087849244 -0.14145657 -0.17179224 -0.1280577 0.18974909 0.19165778 -0.07051609
00000000: 1c3a 7abe 365a ef3d d602 3b3e 26a5 3f3e
00000010: a85b 2dbd cab9 4b3e 9c61 d0bd 92b5 69be
00000020: 5163 8abd ebc8 853d 0e9b aa3d fb84 3a3e
00000030: ae33 1c3e cf4f 563e 005e 863d 7128 313e
00000040: abaa 38bd 23ba cd3c 8288 9f3d a5d5 d1bc
00000050: 2258 4e3d 924b 873d a03f 453e 3ac8 aebe
00000060: c336 6a3d 8750 ec3d dad7 2cbe 9d87 24bd
00000070: 9454 e3be df2b 84be 07f2 b6be fb26 96be
00000080: 2739 9e3d ac9d 02bc c26a 43be 163f 11be
00000090: 1e0e 3c3e 8345 583d af07 e53c 836a ee3d
000000a0: 2219 cc3d 6ecb babe b847 99be 45ff 43bd
000000b0: b123 0c3e 7365 9f3d 8134 01bd 1890 3ebe
000000c0: 8244 033e 3d14 94bd 07ac 9bbe 3aa2 1e3e
000000d0: 4ef5 db3d 5b30 2dbe 9ba7 b33d d400 c63d
000000e0: e8f3 f7bd 2c5b 223e 9329 b03d 5d97 213e
000000f0: 1e38 84bd c5e3 9bbe 027a 8abe 8a89 d03d
00000100: cc20 2a3e fc35 ef3d 075e 723d fab4 f73d
00000110: 1b43 5ebd 6aac f43d 07ca a23d 39d4 f33d
00000120: 2f33 2f3e 3353 d93d 85c7 983e fd4d ca3d
00000130: 2d70 973d d73f 27bf 7241 053e 2b0a 61bc
00000140: 9599 49be 4754 9e3d 51f5 143d 1b80 563d
00000150: a7fe dc3d ae6a 203e f78d 92bd 2233 3a3e
00000160: 540f 8b3d e2bf 293e d22b ff3d d367 6f3e
00000170: b468 01be c1e8 49be 3915 c03d 52c7 89bd
00000180: dbe9 e13d af5e cd3d 2bc8 c8be b7a5 353d
00000190: d217 ad3d 3a7a ae3d 8409 d13d 57bb 96be
000001a0: 5705 a53c 08f3 f1bd 9719 b63d e035 96bd
000001b0: 2bf3 3c3c 9a43 2cbd 9805 94be c508 b33d
000001c0: 90ef 8ebd b878 463e f981 01be 97be 063d
000001d0: d05e 4fbe 3b8f d2be 1cee 183e b6f8 0f3e
000001e0: 7ee8 7cbd ba4d a83d 2d5b 94be 2682 adbe
000001f0: 494d 9abe f591 a83d 499f 5e3e d6d0 03be
00000200: 3e29 efbd 67e3 223e 7d8b a13d e30e bf3d
00000210: a2ff cebd 1f64 823e 7c37 5cbd ba6c 6fbe
00000220: 7e91 f1bb 9656 6e3e f22d 273e 3c02 2c3e
00000230: c588 323e 69c4 9f3e a696 8a3e 6fd7 283e
00000240: acf0 71bd bcca ed3d 5f02 293e 5577 f73d
00000250: 1655 1b3e d542 163e 927e 8f3e 482c d4be
00000260: 4da7 233d 1510 ad3e 341f 40bd 7810 923c
00000270: 8c06 44be d6c0 bbbd 6c32 67be 1c25 88be
00000280: 8af3 813e ef07 82bc b2dd 51be e735 16be
00000290: e9cc 873e de38 793e 4c9c 0c3e e5cc 283e
000002a0: e302 3f3e 53d9 33be 3db4 6abe 8d17 bcbd
000002b0: 360a 4b3e 1b7f 5c3e df80 b23d 0523 2fbe
000002c0: d0d9 673e 9db0 02be a7e6 3ebe 30b6 473e
000002d0: f77f fe3d 337e 383d 113b 593e 41bf 953e
000002e0: dfc0 3fbe 9ba8 7c3c 3c55 853e 5db5 c83d
000002f0: 6fe6 87bd 228b 9ebe 9d98 06be 9b92 043e
00000300: 63e3 793e bad6 1a3e 3efb 7b3e cb56 3d3e
00000310: 9eda cbbb 3669 d53d 7d91 9e3e 6ec8 613e
00000320: 2eb4 403e 1519 783e 32d1 a23e 5bf2 213e
00000330: 8b7a ad3d 17b5 b7be d848 193e 0d62 eabd
00000340: 4ce2 123c 9df3 043e 0e12 dc3d 484f 343e
00000350: 62a3 0dbd 5861 7e3e 70d6 2bbd 5252 123e
00000360: 4d96 963e 7277 7f3e 410a 893a 8815 2f3e
00000370: 5084 d9bc c7e2 efbd 5573 b53d a73e b6bd
00000380: 86ce 063e ee31 513e d448 07bd a4f4 123e
00000390: 3e89 0a3e 5aac 8e3d ab3c d73d 4f3a 98bd
000003a0: 0ca6 0b3e b19d 473d e0e4 843d bd7d 9d3c
000003b0: 7a3b 3d3e 092e f1bd f965 89bd dd97 363e
000003c0: 9bfc b23d f309 963e a147 fcbc 4759 6e3c
000003d0: e0dc 063c d3d2 8bbe 352d 403e 8ccd 923e
000003e0: 61b0 18bd 4eea b33d fed9 10be 4eea 2fbe
000003f0: 8f21 03be 964d 423e f041 443e bd6a 90bd

layer2.bias f4 [128]
0.15049827 0.27643564 -0.055541486 0.034612674 0.21875739 -0.07159908 -0.042605475 0.17813848
0.1267842 -0.05319099 0.20623589 0.040459692 0.029453179 -0.026280556 -0.017768849 0.019199222
0.16966009 0.10523185 0.20761043 0.25183547 0.21594065 0.31390467 -0.05390318 0.2531161
0.14677937 -0.010011648 0.13910313 0.26657966 0.042683974 0.15052702 0.20287788 0.14102599
0.21037927 0.11735537 -0.0006673663 0.027125519 0.19370507 0.11168798 0.1717546 0.13801374
-0.023781354 -0.031490803 -0.07037654 0.08689583 0.083100446 0.039905045 -0.018306764 0.31187847
0.06527295 0.0029872672 0.03630891 0.056118228 -0.15742333 0.047895238 0.0360202 0.0021030102
-0.043574136 -0.064565435 -0.060707934 0.1011289 -0.07617547 0.33832353 0.1641094 0.039155927
0.24405925 -0.018375903 -0.08479735 -0.022636201 0.14627656 -0.014228429 0.039828274 0.26868355
-0.019641066 -0.046189386 0.008785117 0.0008511719 0.26142752 0.17167722 0.042327147 0.0031023007
0.020301726 0.020377273 0.01992533 0.23796932 0.025682464 -0.0299224 -0.1058189 0.17689914
0.27874923 -0.006331591 0.23039134 0.24218445 -0.011075514 -0.061237775 -0.012865614 0.034155335
0.28199208 0.13089156 0.16161127 -0.048346058 0.12603523 -0.017477084 0.3188306 -0.059676807
0.10923527 -0.02920327 -0.031126315 0.024847329 0.28762898 -0.08575238 -0.00095994596 0.111751445
0.31419235 0.28880507 -0.06130217 0.24893703 0.096472286 0.16369253 0.20654432 0.066706896
0.014995681 0.30084595 -0.03197659 -0.036107186 0.050018445 -0.04082363 0.015406975 0.3505333
00000000: 381c 1a3e f988 8d3e 787f 63bd 05c6 0d3d
00000010: f001 603e 8aa2 92bd 1483 2ebd ef69 363e
00000020: b8d3 013e ccde 59bd 802f 533e 10b9 253d
00000030: cb47 f13c 524a d7bc fa8f 91bc b047 9d3c
00000040: 60bb 2d3e cc83 d73d d497 543e 94f0 803e
00000050: 8c1f 5d3e 1db8 a03e 95c9 5cbd 6f98 813e
00000060: 554d 163e e507 24bc 0d71 0e3e 217d 883e
00000070: 64d5 2e3d c123 1a3e 38bf 4f3e 1e69 103e
00000080: aa6d 573e 0358 f03d 32f2 2eba 5636 de3c
00000090: 9f5a 463e abbc e43d 70e0 2f3e 7953 0d3e
000000a0: 1dd1 c2bc 80fc 00bd 9321 90bd 71f6 b13d
000000b0: 9130 aa3d 7973 233d 11f8 95bc 89ae 9f3e
000000c0: d3ad 853d 07c6 433b a7b8 143d 3adc 653d
000000d0: 9533 21be cc2d 443d eb89 133d a8d2 093b
000000e0: cb7a 32bd e23a 84bd e2a8 78bd ab1c cf3d
000000f0: e301 9cbd be38 ad3e 4b0c 283e f761 203d
00000100: abea 793e 1089 96bc 3caa adbd 8e6f b9bc
00000110: 86c9 153e 5b1e 69bc f922 233d e490 893e
00000120: 4de6 a0bc 1531 3dbd 74ef 0f3c 2e21 5f3a
00000130: d4d9 853e 27cc 2f3e 3b5f 2d3d f84f 4b3b
00000140: ce4f a63c 3dee a63c 723a a33c 3bae 733e
00000150: 0864 d23c d21f f5bc 94b7 d8bd 0c25 353e
00000160: 38b8 8e3e 3c79 cfbb b5eb 6b3e 33ff 773e
00000170: 1376 35bc 76d4 7abd 4cca 52bc 77e6 0b3d
00000180: 4461 903e 7008 063e 6d7d 253e 8406 46bd
00000190: 610f 013e 1a2c 8fbc c43d a33e ab6f 74bd
000001a0: beb6 df3d b23b efbc 9dfc febc a08c cb3c
000001b0: 1b44 933e f29e afbd e2a4 7bba f1dd e43d
000001c0: d2dd a03e 42de 933e fc17 7bbd 59e9 7e3e
000001d0: 4393 c53d 049f 273e 5b80 533e a09d 883d
000001e0: 72b0 753c 7b08 9a3e e3f9 02bd 21e5 13bd
000001f0: 24e0 4c3d ae36 27bd 896d 7c3c 1a79 b33e

layer3.weight f4 [2, 128]
0.33073315 0.14662635 -0.15140636 -0.24945049 0.24209806 -0.27385023 -0.3632774 0.2513141
0.21788716 -0.13714264 0.23797269 -0.021806417 0.015280967 -0.05885554 -0.25626093 0.17757323
0.28475744 0.29862833 0.30629256 0.33631933 0.28180358 0.30712652 -0.24410434 0.1986139
0.25568438 -0.48781058 0.2701865 0.24670665 0.2887153 0.29203656 0.27561805 0.25563172
0.06620442 0.25120208 0.28341928 -0.46153766 0.26951337 0.1961534 0.21149157 0.32457814
-0.1294862 -0.32975122 -0.08477582 0.3130222 0.21252953 0.020683797 -0.4034562 0.28175455
0.032414064 -0.40929997 0.027968127 0.30022278 -0.44011962 -0.161267 -0.0629432 0.034541402
-0.022131061 -0.33121684 -0.27316147 0.27187482 -0.48004422 0.250326 0.3051192 -0.36037314
0.2852952 -0.33225656 -0.628977 -0.025173198 0.30776775 -0.46997768 -0.035455484 0.242629
-0.5904084 -0.46230274 -0.06799866 -0.3783919 0.30864784 0.2094524 -0.14555943 -0.13848631
-0.29398456 0.3092764 -0.42077053 0.30104575 -0.58739 0.009097912 -0.058152683 0.24015968
0.3102534 0.011602092 0.30475634 0.32157892 -0.025002118 0.06208788 -0.2007935 -0.1972253
0.2876091 0.30124924 0.27654424 -0.041382592 0.25785276 -0.54678893 0.315274 0.05809445
-0.30591658 -0.015686197 -0.3536781 -0.18443401 0.164241 -0.33042625 -0.04728883 0.17585713
0.24930467 0.35534868 -0.063602746 0.27895617 0.22267887 0.1586572 0.281814 0.2030758
0.058596205 0.3872126 -0.46330148 -0.1101625 -0.05590569 -0.10683266 0.2348083 0.2537786
0.2635227 0.2867849 -0.4098745 -0.673634 0.28604832 -0.2699408 -0.36074668 0.3285113
0.1792853 -0.17542242 0.10299039 0.040087998 -0.06346808 0.0024414815 0.038656168 0.22639062
0.25000778 0.318315 0.21571226 0.19901998 0.32723212 0.21661144 -0.38799378 0.29852906
0.32068774 -0.5225057 0.18176204 0.18078098 0.27730682 0.33459732 0.2684567 0.23690934
0.28162405 0.31245852 0.2419465 -0.36370417 0.33375472 0.25154588 0.25408903 0.2887997
0.0019671167 -0.18713951 -0.49225172 0.33032733 0.25216788 -0.017625669 -0.5441344 0.30365765
0.29253957 -0.085174635 -0.05026657 0.01802337 -0.8005935 -0.25513482 -0.030925432 0.011633262
-0.019250566 -0.13586818 0.07060669 0.22109364 -0.101181746 0.35578996 0.24323696 0.11523135
0.2653748 -0.40060553 -0.45708686 0.043420117 0.32958552 -0.5239246 0.052017204 0.26413912
-0.6039869 -0.25942394 0.015407387 -0.39721936 0.30215052 0.24912 0.17118758 -0.041311134
-0.1441669 0.30828595 -0.1703288 0.2203822 -0.65219563 -0.003795444 -0.30112943 0.28041184
0.16758884 -0.008535377 0.19388497 0.2221935 -0.046972733 0.012844767 -0.22547951 -0.116346665
0.27189818 0.26331845 0.30710953 0.06381274 0.3256365 -0.726721 0.20886363 0.0015282548
0.09997027 -0.06084338 -0.19394548 -0.16796328 0.3112254 -0.44661623 0.040545017 0.26645795
0.22188014 0.2153414 -0.33339462 0.30025402 0.26627263 0.27891636 0.30276495 0.23383442
0.05937768 0.27961183 -0.12453884 -0.31079337 -0.06370249 0.04551905 0.2866755 0.3290683
00000000: db55 a93e 3825 163e 450a 1bbe f36f 7fbe
00000010: 8ee8 773e 1936 8cbe 7fff b9be 3eac 803e
00000020: d01d 5f3e 1f6f 0cbe 1daf 733e 5fa3 b2bc
00000030: 055d 7a3c 8212 71bd a234 83be c2d5 353e
00000040: bacb 913e d0e5 983e 61d2 9c3e 0c32 ac3e
00000050: 8f48 903e b03f 9d3e 7df6 79be 7161 4b3e
00000060: 10e9 823e 4fc2 f9be e355 8a3e aba0 7c3e
00000070: 7ed2 933e d185 953e cf1d 8d3e 29e2 823e
00000080: 2f96 873d 8f9d 803e 551c 913e aa4e ecbe
00000090: a8fd 893e 70dc 483e 3f91 583e 1b2f a63e
000000a0: 0898 04be 27d5 a8be f29e adbd 7244 a03e
000000b0: 57a1 593e 1171 a93c d091 cebe 2242 903e
000000c0: 9cc4 043d c48f d1be 6a1d e53c cdb6 993e
000000d0: 5c57 e1be 2d23 25be 5de8 80bd 497b 0d3d
000000e0: 334c b5bc 4195 a9be d2db 8bbe 2d33 8b3e
000000f0: 5bc8 f5be bb2a 803e 9538 9c3e d482 b8be
00000100: 3612 923e 881d aabe a304 21bf 0638 cebc
00000110: bc93 9d3e eaa0 f0be c539 11bd bd73 783e
00000120: 0125 17bf f2b2 ecbe e242 8bbd 95bc c1be
00000130: 1707 9e3e b17a 563e 880d 15be 5bcf 0dbe
00000140: 2585 96be 7a59 9e3e 3c6f d7be ab22 9a3e
00000150: 315f 16bf 690f 153c 8231 6ebd 6bec 753e
00000160: 89d9 9e3e b316 3e3c 0609 9c3e fea5 a43e
00000170: 3ed1 ccbc dc4f 7e3d d09c 4dbe 6ef5 49be
00000180: 8041 933e 573d 9a3e 3597 8d3e cb80 29bd
00000190: 4705 843e 5cfa 0bbf 986b a13e 72f4 6d3d
000001a0: 19a1 9cbe 5780 80bc 4c15 b5be 45dc 3cbe
000001b0: cb2e 283e a12d a9be efb1 41bd e413 343e
000001c0: b949 7f3e 43f0 b53e 2842 82bd 58d3 8e3e
000001d0: ee05 643e 0877 223e ed49 903e 1af3 4f3e
000001e0: 9302 703d bb40 c63e da35 edbe e09c e1bd
000001f0: 5dfd 64bd 15cb dabd 9671 703e 45ef 813e
00000200: 73ec 863e 78d5 923e 12db d1be 4773 2cbf
00000210: ed74 923e ae35 8abe cab3 b8be a232 a83e
00000220: 9196 373e efa1 33be a0ec d23d 5033 243d
00000230: 8dfb 81bd 4301 203b ee55 1e3d f1d2 673e
00000240: 0501 803e 2ffa a23e ade3 5c3e e5cb 4b3e
00000250: f88a a73e 64cf 5d3e 1fa7 c6be cdd8 983e
00000260: 2f31 a43e efc2 05bf d41f 3a3e a61e 393e
00000270: 29fb 8d3e 5750 ab3e 2873 893e 5d98 723e
00000280: 0731 903e 90fa 9f3e d3c0 773e 6f37 babe
00000290: e6e1 aa3e 9fca 803e f517 823e 8edd 933e
000002a0: beea 003b 80a1 3fbe 6b08 fcbe aa20 a93e
000002b0: 261c 813e b563 90bc 644c 0bbf 0479 9b3e
000002c0: bfc7 953e 0a70 aebd 52e4 4dbd bfa5 933c
000002d0: b2f3 4cbf 08a1 82be 5557 fdbc 7099 3e3c
000002e0: 5db3 9dbc 0721 0bbe 3e9a 903d 5f66 623e
000002f0: 6038 cfbd 1a2a b63e 1c13 793e 6afe eb3d
00000300: 35df 873e 2b1c cdbe 4a07 eabe 4bd9 313d
00000310: 6fbf a83e ec1f 06bf fe0f 553d 3e3d 873e
00000320: e39e 1abf 37d3 84be 446f 7c3c 5660 cbbe
00000330: 79b3 9a3e 5019 7f3e cc4b 2f3e dd35 29bd
00000340: 7da0 13be a8d7 9d3e ac6a 2ebe dfab 613e
00000350: 4bf6 26bf fcbc 78bb a32d 9abe 2492 8f3e
00000360: 699c 2b3e f7d7 0bbc c889 463e b186 633e
00000370: 7b66 40bd dc72 523c 1ae4 66be 2947 eebd
00000380: 3d36 8b3e add1 863e 763d 9d3e 41b0 823d
00000390: d4b9 a63e 630a 3abf 59e0 553e b94f c83a
000003a0: 37bd cc3d e836 79bd a599 46be 91fe 2bbe
000003b0: f058 9f3e e2aa e4be 8812 263d 2d6d 883e
000003c0: 8c34 633e 7582 5c3e b3b2 aabe e5ba 993e
000003d0: e354 883e 20ce 8e3e 0204 9b3e 4a72 6f3e
000003e0: 0336 733d 4829 8f3e 380e ffbd 4f20 9fbe
000003f0: 7376 82bd 2f72 3a3d 22c7 923e a47b a83e

layer3.bias f4 [2]
0.07036156 0.05832597
00000000: b919 903d 36e7 6e3d
