lab1-LeNet/model/1019181123.pth (torch, 250887 bytes, 10 tensors)

conv1.weight f4 [6, 3, 5, 5]
0	0xbe31fece	-0.17382357
1	0xbd8ae301	-0.06781579
2	0x3e10bfec	0.14135712
3	0xbb18e7b0	-0.0023331456
4	0xbda82120	-0.08209443
5	0xbe020788	-0.12698185
6	0xbd9bc7f1	-0.07606495
7	0xbd4a6b63	-0.04941882
8	0xbe8b357b	-0.2718924
9	0xbdecc863	-0.11561658
10	0xbdc733ea	-0.09726699
11	0x3e0ee375	0.13953955
12	0xbbe24a1b	-0.0069058067
13	0xbe950e81	-0.29112628
14	0xbe018ef5	-0.1265219
15	0xbdc0e768	-0.09419137
16	0x3cdcfa8e	0.026974943
17	0xbd219add	-0.03945433
18	0x3e1b487a	0.15164366
19	0x3cc07259	0.023492025
20	0x3b980731	0.004639529
21	0xbcdd1188	-0.026985899
22	0x3d93e680	0.07221699
23	0x3e648842	0.22317603
24	0x3d8769fd	0.066120125
25	0xbe0db574	-0.1383875
26	0x3c05c261	0.008164019
27	0x3e7f69cd	0.24942704
28	0xbcc5b0a8	-0.024132088
29	0x3d9c96ad	0.076459266
30	0x3cb875e5	0.022517154
31	0x3d1f84e6	0.0389451
32	0xbc98f9af	-0.018673746
33	0xbe1536d3	-0.14571695
34	0x3db30253	0.08740678
35	0x3e20b529	0.15694107
36	0x3dc25127	0.09488135
37	0x3de914f7	0.11380952
38	0xbe84beea	-0.25926906
39	0x3e443a63	0.19162898
40	0xbdcf5c58	-0.10125035
41	0x3e850863	0.2598296
42	0x3bfd9a51	0.007739343
43	0x3e629d43	0.22130303
44	0x3e67ca61	0.22635795
45	0x3e0dd447	0.13850509
46	0xbd8c0022	-0.06835963
47	0xbd75664e	-0.05991202
48	0x3e792503	0.24330525
49	0x3d281a01	0.041040424
50	0xbe1e46cd	-0.15456696
51	0xbd2cc0d4	-0.042176083
52	0x3de72c1f	0.11287712
53	0xbd21a366	-0.03946247
54	0x3c0b6fde	0.008510558
55	0x3d6d69d5	0.057962257
56	0xbc0337a2	-0.008008869
57	0xbd8e33e3	-0.0694349
58	0xbe25c57f	-0.1618862
59	0x3d4effe2	0.050536998
60	0xbd846a19	-0.06465549
61	0x3dd99402	0.106239334
62	0xbc8a9889	-0.016918438
63	0xbe91705c	-0.28406036
64	0xbd6ef8de	-0.058342807
65	0xbe3d7039	-0.18499841
66	0xbb315e0e	-0.0027064118
67	0xbd33c266	-0.043886565
68	0x3e0ac1ef	0.13550542
69	0x3d762469	0.060093317
70	0xbd88b3a1	-0.066748865
71	0xbe42aeca	-0.19011989
72	0xbd10f056	-0.035385452
73	0x3d9b642e	0.07587467
74	0xbde9c16d	-0.11413846
75	0xbe3cb535	-0.184285
76	0xbc9844db	-0.01858752
77	0xbe588b6d	-0.21146937
78	0xbe947249	-0.28993443
79	0xbe883495	-0.26602617
80	0xbdd9530e	-0.106115445
81	0x3e1b9df2	0.1519697
82	0x3dc67677	0.09690564
83	0xbd63e362	-0.05563677
84	0xbd25ecfa	-0.0405092
85	0xbda23c83	-0.07921698
86	0x3d5016d9	0.05080304
87	0x3e4bac12	0.19889858
88	0x3e6a58b8	0.22885406
89	0xbdccbbb1	-0.09996737
90	0x3d6ef10d	0.058335353
91	0xbdb84e0d	-0.08999262
92	0x3e267c02	0.16258243
93	0x3ee29351	0.44253018
94	0x3ea08e5f	0.3135862
95	0x3e914c5e	0.28378576
96	0xbde5a27e	-0.112126336
97	0xbe2900a3	-0.16504149
98	0xbce0e543	-0.02745307
99	0x3e7a5bd5	0.24449094
100	0x3d57999f	0.05263674
101	0x3e606305	0.21912773
102	0xbd8eab68	-0.06966287
103	0x3db992bc	0.090611905
104	0xbdad2300	-0.08453941
105	0xbdfaa733	-0.12238922
106	0x3d9f816e	0.07788359
107	0x3dfe4e21	0.12417246
108	0x3da47159	0.08029432
109	0xbd9fabf3	-0.077964686
110	0xbe448c08	-0.19194043
111	0xbe80d26f	-0.25160548
112	0x3d518920	0.051156163
113	0x3d7f7b6c	0.062373564
114	0xbd26ab57	-0.040690746
115	0xbe0c2de4	-0.13689381
116	0xbe847555	-0.25870767
117	0xbe612039	-0.21984948
118	0x3e34152d	0.17586203
119	0x3dc6b866	0.0970314
120	0x3cf53d51	0.029936465
121	0xbe5534b1	-0.20820881
122	0xbec49b23	-0.3839961
123	0xbe1e3e89	-0.15453543
124	0xbda6f229	-0.08151657
125	0x3e0d6749	0.13808931
126	0x3e44d7bc	0.19222921
127	0x3e265c7a	0.16246215
128	0x3e224801	0.1584778
129	0xbc6f5403	-0.014607432
130	0xbe016b82	-0.12638667
131	0x3cf64061	0.030059995
132	0x3de533a7	0.111914925
133	0x3d9250f0	0.07144344
134	0x3c82edbb	0.0159825
135	0xbdb2bbb8	-0.08727211
136	0x3bda4208	0.0066607036
137	0x3dd6dfd6	0.10491912
138	0x3c97c97d	0.018528694
139	0xbd82ccd7	-0.06386726
140	0x3d89681d	0.06709311
141	0xbe6799ce	-0.22617266
142	0xbd1ff07c	-0.039047703
143	0x3daf975c	0.085737914
144	0x3da5630f	0.080755346
145	0x3e02e967	0.12784348
146	0xbdab2387	-0.08356386
147	0xbe8b998b	-0.2726558
148	0xbe37bcb4	-0.17943078
149	0xbd8b1c8c	-0.06792554
150	0x3dd0418d	0.10168753
151	0xbd9683c3	-0.0734935
152	0x3e43202f	0.19055246
153	0xbc3b3f70	-0.011428699
154	0x3da034ab	0.078225456
155	0x3e4cd398	0.20002592
156	0x3e2326b7	0.15932737
157	0x3e6d3224	0.23163658
158	0x3e9d8424	0.30764878
159	0x3e34542b	0.17610233
160	0xbddd41ed	-0.1080359
161	0xbe122efa	-0.14275733
162	0xbe386952	-0.18008927
163	0xbe9a24d1	-0.30106214
164	0xbe928d1a	-0.28623277
165	0xbd8fb000	-0.07015991
166	0xbb90e2d7	-0.0044215727
167	0xbd95d329	-0.07315666
168	0xbe505e81	-0.2034855
169	0xbcd6949d	-0.026193911
170	0xbe0702b3	-0.13184623
171	0xbdf927c3	-0.12165787
172	0xbd08c3d5	-0.033389885
173	0x3b0476f9	0.0020212515
174	0xbd00b712	-0.03142459
175	0xbdf934ab	-0.12168249
176	0xbdb2fe87	-0.087399535
177	0x3b72ff02	0.0037078266
178	0xbc4da9d0	-0.0125526935
179	0xbd5a1f47	-0.053252485
180	0x3e1e6fe2	0.15472367
181	0x3e5190d9	0.20465411
182	0x3ed28b98	0.41122127
183	0x3e892b95	0.26791063
184	0x3e819e27	0.25315973
185	0x3c35755b	0.011075343
186	0xbc1c0267	-0.009522057
187	0xbe284ec5	-0.16436298
188	0xbdf09baa	-0.117484406
189	0xbdc66ab0	-0.09688318
190	0xbdc390a2	-0.09549071
191	0xbdd32528	-0.10309821
192	0xbe0266c4	-0.12734514
193	0xbe4ebdc2	-0.20189574
194	0xbe0f63d2	-0.14002922
195	0xbc3a9b4c	-0.011389565
196	0xbe168830	-0.14700389
197	0x3d2b7700	0.041861534
198	0x3cb572f8	0.022149548
199	0x3c639e4c	0.013892721
200	0xbe005077	-0.12530695
201	0xbe62f628	-0.22164214
202	0xbdf40417	-0.119148426
203	0xbe93a7aa	-0.28838855
204	0xbdf0df20	-0.11761308
205	0xbd95658a	-0.07294758
206	0x3e79a52c	0.24379414
207	0x3e8acd3c	0.27109706
208	0x3e22ae92	0.15886906
209	0x3e19435c	0.14967102
210	0x3e08e053	0.13366823
211	0x3d3952c1	0.045244936
212	0xbd7e8c70	-0.06214565
213	0x3ce7bcfc	0.028288357
214	0x3c74c22a	0.01493887
215	0x3dd7edc9	0.10543401
216	0xbd925bc1	-0.07146407
217	0xbd3bedd2	-0.0458811
218	0x3d7d13a5	0.061786313
219	0xbcbc407a	-0.022979964
220	0x3ccd5210	0.025063545
221	0x3e310b66	0.17289504
222	0x3ce6f536	0.028193098
223	0x3cb8ced8	0.022559568
224	0x3de12cb1	0.10994852
225	0x3e578f51	0.21050765
226	0xbdcb78ea	-0.09935172
227	0xbc64637b	-0.013939734
228	0x3c68def5	0.014213313
229	0xbdaa5986	-0.083178565
230	0x3ba6133e	0.005068212
231	0xbdcdffe1	-0.10058571
232	0xbe19bb6b	-0.150129
233	0x3e7600a0	0.24023676
234	0xbdbe4ff1	-0.09292591
235	0x3cc74ba1	0.024328055
236	0xbe5282b2	-0.20557669
237	0xbde28563	-0.11060598
238	0x3e989b93	0.29806194
239	0xbc9447f9	-0.018100725
240	0xbdb8033c	-0.08984992
241	0xbe63842a	-0.22218385
242	0x3d6087f8	0.05481717
243	0x3e3600d8	0.1777376
244	0x3d9e8c4c	0.07741603
245	0x3ccdc27a	0.025117148
246	0xbc903dc5	-0.017607579
247	0xbd067e3a	-0.032835223
248	0x3e2720de	0.16321132
249	0xbd286f45	-0.04112174
250	0x3c229c69	0.009924986
251	0xbdbf9963	-0.09355428
252	0xbd495c63	-0.049160372
253	0x3df17a21	0.11790872
254	0x3da57093	0.080781125
255	0x3da63edd	0.08117459

conv1.bias f4 [6]
0	0x3bb19c23	0.0054202243
1	0xbea6400d	-0.32470742
2	0xbe65a6f5	-0.2242697
3	0xbe81ce4f	-0.25352713
4	0xbe75845a	-0.2397627
5	0xbc84139c	-0.016122632

conv2.weight f4 [16, 6, 5, 5]
0	0xbcfcd7d7	-0.03086464
1	0xbd9db60e	-0.0770074
2	0xbc22383a	-0.009901101
3	0xbdcb6697	-0.09931677
4	0x3d8313a1	0.06400228
5	0x3ccacf43	0.024757033
6	0x3c97900c	0.018501304
7	0x3b00b58f	0.0019639467
8	0x3d10a2e7	0.035311606
9	0x3dc59c74	0.09648982
10	0xbd3f93b6	-0.046771728
11	0xbdfea271	-0.12433327
12	0x3d7913c2	0.06080986
13	0xbe22e1d5	-0.1590646
14	0xbd377112	-0.044785567
15	0xbd993158	-0.07480115
16	0xbe5bc277	-0.21460901
17	0xbe74f347	-0.23920928
18	0xbdda02c3	-0.10645058
19	0xbddd2626	-0.10798292
20	0xbd1586dd	-0.03650557
21	0xbcad0ef5	-0.021125296
22	0xbe26b4c3	-0.16279893
23	0xbe29792c	-0.1655013
24	0xbd6e6148	-0.058198243
25	0xbd831a41	-0.06401492
26	0x3c9d9018	0.019233748
27	0xbd9193b9	-0.07108254
28	0x3d845302	0.06461145
29	0xbd4b3ed0	-0.04962045
30	0x3e146c59	0.14494456
31	0x3e10e6d8	0.1415056
32	0x3df482f7	0.11939042
33	0x3dce28e4	0.10066393
34	0xbdbdaa48	-0.09260994
35	0x3ee27749	0.44231632
36	0x3e855b5e	0.2604627
37	0x3e7440b9	0.23852815
38	0xbba7178e	-0.0050992435
39	0xbd7e398b	-0.062066596
40	0x3e12e173	0.14343815
41	0x3c329afb	0.010901208
42	0x3dc038a0	0.093858
43	0x3cfcabc2	0.03084362
44	0xbd16fcf5	-0.036862332
45	0xbe48ff41	-0.19628622
46	0xbe987115	-0.29773775
47	0xbebb711b	-0.3660973
48	0xbe7df26f	-0.24799512
49	0xbeb035b3	-0.3441597
50	0x3db9ff20	0.09081864
51	0x3e00be9a	0.12572709
52	0x3d8c2999	0.068438716
53	0x3d92e1af	0.07171952
54	0x3d89e476	0.067330286
55	0x3d189e14	0.03726013
56	0xbdaf2e7b	-0.08553787
57	0x3da143b1	0.07874239
58	0x3cbcecbf	0.023062108
59	0x3e06da83	0.13169293
60	0x3e9e506c	0.30920732
61	0x3e044015	0.1291507
62	0x3cc0d202	0.02353764
63	0x3e1c9fee	0.15295383
64	0x3ddc2448	0.107491076
65	0x3d80a6b8	0.06281799
66	0x3e0d0d24	0.13774544
67	0x3e9b6aab	0.3035482
68	0x3e73b375	0.23798926
69	0x3e533dd7	0.20629059
70	0x3e858d4d	0.26084366
71	0x3e425461	0.189775
72	0x3e4872f8	0.19575107
73	0x3e834d90	0.25645113
74	0x3e86a975	0.2630116
75	0xbda33058	-0.07968205
76	0x3de4d7d9	0.11173982
77	0x3d2ced7b	0.042218667
78	0x3e16264e	0.1466305
79	0x3e3f1b29	0.18662705
80	0xbd61f791	-0.05516774
81	0x3d23cc4a	0.039989747
82	0xbe26ca13	-0.16288023
83	0x3d69330c	0.056933448
84	0x3dc6c250	0.09705031
85	0xbd54fcf0	-0.051999032
86	0xbceeab81	-0.029134514
87	0xbe2abfdc	-0.16674751
88	0xbab93508	-0.0014130184
89	0xbe191cb0	-0.1495235
90	0xbe4b2513	-0.19838361
91	0xbe571429	-0.21003784
92	0xbe56f1b0	-0.20990634
93	0xbd90b2f0	-0.070653796
94	0xbdc4599a	-0.09587403
95	0xbea1f9ff	-0.31636044
96	0xbe93b48d	-0.28848687
97	0xbec17398	-0.37783504
98	0xbe86dc42	-0.26339918
99	0xbdeebfa9	-0.1165765
100	0xbd90a626	-0.0706294
101	0xbdfe69c2	-0.124225155
102	0x3d7b8383	0.061404716
103	0xbc101fd6	-0.008796653
104	0xbdc25a01	-0.09489823
105	0xbe048026	-0.1293951
106	0xbdf0f55b	-0.11765548
107	0xbe00a2b4	-0.12562066
108	0xbe043f3a	-0.12914744
109	0xbe295fcf	-0.16540454
110	0xbe308ced	-0.17241259
111	0xbdfc6db4	-0.12325612
112	0xbe76a92f	-0.24087976
113	0xbe49f0a1	-0.19720699
114	0xbdf08048	-0.11743218
115	0x3d702ef2	0.05863852
116	0x3d6948d1	0.05695421
117	0x3c0ac890	0.008470669
118	0x3d1ef39f	0.038806554
119	0xbd3ae240	-0.045625925
120	0x3e0ef696	0.13961253
121	0x3dafdf7d	0.08587549
122	0x3d8baa3c	0.06819579
123	0x3dab11e5	0.083530225
124	0x3d552c1b	0.052044015
125	0xbd54af09	-0.05192474
126	0xbe03d74d	-0.128751
127	0xbe15c7d1	-0.14627005
128	0x3b128088	0.0022354443
129	0xbc0cc717	-0.008592389
130	0x3d9da7b1	0.07698
131	0x3d5ce841	0.053932432
132	0x3da6a4a5	0.08136872
133	0xbd59fdb3	-0.053220462
134	0xbdc1984d	-0.09452877
135	0xbd1651bc	-0.03669904
136	0x3d795f37	0.06088182
137	0xbd9cb5e2	-0.07651879
138	0xbd59301e	-0.053024404
139	0x3d166856	0.036720596
140	0xbc43d280	-0.011952043
141	0xbcfd4d93	-0.03092078
142	0xbda433c9	-0.0801769
143	0xbd833dc0	-0.06408262
144	0x3d446813	0.047950815
145	0xbdd800d1	-0.10547031
146	0xbd9a5d6d	-0.07537351
147	0xbe1cc60f	-0.15309928
148	0xbde308a6	-0.11085634
149	0xbd5a2106	-0.05325415
150	0xbe6a1872	-0.22860888
151	0xbe7d77b9	-0.24752702
152	0xbe93cda4	-0.2886783
153	0xbe91ac67	-0.28451845
154	0xbe70cdcb	-0.23516004
155	0xbd147e1a	-0.036253072
156	0x3c5f44b7	0.013627223
157	0xbd940667	-0.07227784
158	0xbbad72aa	-0.00529321
159	0xbd7fad5d	-0.06242119
160	0x3dcc7505	0.09983257
161	0x3e2f678b	0.17129342
162	0x3dc2f155	0.09518687
163	0x3e155853	0.14584474
164	0x3d8041ca	0.06262548
165	0x3e923be2	0.28561312
166	0x3e84cfa2	0.2593966
167	0x3e36fbc0	0.17869473
168	0x3e71944e	0.2359173
169	0x3e4acc42	0.1980448
170	0x3e0ea62b	0.13930576
171	0x3e1ecd92	0.15508106
172	0x3cd892f8	0.026437268
173	0x3e48b044	0.1959849
174	0x3d73e5f7	0.059545483
175	0xbcf2d493	-0.029642379
176	0xbd7d9151	-0.061906163
177	0xbca49c2c	-0.020094
178	0x3e1c6351	0.15272261
179	0x3de8a795	0.11360089
180	0xbe0061e3	-0.12537341
181	0xbea4b2ce	-0.32167667
182	0xbddcf0c1	-0.10788108
183	0xbd85cafd	-0.065328576
184	0xbe1cc18d	-0.15308209
185	0xbde33c1f	-0.110954516
186	0xbe8776a2	-0.26457697
187	0xbea29282	-0.31752402
188	0xbd1ad385	-0.037799377
189	0xbe8d942b	-0.27652106
190	0xbdb8303f	-0.08993577
191	0xbbda104d	-0.0066547752
192	0xbdf769a1	-0.12080694
193	0x3e054cf8	0.13017642
194	0x3d9b0411	0.07569135
195	0x3da96ef6	0.08273117
196	0xbda02d2d	-0.078211166
197	0x3e0ff221	0.14057209
198	0x3e426c2f	0.18986581
199	0x3c301622	0.010747464
200	0x3e340218	0.17578924
201	0x3e16a5b3	0.14711647
202	0x3db687d5	0.08912627
203	0x3e2757e2	0.16342118
204	0x3e1772a7	0.1478983
205	0x3e30d5dc	0.17269081
206	0x3cb0cfb6	0.02158342
207	0xbd753e6d	-0.059873987
208	0xbd18792a	-0.037224926
209	0x3d2d8ccc	0.042370602
210	0x3de9259a	0.11384125
211	0x3e18a888	0.1490804
212	0x3e801e9b	0.2502335
213	0x3e802ea0	0.25035572
214	0x3e6db2bc	0.23212713
215	0x3ccc895a	0.024967838
216	0xbbbcc5d2	-0.0057608867
217	0x3da9f7be	0.08299206
218	0x3d8178e4	0.06321886
219	0xbca214c9	-0.019785302
220	0x3e2081cc	0.15674514
221	0x3e204f09	0.1565515
222	0x3e3b80ad	0.18310805
223	0x3e048066	0.12939605
224	0x3e047882	0.12936595
225	0x3de870ed	0.11349664
226	0xbd627928	-0.055291325
227	0xbe034029	-0.12817444
228	0x3daed431	0.08536566
229	0xbda9e6ba	-0.08295961
230	0x3d6d9b07	0.058009174
231	0xbe824ffb	-0.25451645
232	0xbd9be8a1	-0.0761273
233	0xbcd3373e	-0.025783177
234	0xbdcfe181	-0.10150433
235	0x3b2a1299	0.0025951026
236	0xbd504a42	-0.050852068
237	0xbe1f3414	-0.1554721
238	0xbe0e08a3	-0.13870482
239	0xbea865d3	-0.32890186
240	0x3cdacf2f	0.026710121
241	0xbc08a559	-0.008340203
242	0xbe2a7bbf	-0.16648768
243	0xbdf74c87	-0.12075143
244	0xbe9e80b5	-0.3095757
245	0x3d84aa1c	0.06477758
246	0x3ce72f63	0.028220838
247	0xbe0c6bfb	-0.13713066
248	0x3da974b3	0.08274212
249	0xbe981321	-0.29702094
250	0xbb3a42a8	-0.0028421078
251	0xbd9f922c	-0.07791552
252	0xbe1b2958	-0.1515249
253	0xbde00920	-0.109392405
254	0xbd53ca91	-0.051706854
255	0x3db317fe	0.087448105

conv2.bias f4 [16]
0	0x3e1cc68b	0.15310113
1	0xbe84ab44	-0.25911915
2	0x3e8b8808	0.2725222
3	0xbd691846	-0.056907915
4	0xbe9006e0	-0.28130245
5	0x3e80db7b	0.2516745
6	0x3e12fe72	0.14354876
7	0x3f19b904	0.60047936
8	0x3ead7e91	0.33885625
9	0xbece7813	-0.40325984
10	0x3e2559c3	0.16147523
11	0x3e070573	0.13185672
12	0x3e661158	0.22467554
13	0x3ec71842	0.38885695
14	0xbd61dab3	-0.05514021
15	0x3d09a438	0.033603877

fc1.weight f4 [120, 400]
0	0xbd092bef	-0.033489164
1	0xbe0dcbec	-0.13847321
2	0xbd8c855a	-0.06861372
3	0x3c56911c	0.01309612
4	0xbd4145a9	-0.047185574
5	0x3d48c05b	0.04901157
6	0xbd921ae0	-0.07134032
7	0xbc73e23b	-0.0148854805
8	0x3d325f38	0.04354784
9	0x3da35871	0.07975853
10	0xbc1d4414	-0.009598751
11	0x3d3a4ec5	0.045485277
12	0xbd06dd46	-0.032925867
13	0x3db0f975	0.0864133
14	0xbdcec549	-0.10096223
15	0xbd5f8a6e	-0.054575376
16	0xbcf91913	-0.030407464
17	0x3de23126	0.110445306
18	0xbcc0340b	-0.023462316
19	0xbdf52e2c	-0.11971697
20	0xbd812d1c	-0.06307432
21	0xbdb4f282	-0.08835317
22	0xbc7088cd	-0.014681053
23	0xbc33d268	-0.010975458
24	0xbdeccc64	-0.11562422
25	0x3d2b883f	0.04187798
26	0xbda46923	-0.08027866
27	0xbc0435c5	-0.00806946
28	0xbd1472e2	-0.036242373
29	0xba6edb86	-0.0009111691
30	0xbdadc71b	-0.08485242
31	0xbd65d873	-0.056114625
32	0x3cfe9a22	0.031079356
33	0x3d74d0e6	0.059769534
34	0xbe124959	-0.14285792
35	0xbd85c72b	-0.06532129
36	0xbd3f25bf	-0.046666857
37	0xbdf13fbf	-0.11779737
38	0xbd8fd88e	-0.070237264
39	0xbe845e42	-0.25853163
40	0x3d84d0b1	0.06485117
41	0x3d7a744c	0.061146066
42	0x3d9b5bd2	0.07585873
43	0x3dc1ef00	0.09469414
44	0xbd86d350	-0.065832734
45	0xbd9d8df7	-0.07693093
46	0x3c8b6fb4	0.017021038
47	0x3d5d5c9f	0.05404341
48	0x3c9d7001	0.019218447
49	0x3d53ce0e	0.05171018
50	0xbdbaef0a	-0.09127624
51	0x3a9c9a34	0.0011947812
52	0x3c85f3e9	0.016351657
53	0x3ce879a6	0.028378319
54	0x3cf11f5b	0.029433897
55	0xbd449d13	-0.04800136
56	0xbd10932e	-0.03529661
57	0xbb03f619	-0.00201357
58	0x3dad1a2f	0.0845226
59	0x3ca292fc	0.019845478
60	0x3c0f9fc8	0.008766122
61	0xbcb628d8	-0.022236273
62	0x3d9a81d8	0.07544297
63	0x3da1aa59	0.07893819
64	0xbe317a14	-0.17331725
65	0x3d924a3f	0.071430676
66	0xbca8d49c	-0.020609193
67	0x3dc0b60a	0.09409721
68	0xbc3c68d9	-0.011499607
69	0x3e1529b5	0.14566691
70	0x3d4c9d23	0.049954545
71	0xbcaef574	-0.021357276
72	0x3d1f4324	0.03888239
73	0x3c430b6d	0.01190458
74	0x3cb129dd	0.021626407
75	0x3df03754	0.11729303
76	0x3cb1c473	0.02170012
77	0xbb0723d8	-0.002062073
78	0xbd867b60	-0.06566501
79	0xbdc05469	-0.093911
80	0x3db0f7c4	0.086410075
81	0x3e3dc335	0.18531497
82	0x3cd10a56	0.025517624
83	0xbd64021e	-0.05566608
84	0xbdabeee4	-0.08395174
85	0x3d281dc1	0.041044
86	0x3dbe4c92	0.092919484
87	0x3db74222	0.08948161
88	0xbc95e5c6	-0.018298041
89	0x3d76c790	0.06024891
90	0x3cd049a1	0.025425734
91	0xbdc4e4d4	-0.09613958
92	0x3c7690e1	0.01504919
93	0x3d74f45d	0.059803355
94	0x3dbfcfcf	0.09365808
95	0xbcfbe30e	-0.030747917
96	0xbd943e30	-0.07238424
97	0x3d6f8000	0.05847168
98	0x3c93effd	0.018058771
99	0x3e137ef0	0.14403892
100	0x3dff1530	0.12455213
101	0xbdeae229	-0.11468918
102	0x3db95758	0.090498626
103	0x3dc915ba	0.09818597
104	0xbdaa3796	-0.083113834
105	0x3e40ce9d	0.18828817
106	0xbd24832f	-0.04016417
107	0x3c2d01f1	0.010559545
108	0xbd923301	-0.071386345
109	0x3da0d1bf	0.07852506
110	0xbd343aac	-0.044001266
111	0x3d8e02f4	0.06934157
112	0xbd594656	-0.053045593
113	0x39ea7b3c	0.00044723775
114	0xbd5627d6	-0.052284084
115	0xbd969cb6	-0.07354109
116	0x3b11a9fd	0.0022226565
117	0x3e29bff7	0.16577135
118	0x3d5e922e	0.054338627
119	0xbc9e59ee	-0.019329991
120	0xbdefd2a1	-0.11710096
121	0x3cafe297	0.021470351
122	0x3bfbd843	0.0076856925
123	0x3dd92799	0.10603256
124	0xbe3517e7	-0.176849
125	0xbdc0830a	-0.09399994
126	0xbd98f88e	-0.07469283
127	0x3dc7cb3a	0.09755559
128	0xbc432b93	-0.011912244
129	0xbd9966c1	-0.07490302
130	0xbe133616	-0.14376101
131	0x3da7d7a5	0.08195428
132	0x3d20f8ca	0.039299764
133	0xbd180332	-0.037112422
134	0xbd18815f	-0.037232753
135	0xbe69e3ac	-0.22840756
136	0xbd33c8a0	-0.043892503
137	0x3d5b5ac4	0.053553358
138	0xbada5427	-0.001665716
139	0xbd03ef2d	-0.032210518
140	0xbe51ef32	-0.20501402
141	0xbe09b32a	-0.13447252
142	0xbda0181b	-0.07817098
143	0x3c9cd0c4	0.019142516
144	0xbc7a5d5c	-0.015281048
145	0xbc0cedde	-0.008601634
146	0xbdb59bc9	-0.08867604
147	0xbccccc78	-0.024999842
148	0xbdd231ec	-0.10263428
149	0xbc1f367e	-0.009717582
150	0xbe09142e	-0.13386604
151	0x3d34f4cb	0.044178765
152	0xbb605754	-0.003423174
153	0xbe2c5c17	-0.16832004
154	0x3e224e63	0.15850215
155	0xbdb71d04	-0.08941081
156	0xbd6648a2	-0.05622161
157	0xbc859d4a	-0.016310353
158	0xbc1da895	-0.009622713
159	0xbc991475	-0.018686512
160	0xbd973d33	-0.0738472
161	0xbdc62f84	-0.09677032
162	0xbd75c550	-0.060002625
163	0x3c4a8929	0.012361803
164	0xbc3356bb	-0.010945971
165	0x3d1f456e	0.038884573
166	0xbe602888	-0.21890461
167	0xbe452d17	-0.19255482
168	0xbdc57890	-0.09642136
169	0xbdd39c8f	-0.103325956
170	0xbde9ed67	-0.11422234
171	0xbde2e8d7	-0.11079567
172	0xbd28bcf6	-0.041195832
173	0x3d5dbf16	0.054137312
174	0xbdffec2e	-0.124962196
175	0xbe2be6d0	-0.16787267
176	0xbe6c4f1d	-0.23077054
177	0xbde5db24	-0.112234384
178	0xbd3748c9	-0.044747148
179	0xbd4e4c73	-0.050365876
180	0xbe24d7c6	-0.16097936
181	0xbb8dcec3	-0.0043276264
182	0xbe11045d	-0.1416182
183	0xbc2e275b	-0.0106295
184	0xbdd12925	-0.10212926
185	0xbdfd92a1	-0.12381483
186	0x3daeda1c	0.08537695
187	0x3e18b4ec	0.14912766
188	0x3bf81c68	0.0075717457
189	0x3d18a507	0.037266757
190	0xbdc5a6e4	-0.096509725
191	0x3c229716	0.009923717
192	0x3dca73c3	0.09885361
193	0x3de456f8	0.111494005
194	0x3ddd073e	0.10792397
195	0xbd8d562c	-0.069012016
196	0x3c5553d0	0.013020471
197	0x3da79df5	0.08184425
198	0x3e08b2d4	0.13349468
199	0x3e670d43	0.22563653
200	0xbda73ab0	-0.081654906
201	0xbd2a0432	-0.041507907
202	0x3d9947e9	0.07484419
203	0x389c7661	7.4607095e-05
204	0xbd2e0693	-0.04248674
205	0xbd7c7ff0	-0.06164545
206	0x3d597c32	0.053096958
207	0x3d2c1deb	0.04202072
208	0xbdb001d2	-0.08594097
209	0xbd7eb9cb	-0.062188905
210	0xbd935c4c	-0.071953386
211	0x3dd1d80c	0.10246286
212	0x3d283d14	0.041073874
213	0x3d2c61e1	0.042085532
214	0xbc0a6cb9	-0.008448773
215	0xbd5c9d8c	-0.053861186
216	0x3d913ef8	0.070920885
217	0x3b407a49	0.0029369763
218	0xbc458330	-0.012055203
219	0xbe00a4ea	-0.1256291
220	0xbbdd9ee5	-0.0067633265
221	0x3db3fdd4	0.08788648
222	0xbd449895	-0.047997076
223	0xbb917094	-0.004438469
224	0xbe21e90d	-0.15811558
225	0xbdeba4cf	-0.11506044
226	0xbd3ae7e9	-0.045631323
227	0xbe4e1b5a	-0.20127621
228	0x3c7e0053	0.015503007
229	0xbda4189b	-0.080125056
230	0x3c80a887	0.01570536
231	0xbd510f9d	-0.05104028
232	0xbd91f3fa	-0.07126613
233	0x3d885452	0.06656708
234	0x3c5169fc	0.012781616
235	0x3cd66225	0.026169846
236	0xbda94b78	-0.08266348
237	0x3b12ef6b	0.0022420536
238	0xbdabcc35	-0.08388559
239	0xbd84bb6c	-0.064810604
240	0xbe58602e	-0.2113044
241	0xbdad2b7e	-0.08455561
242	0x3b1170d8	0.0022192504
243	0x3d43b76c	0.047782347
244	0xbd977931	-0.07396162
245	0xbe8601e8	-0.2617333
246	0xbd87c06f	-0.06628501
247	0xbda034e9	-0.07822592
248	0xbbe753b3	-0.0070595383
249	0xbe20185a	-0.1563429
250	0xbc8d3db5	-0.017241338
251	0x3a96bf03	0.0011501018
252	0x3dd9b56a	0.10630305
253	0x3db3cdd9	0.08779497
254	0xbc9cdacb	-0.019147297
255	0x3ca26692	0.0198243

fc1.bias f4 [120]
0	0xbc3efce1	-0.011656971
1	0xbd33ad16	-0.04386624
2	0x3ef278e3	0.47357854
3	0x3e38b0c4	0.1803618
4	0xbd924bdc	-0.07143375
5	0x3e810b81	0.2520409
6	0xbb405bee	-0.002935167
7	0xbc806a14	-0.015675582
8	0xbc5fbeb2	-0.013656305
9	0xbd99e602	-0.07514574
10	0xbcf156bc	-0.029460303
11	0xb9fb90d8	-0.00047982368
12	0x3de94b63	0.11391332
13	0xbd1c4047	-0.038147237
14	0xbd8b640a	-0.0680619
15	0x3e654389	0.22389044
16	0x3dccef86	0.10006623
17	0x3e190a5f	0.14945363
18	0x3d80e227	0.06293135
19	0xbd3f97d8	-0.04677567
20	0x3cea5275	0.028603772
21	0x3e95a996	0.29230946
22	0xbdeb93ee	-0.11502825
23	0x3c4d7983	0.012541178
24	0x3e280676	0.16408715
25	0xbe2eb225	-0.17060144
26	0xbe0cf055	-0.13763554
27	0x3d6cb261	0.057787303
28	0x3d574c09	0.052562747
29	0xbd9f20ad	-0.07769904
30	0x3e70e243	0.23523812
31	0xbe252823	-0.16128592
32	0xbd8ae29d	-0.06781504
33	0x3d3f1240	0.046648264
34	0xbeae0b91	-0.339932
35	0xbd9b605f	-0.07586741
36	0x3de709f9	0.11281199
37	0x3db56a16	0.08858125
38	0xbd03436e	-0.032046728
39	0x3ef90af1	0.4864116
40	0x3d1f8055	0.038940746
41	0xbd5fcb71	-0.054637376
42	0xbcd8226c	-0.026383601
43	0x3d82c344	0.063849
44	0xbd85392a	-0.06505044
45	0x3e63dbed	0.22251864
46	0xbe1c64ed	-0.15272875
47	0xbc49a5d4	-0.012307603
48	0xbddf1980	-0.108935356
49	0xbc2c8241	-0.010529102
50	0x3cac25ef	0.021014182
51	0xbd96e769	-0.07368357
52	0x3c80cb7f	0.015722034
53	0xbd8f7d49	-0.07006318
54	0x3e3476d1	0.1762345
55	0x3d67d09c	0.05659543
56	0xbdaeb4ff	-0.08530616
57	0xbd568aaa	-0.052378334
58	0x3c915e7a	0.017745245
59	0xbe48249b	-0.19545214
60	0x3dea35b7	0.114360265
61	0xbe020880	-0.12698555
62	0x3ec713db	0.38882336
63	0x3a8f3178	0.0010924777
64	0x3dbb8b7e	0.091574654
65	0xbd10c518	-0.035344213
66	0xbe20415a	-0.1564993
67	0x3e52d337	0.20588385
68	0xbde701e6	-0.11279659
69	0xbd367abb	-0.04455064
70	0xbdb4ff40	-0.088377476
71	0xbd4f8492	-0.05066354
72	0xbd9db11f	-0.07699799
73	0xbd98e13e	-0.074648365
74	0x3eaee38e	0.34157985
75	0xbdf158de	-0.11784528
76	0x3e1126cb	0.14174955
77	0xbc00e8b8	-0.0078679845
78	0xbdcbffdd	-0.099609114
79	0x3eefe03d	0.46850768
80	0x3c6c82b5	0.01443546
81	0x3e26d73a	0.1629304
82	0xbe4b050f	-0.19826148
83	0x3ead95c7	0.33903334
84	0x3d310624	0.043218747
85	0xbd8e28cf	-0.06941377
86	0xbde4f43b	-0.11179396
87	0x3eac87b7	0.33697292
88	0xbd8a715e	-0.06759904
89	0xbda1a7ce	-0.07893334
90	0xbd249b3e	-0.040187113
91	0xbd15363a	-0.036428668
92	0x3b92d29b	0.0044806725
93	0xbe21efd0	-0.15814137
94	0x3f08a931	0.53383166
95	0xbd31f539	-0.043446753
96	0xbee5c8f8	-0.4487989
97	0x3e2024ca	0.15639034
98	0x3ebdd439	0.37075976
99	0xbd76a4fa	-0.060215928
100	0xbcab76f2	-0.020930741
101	0xbcd43ef4	-0.025908925
102	0xbca967b4	-0.020679332
103	0x3e4b621c	0.19861645
104	0xbe58f76d	-0.21188135
105	0xbda4ec07	-0.08052831
106	0xbdb8c02f	-0.09021031
107	0xbdcf895c	-0.10133621
108	0x3e50122a	0.20319429
109	0xbd9bcffa	-0.07608028
110	0xbc17d727	-0.009267605
111	0xbd70b41e	-0.058765523
112	0x3e8892ac	0.26674402
113	0xbdcb4ab7	-0.0992636
114	0xbd9a4a70	-0.07533729
115	0xbe4cdc29	-0.2000586
116	0xbd6906aa	-0.05689112
117	0x3e8e3bbc	0.2777995
118	0x3ec77cd6	0.3896243
119	0x3ee95f3c	0.4558047

fc2.weight f4 [84, 120]
0	0x3e2d212c	0.16907185
1	0xbce8f52d	-0.028437221
2	0x3d296802	0.041358955
3	0xbe20428e	-0.15650389
4	0x3c7f9fc9	0.015602061
5	0xbe7fa53d	-0.24965377
6	0x3dca75a7	0.09885722
7	0xbbd40bce	-0.006471134
8	0x3d1d8a37	0.03846189
9	0xbd8a5226	-0.0675395
10	0xbd75e581	-0.060033325
11	0xbd347785	-0.044059295
12	0x3d510a2a	0.051035084
13	0x3d99b4c8	0.075051844
14	0xbccf6fa9	-0.025321798
15	0x3dc63a66	0.09679107
16	0x3d64b2c5	0.05583455
17	0xbdec24a5	-0.11530427
18	0xbdc80470	-0.097664714
19	0x3cd340d7	0.025787754
20	0xbd8f3ab6	-0.0699362
21	0xbd0283db	-0.03186403
22	0xbdbfb23d	-0.09360168
23	0xbcbc08d6	-0.022953432
24	0xbdc269f2	-0.09492864
25	0xbd93b439	-0.07212109
26	0x3e3e27a5	0.1856981
27	0x3cc8458f	0.02444723
28	0x3d8ced9b	0.06881257
29	0xbd85bec7	-0.065305285
30	0x3e17c7b1	0.1482227
31	0xbc8d38ef	-0.017239062
32	0xbe7a2b8c	-0.24430674
33	0xbdcb68d6	-0.09932105
34	0xbe3ff8cc	-0.18747252
35	0xbde85b64	-0.113455564
36	0xbdbc6aa9	-0.09200031
37	0xbc49950f	-0.012303605
38	0x3db40d53	0.08791604
39	0xbcf03009	-0.02931978
40	0x3d5fbc94	0.0546232
41	0xbd3c210f	-0.045929965
42	0x3c9d5120	0.019203722
43	0xbd9a4074	-0.07531825
44	0xbaf0b5b8	-0.0018364703
45	0x3da2d5c4	0.07950929
46	0x3e506a3c	0.20353025
47	0x3cb1186a	0.021618087
48	0x3d0b2775	0.033973176
49	0xbe1cb0d9	-0.15301837
50	0xbd819e67	-0.06329041
51	0x3d96b41c	0.07358572
52	0x3d04f776	0.03246256
53	0x3d3aa18f	0.04556423
54	0x3d46e43d	0.04855751
55	0xbe090387	-0.13380252
56	0x3cbfc459	0.023409056
57	0x3e2bcd17	0.16777454
58	0x3da021cf	0.078189485
59	0xbdd3cd83	-0.103419326
60	0x3e031faa	0.12805048
61	0xbe37de74	-0.17955953
62	0x3be853f3	0.0070900857
63	0x3eb27ad2	0.3485933
64	0x3e13322b	0.14374606
65	0xbbdd9510	-0.0067621544
66	0x3e1388d8	0.1440767
67	0x3db61b42	0.08891918
68	0xbda6cf30	-0.08144987
69	0x3dab92f4	0.083776385
70	0xbdda72b4	-0.10666409
71	0xbedc8d48	-0.4307654
72	0xbcbc0279	-0.022950398
73	0x3d96c468	0.0736168
74	0xbcdea70b	-0.027179262
75	0xbe137075	-0.14398368
76	0xbe27fe92	-0.16405705
77	0x3c1dcf24	0.009631906
78	0x3ca82a66	0.02052803
79	0xbbef13e7	-0.0072960737
80	0x3d4e2ee1	0.050337676
81	0xbe15c25b	-0.14624922
82	0x3bceb3a7	0.0063080373
83	0xbdde83e4	-0.10865
84	0xbd0f2395	-0.034946043
85	0xbd067d85	-0.03283455
86	0x3db5ccd9	0.08876962
87	0xbdf6b7ea	-0.120467976
88	0xbd46abf5	-0.048503835
89	0x3da618f0	0.08110225
90	0xbcebee29	-0.028800087
91	0x3da54b92	0.080710545
92	0xbcc0b1f3	-0.023522353
93	0xbcf4c697	-0.029879851
94	0xbe27b3bc	-0.16377157
95	0x3dc65600	0.09684372
96	0xbc3de2c2	-0.011589708
97	0x3c6d26d4	0.014474589
98	0xbd726d9b	-0.05918656
99	0x3cade71d	0.021228367
100	0x3db5281a	0.088455394
101	0xbd67b382	-0.056567676
102	0xbd85737a	-0.06516166
103	0xbe29c53e	-0.16579148
104	0x3d7078d2	0.058708973
105	0x3ddc6d78	0.10763067
106	0x3e138692	0.14406803
107	0xbe3ef266	-0.18647155
108	0x3c5617ff	0.013067245
109	0x3de7e36e	0.11322676
110	0xbd9bb4cb	-0.07602843
111	0xbdafc4ba	-0.085824445
112	0xbd87dd4b	-0.06634005
113	0x3e829708	0.25505853
114	0xbd026947	-0.03183868
115	0x3e129603	0.14315037
116	0xbd98f349	-0.07468278
117	0xbe152fa0	-0.14568949
118	0xbe3b8003	-0.18310551
119	0x3e253855	0.1613477
120	0x3e5ca51a	0.21547356
121	0x3ce8f93b	0.028439155
122	0x3e4bfd39	0.19920816
123	0x3d302c1c	0.043010816
124	0x3d9113ba	0.07083841
125	0xbd8674c1	-0.06565238
126	0xbe278d8c	-0.1636259
127	0xbc896930	-0.01677379
128	0x3e630a5f	0.22171925
129	0xbcc5b6c4	-0.024135001
130	0x3cec8e12	0.028876338
131	0xbdf6b7a5	-0.12046746
132	0xbe828051	-0.25488523
133	0xbe46b2cf	-0.19404148
134	0xbd451588	-0.048116237
135	0x3d538e2d	0.05164926
136	0xbdd4e4f9	-0.103952356
137	0xbdafb983	-0.085803054
138	0xbe387819	-0.18014564
139	0x3e397671	0.18111588
140	0x3dd98d30	0.106226325
141	0xbe7d9e50	-0.24767423
142	0xbea2f5a7	-0.31828043
143	0x3b7e9b6a	0.0038849958
144	0x3d73eb99	0.059550855
145	0xbd8bbe8b	-0.068234526
146	0xbd796cfa	-0.060894944
147	0x3c996d68	0.018728927
148	0xbe82d996	-0.2555663
149	0x3cdad64e	0.026713517
150	0x3bb3f062	0.0054913023
151	0xbc24cc0e	-0.010058416
152	0x3cbfacd6	0.023397844
153	0xbd556581	-0.052098755
154	0xbdbc7658	-0.0920226
155	0xbb4e2d88	-0.0031460244
156	0x3cf830ad	0.030296648
157	0x3e3eace8	0.18620646
158	0xbe0914bf	-0.1338682
159	0xbde61d35	-0.112360395
160	0x3ba0f7c0	0.0049123466
161	0x3d456b4f	0.04819804
162	0x3cb6b983	0.022305256
163	0xbe8a95d0	-0.27067423
164	0x3da4347a	0.080178216
165	0xbe3005eb	-0.17189758
166	0x3dd83db3	0.10558643
167	0xbc5fc2e3	-0.013657304
168	0xbd23f604	-0.04002954
169	0x3e53c293	0.20679693
170	0xbb3be239	-0.0028668775
171	0xbdff89c8	-0.124774516
172	0xbd65abab	-0.05607192
173	0x3d75b4a7	0.059986737
174	0xbd1d43ca	-0.038394727
175	0xbeb0595b	-0.34443173
176	0x3d885cfb	0.066583596
177	0x3dcc08f5	0.09962646
178	0x3e70da38	0.23520744
179	0x3dcff906	0.10154919
180	0xbe2f00c4	-0.17090136
181	0xbe992e5f	-0.2991819
182	0x3e0543d1	0.13014151
183	0xbca635ce	-0.020289328
184	0x3dfeb72d	0.12437282
185	0xbdb98022	-0.090576425
186	0x3e7e85df	0.24855755
187	0x3e0b9470	0.13630843
188	0x3dbbd4ee	0.091714725
189	0x3ce3fd00	0.0278306
190	0x3d588ebd	0.0528705
191	0xbcf7d132	-0.03025112
192	0x3c70d2f9	0.014698737
193	0x3d54fa77	0.051996674
194	0x3c0ce68a	0.008599887
195	0x3e6a5fe1	0.22888137
196	0x3e1a89fb	0.15091698
197	0x3c38f10c	0.011287939
198	0xbe720a5e	-0.23636767
199	0x3d3d545c	0.04622303
200	0xbd31b38e	-0.043384127
201	0x3e1f8134	0.15576631
202	0xbdd00cf8	-0.101587236
203	0x3e43b26f	0.19111036
204	0x3d24563e	0.04012131
205	0x3d7155d8	0.058919758
206	0xbe05c24b	-0.13062398
207	0x3e158f95	0.14605553
208	0x3c3e4cbd	0.0116149755
209	0xbcdeff2e	-0.027221289
210	0x3d58b183	0.052903663
211	0x3dbc43c8	0.09192616
212	0xbd12c4dc	-0.03583227
213	0x3bbacd9d	0.0057007805
214	0xbe71946d	-0.23591776
215	0xbda60dec	-0.08108124
216	0xbdadce54	-0.084866196
217	0x3e399982	0.18124965
218	0xbeb16265	-0.34645382
219	0xbc972ac6	-0.018453013
220	0xbb72472b	-0.003696869
221	0xbde19d64	-0.11016348
222	0xbd2d22e7	-0.042269614
223	0x3dc858c2	0.09782554
224	0xbd0c27bf	-0.034217592
225	0xbd467363	-0.048449885
226	0x3d95b5cc	0.073100656
227	0x3dfe8f9b	0.12429734
228	0xbd56049c	-0.05225049
229	0x3cbc7677	0.023005707
230	0x3d769cd7	0.060208168
231	0x3bb0f3a4	0.005400138
232	0x3e5b2b8a	0.21403328
233	0xbe41dec6	-0.18932638
234	0x3d5d7d0e	0.05407434
235	0xbe46e9d0	-0.1942513
236	0xbc3e80db	-0.011627401
237	0xbcbceba5	-0.023061583
238	0xbe1e4aa2	-0.15458158
239	0x3dbd4307	0.092413
240	0xbd9c1d72	-0.07622804
241	0xbcfc3fd9	-0.030792164
242	0xbda97a80	-0.08275318
243	0x3ce976d4	0.028499044
244	0xbd3c99d6	-0.046045147
245	0x3db0c66f	0.08631598
246	0x3cd66373	0.026170468
247	0xbdcbd356	-0.099524185
248	0xbe3896bb	-0.18026249
249	0x3dada790	0.08479226
250	0xbc9a4bd9	-0.018834995
251	0x3d2d9a8d	0.04238372
252	0xbddb1b7d	-0.10698602
253	0x3dfd50cc	0.123689264
254	0x3cb88875	0.022526005
255	0x3e037aa7	0.12839757

fc2.bias f4 [84]
0	0x3c04a0be	0.008094965
1	0x3e7137b3	0.23556404
2	0x3e0b727a	0.13617888
3	0xbd02c16d	-0.031922746
4	0x3ea6a588	0.32548165
5	0x3e641f13	0.22277479
6	0x3db7587f	0.08952426
7	0x3d05ac9e	0.032635324
8	0xbe1cc5d4	-0.1530984
9	0x3e702f50	0.23455548
10	0x3dac34be	0.08408497
11	0xbe0e6b6c	-0.13908166
12	0xbde2cb4e	-0.110739335
13	0x3d3b4805	0.04572298
14	0x3d269795	0.040671904
15	0xbe0c5171	-0.13702942
16	0x3e9282e8	0.286155
17	0xbd129ea2	-0.035795815
18	0xbe183422	-0.14863637
19	0xbdb51d44	-0.088434726
20	0xbd8fcd70	-0.07021606
21	0x3f121022	0.57055867
22	0xbbde67eb	-0.0067872903
23	0x3d9c9989	0.07646472
24	0xbd487fc8	-0.048949987
25	0xbd9783d1	-0.07398189
26	0x3e913e77	0.2836797
27	0x3ebfec74	0.37485087
28	0x3efd5048	0.49475312
29	0x3eddcf71	0.43322328
30	0x3d33bcd6	0.04388126
31	0x3f01b8f1	0.50672823
32	0xbda05ece	-0.078305826
33	0x3f28cd2f	0.65938085
34	0x3ea6aef0	0.32555342
35	0x3e1c148b	0.15242212
36	0xbd40ef77	-0.04710337
37	0x3e2a4d77	0.16631113
38	0xbde06f78	-0.10958761
39	0x3e424755	0.18972524
40	0xbe896e2f	-0.26841876
41	0x3e04d701	0.12972642
42	0x3f08e9dd	0.5348185
43	0x3e2397ff	0.1597595
44	0xbde30fb4	-0.110869795
45	0x3e6e7c7f	0.23289679
46	0x3db78437	0.08960765
47	0x3f092ec5	0.5358699
48	0x3f0ba0cc	0.5454223
49	0xbdd4704a	-0.1037298
50	0x3e74cf01	0.2390709
51	0x3e248925	0.16067941
52	0x3eecef32	0.46276242
53	0x3d71d04d	0.05903654
54	0x3dfb972c	0.12284693
55	0xbe61710a	-0.22015777
56	0x3daaef24	0.08346394
57	0xbd6c7ef0	-0.057738245
58	0x3d387a19	0.045038316
59	0x3e7d9b04	0.24766165
60	0xbe675dfb	-0.22594444
61	0x3ec692c6	0.38783854
62	0xbe0373e6	-0.1283718
63	0xbd7a54b3	-0.06111593
64	0xbd446083	-0.047943603
65	0xbd98b613	-0.07456603
66	0xbb85d450	-0.0040841475
67	0x3ea93bb8	0.33053374
68	0x3e6f74be	0.23384377
69	0x3b8cf11a	0.0043012025
70	0xbdb81914	-0.08989158
71	0xbcb88c4e	-0.02252784
72	0x3f1d9a85	0.61563903
73	0x3dcf0c00	0.10109711
74	0xbe0c4c29	-0.13700928
75	0xbbda7604	-0.0066669006
76	0x3d95fa90	0.07323182
77	0xbcacef34	-0.021110155
78	0xbe837ac0	-0.25679588
79	0x3e06a624	0.13149315
80	0x3eedde20	0.4645853
81	0x3e2790e6	0.16363868
82	0x3e63c3d7	0.22242676
83	0x3df1749c	0.117898196

fc3.weight f4 [10, 84]
0	0xbd91591e	-0.07097076
1	0xbd7f1cea	-0.062283434
2	0x3c103d3d	0.008803663
3	0x3d52d662	0.051473983
4	0x3d5a6f35	0.05332871
5	0xbde67207	-0.11252218
6	0xbea0e1ed	-0.31422368
7	0xbd770b8f	-0.060313758
8	0xbe68ebbb	-0.22746174
9	0x3d5ebc0e	0.05437856
10	0x3d341561	0.0439657
11	0xbe91bd19	-0.28464583
12	0x3afdf388	0.0019374946
13	0x3d5f1b38	0.054469317
14	0xbde9fd7a	-0.114253
15	0xbdcea8e9	-0.10090811
16	0xbe0d011d	-0.13769956
17	0x3c71dffb	0.014762874
18	0xbd3bcb95	-0.045848448
19	0xbe276364	-0.16346508
20	0xbea1d881	-0.31610492
21	0xbe5df5c8	-0.2167579
22	0xbdee230f	-0.11627781
23	0x3d2c36a0	0.042044282
24	0xbebc9700	-0.36833954
25	0xbe5f1855	-0.21786626
26	0xbe3be395	-0.18348534
27	0x3cf1be3e	0.02950966
28	0xbe4b3e6a	-0.19848028
29	0xbdea9b15	-0.11455361
30	0x3cae6dd5	0.021292606
31	0x3de65f12	0.11248602
32	0x3cb7de24	0.022444792
33	0xbe51a518	-0.20473135
34	0xbe6a3b68	-0.22874224
35	0x3cb21bc9	0.021741765
36	0x3c22b224	0.009930167
37	0xbe395c76	-0.18101677
38	0xbe08b493	-0.13350134
39	0xbcd037d8	-0.025417253
40	0xbe294ddc	-0.16533607
41	0xbe73c147	-0.23804198
42	0xbec060e3	-0.3757392
43	0x3e075846	0.13217267
44	0x3c2e4673	0.010636914
45	0x3e06837c	0.13136095
46	0xbdee75ff	-0.116436
47	0xbe99dc35	-0.30050817
48	0xbeb7c69e	-0.3589372
49	0x3d4878d8	0.04894337
50	0xbe70351a	-0.23457757
51	0xbdac1d1d	-0.084039904
52	0x3dfc397a	0.1231565
53	0x3d59949a	0.053120233
54	0x3d8a9b5b	0.06767913
55	0xbe38b892	-0.18039158
56	0x3e2111ac	0.15729398
57	0xbe6efc3e	-0.2333841
58	0xbccf8a95	-0.025334636
59	0xbe3ebd27	-0.18626843
60	0xbe325165	-0.17413862
61	0x3d4cc489	0.049992118
62	0xbe27149a	-0.16316453
63	0xbe81e6a0	-0.25371265
64	0x3d275513	0.040852617
65	0xbed5c844	-0.41754353
66	0xbcbc42db	-0.022981098
67	0xbe29c150	-0.16577649
68	0xbdfb3b54	-0.12267175
69	0xbe30bc75	-0.1725939
70	0x3c5d2006	0.0134964045
71	0xbe1ab9e1	-0.1510997
72	0xbe595350	-0.21223187
73	0xbe8115fd	-0.25212088
74	0xbbb50c83	-0.005525173
75	0xbe3a9b0a	-0.18223205
76	0x3dabddf7	0.08391946
77	0x3c4d8e7c	0.012546178
78	0x3c5c9a20	0.013464481
79	0x3e16f0ba	0.14740267
80	0xbe0a131a	-0.13483849
81	0xbe19d08f	-0.15020965
82	0x3ba05556	0.0048929853
83	0xbd1f86cf	-0.038946923
84	0xbf40b088	-0.75269365
85	0xbeea8e4f	-0.45811698
86	0xbf07cb19	-0.5304428
87	0x3de4e2e3	0.11176088
88	0xbe7a33ce	-0.24433824
89	0xbea80936	-0.32819527
90	0xbddd004e	-0.10791074
91	0xbe68ca14	-0.22733337
92	0xbdf3daf9	-0.11907
93	0xbf34fcf9	-0.70698506
94	0x3def64fb	0.11689182
95	0xbf0e6a81	-0.5563126
96	0x3cca507b	0.02469658
97	0x3bd214ed	0.006411186
98	0xbe1cadbd	-0.15300651
99	0xbd05c374	-0.0326571
100	0xbcdf46e9	-0.027255492
101	0x3cedd59f	0.029032527
102	0x3cf61573	0.030039525
103	0xbd8d9eaf	-0.06915032
104	0xbeaa5ee1	-0.33275512
105	0xbde33af1	-0.110952266
106	0xbd85921b	-0.06522008
107	0x3d3e49e6	0.046457194
108	0xbeca6331	-0.39528802
109	0xbe99720b	-0.2996982
110	0x3931712e	0.00016922198
111	0xbeb85e37	-0.3600938
112	0xbe465345	-0.19367702
113	0x3e051672	0.12996843
114	0xbd944d4b	-0.07241305
115	0xbead8eb1	-0.33897927
116	0x3c900f17	0.01758532
117	0xbf0cc455	-0.5498708
118	0x3bf54aa9	0.007485707
119	0x3d975d59	0.073908515
120	0xbe1cd604	-0.15316015
121	0xbf727242	-0.94705594
122	0xbf29b34a	-0.662892
123	0xbe3333d3	-0.17500238
124	0xbe08db1e	-0.13364837
125	0xbe9345b4	-0.28764117
126	0xbed9de9c	-0.4255265
127	0xbe169ce0	-0.1470828
128	0xbd6f2ceb	-0.058392446
129	0xbe3f3523	-0.18672614
130	0xbf386833	-0.72033995
131	0xbe27e8a7	-0.16397344
132	0xbf13c032	-0.5771514
133	0xbe76e4e3	-0.24110751
134	0xbd0a3859	-0.033745144
135	0x3e27dcb2	0.16392782
136	0xbe848169	-0.25879982
137	0xbede1e35	-0.4338242
138	0x3e2ca092	0.16858128
139	0xbd0eb386	-0.034839176
140	0x3e0c6410	0.13710046
141	0xbd9c0785	-0.07618622
142	0x3d8b7c72	0.068108454
143	0xbe4983af	-0.1967914
144	0xbe6aea73	-0.22940998
145	0xbdd5adcf	-0.10433542
146	0xbd8b609d	-0.06805537
147	0x3ce131a3	0.027489489
148	0x3e177851	0.14791991
149	0xbed8fd4e	-0.42380756
150	0x3da4ef0f	0.08053409
151	0xbec2dece	-0.3806061
152	0xbe9fced7	-0.31212494
153	0xbd7b5178	-0.06135699
154	0x3d13950e	0.03603082
155	0xbe9f6786	-0.3113367
156	0xbc293e98	-0.010329865
157	0xbd557937	-0.052117553
158	0xbecd5d7e	-0.4011039
159	0xbe279c0d	-0.16368122
160	0xbe88ae01	-0.26695254
161	0xbb32c857	-0.0027280056
162	0x3dd72d49	0.10506684
163	0xbcdf9c8a	-0.027296323
164	0xbd9de97a	-0.07710548
165	0xbe213b7a	-0.15745345
166	0xbe297a3c	-0.16550535
167	0xbf2c984b	-0.6741988
168	0xbd4135c5	-0.04717042
169	0x3a971eeb	0.00115296
170	0x3dbde718	0.09272593
171	0x3dee3f2b	0.11633142
172	0x3a48b791	0.0007656748
173	0x3d1cdd4c	0.038296983
174	0xbe0a4cd4	-0.1350587
175	0xbc1cd414	-0.009572048
176	0xbe5081da	-0.20362034
177	0x3cea2f26	0.028586935
178	0x3d6c20e0	0.05764854
179	0xbe118b62	-0.14213327
180	0xbe0b8a37	-0.13626944
181	0xbe42bcb2	-0.19017294
182	0xbd9e490f	-0.077287786
183	0xbd32ccb0	-0.043652236
184	0xbcf1c467	-0.029512597
185	0xbdd39b6b	-0.10332378
186	0xbdeeed57	-0.11666363
187	0xbda8689b	-0.08223077
188	0x3dbe1f64	0.09283331
189	0xbcdb1d47	-0.026747359
190	0x3cd9416f	0.026520459
191	0xbe0b6850	-0.13614011
192	0xbecabaed	-0.39595738
193	0xbe64b77f	-0.22335623
194	0x3c13dfaa	0.009025494
195	0x3e5f06ae	0.21779892
196	0xbc3617af	-0.011114045
197	0xbdf6326f	-0.12021338
198	0x3dba3f9d	0.090941645
199	0xbdfbf9b4	-0.123034865
200	0xbce5cc16	-0.028051417
201	0xbcfc63e3	-0.030809348
202	0xbe408530	-0.18800807
203	0x3c852054	0.016250767
204	0xbdd25c9e	-0.102715716
205	0xbd81a988	-0.06331164
206	0xbe313be9	-0.1730801
207	0xbc850174	-0.016236044
208	0xbe1b69ab	-0.15177028
209	0xbe8c44de	-0.27396291
210	0x3e14f641	0.14547063
211	0x3c6784cc	0.014130782
212	0x3cfaa095	0.03059415
213	0x3ca25cc5	0.019819627
214	0xbcba616d	-0.022751534
215	0xbd98d0c5	-0.07461695
216	0x3d54ebfe	0.051982872
217	0xbe33c097	-0.17553936
218	0x3c8e6f69	0.017387109
219	0xbe4f582b	-0.20248477
220	0x3da73741	0.08164836
221	0x3e000437	0.12501608
222	0x3d93e5ec	0.072215885
223	0xbdacd691	-0.08439363
224	0xbe32d008	-0.1746217
225	0xbdedc709	-0.116102286
226	0xbe7dfbf9	-0.24803151
227	0x3ca8de87	0.020613922
228	0xbde89976	-0.11357395
229	0x3e2c84e3	0.16847567
230	0xbd4e1e2c	-0.050321743
231	0xbe6aad5a	-0.22917691
232	0xbb32c66c	-0.0027278913
233	0x3db0beb5	0.086301245
234	0x3b38886e	0.002815749
235	0x3d84c7e0	0.06483436
236	0xbd982ed1	-0.074308045
237	0xbea4cd0c	-0.32187688
238	0xbc00bbd9	-0.007857286
239	0xbe6cd492	-0.23127964
240	0xbce67651	-0.02813259
241	0xbe9fccd1	-0.3121095
242	0xbe0e2e50	-0.13884854
243	0xbea44428	-0.3208325
244	0xbd560f66	-0.05226078
245	0xbd4d031b	-0.05005179
246	0xbe4cb8da	-0.1999239
247	0xbd204bf6	-0.039134942
248	0x3dbb54bd	0.09147022
249	0xbda61c51	-0.0811087
250	0x3d095f60	0.033538222
251	0x3de95802	0.11393739
252	0xbbb74b11	-0.0055936654
253	0x3bde003f	0.0067749317
254	0x3c1494bf	0.009068667
255	0xbd592ec2	-0.053023107

fc3.bias f4 [10]
0	0xbe27aa4c	-0.16373557
1	0xbed25377	-0.41079304
2	0xbd341f4d	-0.043975163
3	0x3e8f32ae	0.27968353
4	0x3e7a87c3	0.24465851
5	0xbe107a15	-0.1410907
6	0x3dd55c4f	0.10417997
7	0xbe4ae7f6	-0.19815049
8	0x3da810e9	0.0820635
9	0xbcdf0c76	-0.027227622
