lab1-LeNet/model/1019171123.pth (torch, 250887 bytes, 10 tensors)

conv1.weight f4 [6, 3, 5, 5]
0	0x3d04822c	0.032350704
1	0x3ed763ec	0.42068422
2	0x3e82e180	0.25562668
3	0x3e336bcb	0.17521589
4	0x3d631131	0.055436317
5	0xbe23bb1e	-0.15989348
6	0xbddba696	-0.10725133
7	0xbe0f40c0	-0.13989544
8	0xbe23ac78	-0.1598376
9	0xbe86b68d	-0.2631115
10	0xbeac65fc	-0.33671558
11	0xbf01cc88	-0.50702715
12	0xbeff4baa	-0.49862415
13	0xbed7b500	-0.4213028
14	0xbe4794df	-0.19490384
15	0x3e09d6d6	0.1346086
16	0x3e3cbb81	0.18430902
17	0x3e2a2b30	0.16618037
18	0x3e9cabd3	0.3059984
19	0x3decc576	0.115611
20	0x3d3e124e	0.046404175
21	0x3de3cf78	0.11123556
22	0x3e3185d5	0.17336209
23	0x3e11fa4d	0.14255638
24	0xbd2e0fe5	-0.042495627
25	0x3e4f656b	0.20253532
26	0x3ecc8223	0.39943036
27	0x3e9b0042	0.30273634
28	0x3e9fe5b4	0.31229937
29	0x3e63950b	0.22224824
30	0x3dc9b1bd	0.09848354
31	0xbc2b3d1f	-0.010451584
32	0xbd1e1ccd	-0.038601685
33	0x3c2c67d7	0.010522804
34	0xbe8204ca	-0.2539428
35	0xbe4fb485	-0.20283706
36	0xbef112a6	-0.4708454
37	0xbf103c08	-0.563416
38	0xbec1b9a9	-0.3783696
39	0xbd6c26b2	-0.05765409
40	0x3c66a5eb	0.014077644
41	0x3e550632	0.20803145
42	0x3e3d237d	0.18470569
43	0x3e734ec5	0.23760517
44	0x3e3e47f9	0.18582143
45	0xbdddcbb2	-0.108298674
46	0x3cb036ae	0.021510448
47	0x3e585986	0.211279
48	0x3db73f6b	0.08947643
49	0xbcff855d	-0.031191522
50	0x3d585262	0.05281294
51	0x3e976ef1	0.2957683
52	0x3e976eb3	0.29576644
53	0x3e9ddd0a	0.30832702
54	0x3e50c59d	0.20387883
55	0xbc22462f	-0.009904428
56	0xbdf5b163	-0.119967245
57	0xbdc4f5d4	-0.096172005
58	0xbd07f2f5	-0.033190686
59	0xbe2106e2	-0.15725282
60	0xbd158c57	-0.03651079
61	0xbe408901	-0.18802263
62	0xbedc0ee3	-0.42980108
63	0xbeb95b40	-0.3620243
64	0x3a92daf5	0.001120417
65	0x3e190acc	0.14945525
66	0x3d74f87d	0.05980729
67	0x3dfe2964	0.124102384
68	0x3e0aa8e0	0.13540983
69	0x3e474ca8	0.19462836
70	0xbd28df4c	-0.041228577
71	0x3d45cab3	0.048289012
72	0x3d4aacfb	0.049481373
73	0xbe068cef	-0.131397
74	0xbdee5729	-0.11637718
75	0xbdcc3c57	-0.099724464
76	0xbe19e28a	-0.15027824
77	0xbe2d5a75	-0.16929038
78	0xbdce04d7	-0.10059517
79	0x3e414675	0.18874533
80	0xbe394ab9	-0.1809491
81	0xbe0c6e28	-0.13713896
82	0x3d99535d	0.074866034
83	0xbc1e7f6e	-0.009673936
84	0xbdcb299a	-0.09920044
85	0xbeab3ed8	-0.33446383
86	0x3e0bd5a5	0.13655718
87	0x3ee61b2e	0.4494261
88	0xbd616d75	-0.055036027
89	0xbee7b0ad	-0.4525198
90	0x3d9b644d	0.0758749
91	0x3cba1edd	0.022719795
92	0x3ed48de3	0.415145
93	0xbe6e017b	-0.23242752
94	0xbe8d28d3	-0.2757021
95	0x3dd561d0	0.10419047
96	0x3d944166	0.07239036
97	0xbdcc566a	-0.0997742
98	0xbe03b941	-0.12863638
99	0xbc70f54d	-0.014706922
100	0x3d92bbfd	0.07164762
101	0x3db50809	0.08839423
102	0x3db5470c	0.08851442
103	0x3c46c5dd	0.012132135
104	0x3da227e9	0.079177685
105	0x3d76688c	0.060158297
106	0x3d6b32a8	0.057421356
107	0x3eaf2425	0.34207264
108	0xbdee23d7	-0.1162793
109	0xbe68707a	-0.22699156
110	0xbe0da1fc	-0.13831323
111	0x3e892a84	0.2679025
112	0x3f15b1a0	0.5847416
113	0xbe2b4ac4	-0.1672774
114	0xbef21cca	-0.4728759
115	0x3e5775f4	0.2104109
116	0x3e27a8b5	0.1637295
117	0x3eaf4476	0.3423192
118	0xbd2bbfd0	-0.041930974
119	0xbed160d6	-0.40894192
120	0x3e9b4c3f	0.3033161
121	0x3da33f91	0.07971109
122	0x3b857660	0.0040729493
123	0xbdb03c61	-0.08605266
124	0x3cb97e0b	0.02264311
125	0x3d30d231	0.043169204
126	0xbdb1624f	-0.08661329
127	0xbe18c474	-0.14918691
128	0xbd33ac02	-0.04386521
129	0x3cafddc5	0.021468053
130	0x3cf2677f	0.029590366
131	0x3b134f43	0.0022477664
132	0x3e9d6548	0.30741334
133	0xbe1a2937	-0.15054785
134	0xbe87613f	-0.2644138
135	0xbe127616	-0.14302859
136	0x3e7b76e6	0.24557075
137	0x3ec3b473	0.3822361
138	0xbe38a655	-0.180322
139	0xbf0726f8	-0.52793837
140	0x3db13e34	0.086544424
141	0x3e3cf9fa	0.18454733
142	0x3e94ef0e	0.29088634
143	0xbdc2879f	-0.09498524
144	0xbed5b9ae	-0.41743225
145	0x3dc8570b	0.09782227
146	0x3d77a633	0.060461234
147	0x3a76c896	0.0009414045
148	0xbdfb6c9b	-0.12276574
149	0xbd2edd12	-0.042691298
150	0x3ec487c0	0.3838482
151	0x3f06ac77	0.5260691
152	0x3f007164	0.5017302
153	0x3e8063b6	0.25076073
154	0x3e7d1951	0.24716689
155	0x3eaa268b	0.3323253
156	0x3e23367a	0.1593875
157	0x3e2166d1	0.15761878
158	0x3e4f9285	0.20270737
159	0x3ecf50b2	0.40491253
160	0x3e5c7ef0	0.21532798
161	0xbde718e9	-0.11284048
162	0xbea8f7fb	-0.33001694
163	0x3d95be6c	0.07311711
164	0x3e69e222	0.22840169
165	0x3dab94d5	0.08377997
166	0xbea41044	-0.3204366
167	0xbeba8917	-0.36432716
168	0xbe7abec3	-0.24486832
169	0x3ce30c0b	0.027715703
170	0xbe300904	-0.17190939
171	0xbea7220c	-0.32643163
172	0xbea63b7d	-0.3246726
173	0xbe9d2a04	-0.30696118
174	0xbc13b400	-0.009015083
175	0xbebf0eef	-0.3731608
176	0xbec79707	-0.38982412
177	0xbeacadd7	-0.3372638
178	0xbe82aeda	-0.25524026
179	0xbe4c8afe	-0.19974896
180	0xbec04da3	-0.37559232
181	0xbf01a0a9	-0.5063577
182	0xbe8a4044	-0.27002156
183	0xbd924f06	-0.07143979
184	0x3d321b59	0.043483112
185	0xbdfad91b	-0.12248441
186	0xbf03b746	-0.5145153
187	0xbf06f29d	-0.5271395
188	0xbde2a476	-0.11066525
189	0x3e8d411b	0.27588734
190	0x3d9a1e4d	0.07525311
191	0xbea48c8c	-0.3213848
192	0xbeb169a8	-0.34650922
193	0x3bfbdd2e	0.007686279
194	0x3e22d916	0.15903124
195	0x3e2da139	0.16956033
196	0xbc9c42e5	-0.019074867
197	0x38a67290	7.936836e-05
198	0x3d8b8e41	0.06814242
199	0x3e3fd02c	0.18731755
200	0xbcfef090	-0.031120569
201	0xbe17a745	-0.14809902
202	0xbdb61c4d	-0.08892117
203	0xbdccf2d4	-0.10007253
204	0xbd8efe9f	-0.06982159
205	0xbc2190f2	-0.009861218
206	0xbe2165e0	-0.15761518
207	0x3cb7ab0e	0.022420432
208	0x3e175cc0	0.14781475
209	0x3e508dd3	0.20366602
210	0x3e3fdf7d	0.18737598
211	0xbe90b276	-0.28261155
212	0xbddcc1e7	-0.107791714
213	0x3d19d2de	0.037554614
214	0x3e2199d2	0.15781334
215	0x3e701900	0.23447037
216	0xbdc5ad42	-0.09652187
217	0xbe55aead	-0.20867415
218	0x3e020761	0.12698127
219	0x3e90150e	0.28141063
220	0x3e8d54f3	0.27603874
221	0x3da45d7c	0.08025643
222	0x3dbf4c5f	0.093407385
223	0x3e3e1d51	0.18565871
224	0x3e89482f	0.26812884
225	0xbd982ad3	-0.07430043
226	0xbc440280	-0.011963487
227	0xbcab104e	-0.020881798
228	0xbe1481d3	-0.14502649
229	0xbdaa6146	-0.08319335
230	0xbe2ca36b	-0.16859214
231	0xbe871508	-0.26383233
232	0xbe9fd650	-0.31218195
233	0xbe6ab060	-0.22918844
234	0xbcef1432	-0.029184435
235	0x3de6c6f7	0.11268418
236	0x3d63dc5d	0.055630077
237	0xbd060144	-0.03271605
238	0xbe2b0330	-0.16700435
239	0xbe272d23	-0.16325812
240	0x3e8259f6	0.2545926
241	0x3e081791	0.1329024
242	0x3e762ac6	0.24039754
243	0x3de9b8fc	0.11412236
244	0x3b2b6f7e	0.0026158984
245	0x3e54d580	0.20784569
246	0x3e8b847e	0.2724952
247	0x3ea6ffac	0.32616937
248	0x3e52e6a0	0.20595789
249	0x3e7b7fd7	0.24560486
250	0xbdd02391	-0.10163034
251	0xbe2818b4	-0.16415673
252	0xbd61d3c2	-0.05513359
253	0xbd45a3a8	-0.048251778
254	0x3dc08f4a	0.0940233
255	0xbe21c5e7	-0.1579815

conv1.bias f4 [6]
0	0xbeb8ade8	-0.3607018
1	0xbd9144b9	-0.07093186
2	0xbeec13f3	-0.4610897
3	0xbeae0d15	-0.33994356
4	0xbcce343e	-0.025171395
5	0x3e84e274	0.2595402

conv2.weight f4 [16, 6, 5, 5]
0	0xbd295669	-0.041342173
1	0xbd1d1b55	-0.038356144
2	0xbb09d412	-0.0021030945
3	0x3d483dac	0.04888694
4	0xbc8a51b0	-0.016884655
5	0xbdd23a8d	-0.10265074
6	0xbbd78c6c	-0.006578019
7	0xbe10172b	-0.14071338
8	0xbdd5fdde	-0.10448812
9	0x3dd3254d	0.10309849
10	0xbd80280f	-0.062576406
11	0xbddfdcc2	-0.10930778
12	0x3db2556a	0.08707698
13	0x3e50ed8b	0.20403115
14	0x3c12d578	0.008962028
15	0xbd005f12	-0.031340666
16	0x3da33fd9	0.07971162
17	0x3e36d9a6	0.17856464
18	0x3d7d4d05	0.06184103
19	0xbe244f03	-0.16045766
20	0x3da519fd	0.080615975
21	0x3e1878e9	0.14889874
22	0xbc824417	-0.015901608
23	0xbc713778	-0.014722697
24	0xbe462bc3	-0.19352631
25	0x3da2392a	0.079210594
26	0xbd5983d6	-0.053104244
27	0xbddeb1f4	-0.108737856
28	0x3ea0fef6	0.3144452
29	0x3eb23692	0.3480726
30	0xbe3694e4	-0.17830235
31	0x3d7ebcee	0.062191896
32	0x3eca1d0d	0.3947529
33	0x3e8085a2	0.25101954
34	0xbe085b57	-0.13316093
35	0xbcd4cd97	-0.02597694
36	0x3e88e5b2	0.26737744
37	0x3e2d40bc	0.16919225
38	0xbe770898	-0.24124372
39	0xbe96530f	-0.29360244
40	0x3dc2a55a	0.095041946
41	0x3dbc7ba4	0.0920327
42	0xbe141a8f	-0.14463256
43	0xbea9fb44	-0.33199513
44	0xbdfab1b1	-0.12240923
45	0xbd943856	-0.07237308
46	0xbe8d4e5d	-0.2759885
47	0xbeaf7547	-0.34269163
48	0xbe757a33	-0.23972397
49	0xbe3bbb3d	-0.18333144
50	0x3dbce5b9	0.092235036
51	0x3d97bb27	0.07408743
52	0xbc56d842	-0.013113083
53	0xbde441f9	-0.11145396
54	0x3d836bb4	0.06417027
55	0xbc208bfc	-0.009799
56	0x3d2ceb97	0.042216863
57	0xbe0793a9	-0.13239922
58	0xbcb1a132	-0.02168331
59	0x3eade354	0.339625
60	0xbabb2ecb	-0.0014280913
61	0xbdf6416b	-0.12024196
62	0xbcab3a02	-0.020901684
63	0x3e154777	0.14578043
64	0x3e303c77	0.17210566
65	0x3d472939	0.048623297
66	0xbd0d7436	-0.034534656
67	0x3da187a9	0.07887203
68	0x3e52f968	0.20602953
69	0x3c62af88	0.013835795
70	0xbcb597a4	-0.022167034
71	0xbd9e62b2	-0.077336684
72	0x3d4a4c82	0.04938937
73	0x3c1b3ac4	0.00947446
74	0xbe585e15	-0.2112964
75	0xbdcf16af	-0.101117484
76	0xbcbd2509	-0.023088949
77	0xbde646ce	-0.11243974
78	0xbdbe70f1	-0.092988856
79	0xbe20b1b7	-0.15692793
80	0xbd844f38	-0.06460422
81	0xbd03a2c2	-0.03213764
82	0xbe00802e	-0.12548897
83	0xbe03a20a	-0.12854782
84	0xbe0a6490	-0.13514924
85	0xbca40b67	-0.020024968
86	0xbbccebd3	-0.0062536984
87	0xbde816d0	-0.11332476
88	0xbdaa07a2	-0.08302237
89	0x3d069258	0.032854408
90	0x3c0f2e9f	0.008739143
91	0xbdd683f6	-0.10474388
92	0x3d1ddd9e	0.03854143
93	0x3d8d5230	0.06900442
94	0xbe1c22cf	-0.15247653
95	0xbc44963c	-0.011998709
96	0x3d12a30f	0.035800036
97	0x3e24b327	0.16083966
98	0x3d564a0a	0.052316703
99	0xbdb55764	-0.08854559
100	0xbdaa5c6f	-0.083184116
101	0xbd47fad8	-0.048823208
102	0xbd019a0c	-0.03164105
103	0xbc98dc10	-0.018659621
104	0xbe63d015	-0.22247346
105	0x3daf4141	0.08557368
106	0x3d08b245	0.033373136
107	0x3d651549	0.055928502
108	0xbd73b1ee	-0.05949586
109	0xbe4859d5	-0.19565518
110	0x3d6f0c9b	0.05836163
111	0xb9943bc2	-0.00028273283
112	0xbe188095	-0.148928
113	0xbe2c65ae	-0.16835663
114	0x3d541636	0.051778995
115	0x3c07b967	0.008283949
116	0xbe070a43	-0.13187508
117	0xbde69963	-0.11259725
118	0xbd69916c	-0.05702345
119	0x3dbdea33	0.092731856
120	0xbdd8e4d4	-0.105905205
121	0xbda3fea2	-0.08007552
122	0xbda61d06	-0.081110045
123	0x3ccacaed	0.024754966
124	0xbb769f0c	-0.003763142
125	0x3e07f46d	0.13276835
126	0x3d7d12ff	0.061785694
127	0x3d513e7b	0.051084977
128	0x3df32fe2	0.11874367
129	0xbccd343d	-0.025049323
130	0xbc036e02	-0.008021833
131	0x3d8046ae	0.06263481
132	0x3d28a142	0.041169412
133	0xbb92f397	-0.0044846046
134	0xbda27b70	-0.079337
135	0x3c464230	0.012100741
136	0x3dcb0755	0.09913508
137	0x3db0447b	0.086068116
138	0x3c989e00	0.018630028
139	0xbdc4ef6f	-0.09615981
140	0xbd0b0ed4	-0.033949688
141	0x3d64aac8	0.055826932
142	0xbd802b43	-0.062582515
143	0xbdf950fe	-0.12173651
144	0xbd82f7e1	-0.063949354
145	0x3c68f454	0.014218409
146	0x3db14017	0.08654802
147	0x3d7f9a3a	0.06240294
148	0xbe0020ff	-0.12512587
149	0xbd86b0eb	-0.06576713
150	0x3d9baaa1	0.07600904
151	0x3c57ffc0	0.013183534
152	0xbd21ed98	-0.039533228
153	0x3cb52edf	0.022117076
154	0xbd94cc67	-0.07265549
155	0x3d86012e	0.06543194
156	0x3dace8a6	0.08442812
157	0x3dfced60	0.12349963
158	0x3d5a68b6	0.053322516
159	0x3e3feb14	0.18742019
160	0x3d910f55	0.070830025
161	0x3d611d65	0.054959673
162	0x3e034f54	0.1282323
163	0x3def0c2d	0.11672244
164	0x3db1f324	0.086889535
165	0x3dc70216	0.09717195
166	0x3dc98fc9	0.09841878
167	0x3c51092d	0.012758535
168	0x3ca84c37	0.020544155
169	0x3dfcc109	0.12341506
170	0x3e2cf56f	0.168905
171	0x3e874be5	0.2642509
172	0x3e4f9c92	0.2027457
173	0x3e59edd2	0.21282127
174	0x3d9eb691	0.077496655
175	0xbdc92b09	-0.098226614
176	0x3d1eb601	0.03874779
177	0x3d378996	0.044808947
178	0xbca2ed55	-0.01988856
179	0xbccdab57	-0.025106115
180	0xbe0a655c	-0.13515228
181	0xbe1a5bf8	-0.15074146
182	0xbe145dc6	-0.14488897
183	0xbd905375	-0.07047168
184	0x3e08ced8	0.13360155
185	0xbe1d545d	-0.15364213
186	0xbeb4ce38	-0.35313582
187	0xbe0df35d	-0.13862367
188	0xbe0d1f52	-0.13781479
189	0x3c287af8	0.010283224
190	0x3d91ec81	0.07125188
191	0xbdbd5128	-0.09243995
192	0xbe1b79f5	-0.15183242
193	0xbda6bf0d	-0.08141909
194	0x3b940de1	0.004518256
195	0x3e6af062	0.22943261
196	0x3c3fb836	0.011701634
197	0x3ceddc19	0.029035615
198	0xbcd40cd4	-0.025885023
199	0xbddb94a4	-0.1072171
200	0xbeb3a057	-0.35083267
201	0xbe3a7f6c	-0.1821267
202	0xbe61208c	-0.21985072
203	0xbe82bd9d	-0.25535288
204	0xbe3d58eb	-0.18490951
205	0xbe848bd0	-0.25887918
206	0xbe24913d	-0.16071029
207	0xbe89b848	-0.26898408
208	0xbdcd0489	-0.10010631
209	0xbc33eff8	-0.010982506
210	0xbbbc7bcc	-0.0057520624
211	0xbdbf76e1	-0.09348846
212	0xbcf785d7	-0.030215187
213	0xbd9e1da7	-0.077204995
214	0x3dcbe5ba	0.09955926
215	0x3e86f577	0.2635915
216	0x3e27c8f4	0.16385251
217	0x3dbcf0e7	0.09225636
218	0x3e69dea3	0.22838835
219	0x3e912a40	0.28352547
220	0x3e280dca	0.1641151
221	0x3e273cfe	0.1633186
222	0x3e4538ed	0.19259997
223	0x3e60fc63	0.21971278
224	0x3e862505	0.2620012
225	0x3df7b99e	0.120959505
226	0x3df4b782	0.11949064
227	0xbd47ce1f	-0.048780557
228	0xbcc6db1e	-0.024274405
229	0x3ab41686	0.0013739623
230	0x3bf8b0a5	0.007589417
231	0x3d282fb8	0.041061133
232	0x3d9dbdb3	0.07702198
233	0x3d7388ab	0.05945651
234	0x3b8f1d34	0.004367495
235	0x3d6a2e48	0.057173043
236	0x3e18e079	0.1492938
237	0x3c4448bf	0.011980235
238	0x3dbdea28	0.092731774
239	0x3c1e2a45	0.0096536325
240	0x3d8a62f8	0.06757158
241	0x3ca89cb6	0.020582538
242	0xbc737cd3	-0.014861303
243	0x3ccd6449	0.025072234
244	0x3d08ed71	0.033429567
245	0xbd3c159b	-0.045919042
246	0xbc84d3c7	-0.016214265
247	0x3cc1f3bd	0.023675794
248	0xbdbccdc4	-0.09218934
249	0xbe5018fd	-0.20322032
250	0x3debaeb7	0.115079336
251	0xbbeeb88c	-0.0072851833
252	0x3db9c7e9	0.09071333
253	0x3e070f05	0.13189323
254	0x3dad3e2c	0.08459124
255	0x3be5ee3a	0.007016924

conv2.bias f4 [16]
0	0xbd5943e8	-0.053043276
1	0xbeb0f82b	-0.34564337
2	0x3ebcad09	0.36850765
3	0xbd32ad04	-0.04362203
4	0x3f2817bb	0.6566121
5	0x3e952b08	0.29134393
6	0x3e74a8cb	0.23892514
7	0x3dd7ef77	0.10543721
8	0x3e3a611e	0.1820111
9	0xbe93e324	-0.28884232
10	0x3cc47465	0.023981282
11	0xbee6073a	-0.44927388
12	0x3f7dce94	0.9914334
13	0x3cc52aeb	0.024068316
14	0x3e102144	0.1407519
15	0xbf4c20c2	-0.79737484

fc1.weight f4 [120, 400]
0	0xbcfeb507	-0.03109218
1	0xbc1c0c1a	-0.00952437
2	0xbc2a65f9	-0.010400289
3	0xbc8f0f88	-0.01746346
4	0x3c8b1e81	0.016982319
5	0x3bc86963	0.0061160787
6	0xbce8b557	-0.028406782
7	0xbcb5124f	-0.022103457
8	0x3d83a38d	0.06427679
9	0xbbe115c2	-0.006869049
10	0xb964674a	-0.00021782253
11	0xbd39bbb8	-0.04534504
12	0xbcc4db4f	-0.024030356
13	0xbc3acaaa	-0.011400858
14	0xbbb67eec	-0.0055693295
15	0x3cfb24d1	0.030657204
16	0xba8885b3	-0.0010415822
17	0xbbadba91	-0.0053017815
18	0xbbc20b1b	-0.005921734
19	0xbce7012f	-0.028198807
20	0x3d12be96	0.03582629
21	0xbbf7f463	-0.007566975
22	0xbd73ec5b	-0.059551578
23	0xbc5d4db3	-0.0135072945
24	0xbafae984	-0.0019143079
25	0x3cbb4695	0.022860805
26	0xbd6318ad	-0.055443455
27	0xbd9cc405	-0.07654575
28	0xbcd30668	-0.02575989
29	0x3bcece87	0.006311241
30	0xbc5e400f	-0.013565077
31	0x3d3035d8	0.0430201
32	0xbd116948	-0.035500795
33	0x3d049605	0.032369632
34	0x3be4d423	0.0069832965
35	0xbd39d45f	-0.04536855
36	0xbcdc2409	-0.026872652
37	0xbca142b9	-0.019685136
38	0x3cdc5d5d	0.026899988
39	0xbcafeccc	-0.021475218
40	0xbbd6280f	-0.006535537
41	0x3cc78dc1	0.024359586
42	0x3c2bbc37	0.010481886
43	0x3bbcf359	0.005766314
44	0x3c9b9cf3	0.018995738
45	0x3d272b0f	0.04081255
46	0x3bc19016	0.005907069
47	0xbd2885cc	-0.041143224
48	0xbd193aae	-0.037409477
49	0xbd1061f6	-0.035249673
50	0xbc96a0fd	-0.018387312
51	0x3d0c9063	0.034317385
52	0x3d05d5df	0.032674666
53	0xbc0d57d3	-0.008626896
54	0xbcdd6f2f	-0.027030556
55	0xbd045c55	-0.032314617
56	0xbd5d2c85	-0.053997535
57	0x3d079f31	0.0331108
58	0x3cfbe9a8	0.030751064
59	0xbc9ef659	-0.019404577
60	0xbca1641a	-0.019701052
61	0xbc20de54	-0.009818632
62	0x3c3c8d2a	0.0115082655
63	0xbd88ecef	-0.066858165
64	0x3891b12f	6.947142e-05
65	0xbcf0bf2f	-0.029388038
66	0x3cfaa799	0.030597495
67	0x3c78ce9e	0.01518598
68	0x3cfc6ec7	0.030814542
69	0x3c1f5bb9	0.009726458
70	0xbcc4e048	-0.024032727
71	0x3cd97644	0.026545651
72	0x3ccb2675	0.024798611
73	0xbd5396c0	-0.05165744
74	0x3caee128	0.021347597
75	0xbce8288a	-0.028339643
76	0xbcc5f774	-0.024165846
77	0x390b027d	0.00013257
78	0xbcf82b05	-0.03029395
79	0x3d4f598f	0.05062252
80	0x3c311e7b	0.01081049
81	0xbbd90a9b	-0.0066235787
82	0xbcc11b94	-0.02357272
83	0x3d232488	0.03982976
84	0xbcd83648	-0.02639307
85	0x3d77aac2	0.06046558
86	0xbd745be0	-0.05965793
87	0x3c31c0d5	0.010849197
88	0xbd2b058c	-0.041753337
89	0xbbe95117	-0.0071202624
90	0xbb02049d	-0.0019839176
91	0xbccf61d3	-0.0253152
92	0x3d3f31fe	0.046678536
93	0xbd38c420	-0.045108914
94	0x3d2456a8	0.040121704
95	0x3cedea8a	0.029042501
96	0x3d83c47b	0.0643396
97	0x3c843dd4	0.016142763
98	0xbba81bbe	-0.0051302603
99	0x3c99aac6	0.018758189
100	0xbd29bc94	-0.041439608
101	0x3c915f71	0.017745705
102	0xbbecff6d	-0.0072325976
103	0xbc96c51b	-0.018404534
104	0x3cda2c06	0.02663232
105	0xbcc6afc2	-0.02425373
106	0xbd569963	-0.052392375
107	0xbd29dfa3	-0.041473042
108	0xbcdd4650	-0.027011067
109	0xbd3021a6	-0.04300084
110	0x3d44f2ac	0.048082992
111	0xbc029dc4	-0.007972185
112	0xbd4e145b	-0.05031238
113	0xbc72f963	-0.014829966
114	0xbd348c7a	-0.04407928
115	0xbca2b664	-0.019862361
116	0x3b9d2161	0.004795239
117	0xbc7418eb	-0.014898519
118	0xbd11601e	-0.035492055
119	0xbbad6fe1	-0.005292878
120	0x3c0d5899	0.00862708
121	0xbc6b484b	-0.014360498
122	0x3c44df59	0.012016141
123	0xbc98e4df	-0.018663822
124	0xbc558fb2	-0.013034748
125	0x3d0b155a	0.03395591
126	0x3d015822	0.03157819
127	0xb9d23403	-0.00040093073
128	0x3c2accc5	0.010424797
129	0xbd0f2d23	-0.034955155
130	0x3caf4db8	0.021399364
131	0xbc3a2062	-0.01136026
132	0xbc42ef13	-0.01189782
133	0x3cf5c761	0.030002298
134	0x3cc76a5f	0.024342714
135	0xbc9679de	-0.018368658
136	0x3d0b01e6	0.033937357
137	0xbd3a345d	-0.045460094
138	0x3cf9d0fc	0.03049516
139	0xbc2be051	-0.010490493
140	0x3d22c957	0.039742794
141	0x3c4f432a	0.0126502905
142	0xbc99f899	-0.018795298
143	0xbbe8520a	-0.007089858
144	0x3cbc05c2	0.022951964
145	0x3c6e475b	0.01454338
146	0x3b7ca9ce	0.003855336
147	0xbc93055c	-0.017946891
148	0xbb18963f	-0.0023282913
149	0xbd1490c3	-0.036270868
150	0x3d24c827	0.040229943
151	0xbacc5373	-0.0015588835
152	0xbcae7082	-0.021293882
153	0x3d031ef2	0.032011934
154	0x3c1b9708	0.009496458
155	0xbc5537c9	-0.0130137885
156	0xbcb51c8e	-0.022108342
157	0xbca337d5	-0.019924084
158	0xbcad66e3	-0.021167224
159	0xbd1fb07f	-0.03898668
160	0x3cd978a0	0.026546776
161	0x3ccf62ec	0.025315724
162	0xbceea38f	-0.029130725
163	0x3ca34ec8	0.019935027
164	0xbab3f505	-0.0013729638
165	0xbd2e686f	-0.042580064
166	0x3c340b03	0.0109889535
167	0x3c82a207	0.015946401
168	0x3d26e949	0.04074982
169	0xbcc41472	-0.02393553
170	0xbc936f06	-0.017997276
171	0x3d388dda	0.045057155
172	0x3cd46b03	0.025929933
173	0x3c8c5962	0.017132465
174	0x3cce55fc	0.025187485
175	0xbcacaafe	-0.02107763
176	0x3d3aa335	0.045565803
177	0x3d5dd8c9	0.05416182
178	0xbc8ea84b	-0.017414233
179	0xbc629b70	-0.0138310045
180	0x3c43e202	0.01195574
181	0xbcfa037f	-0.030519245
182	0x3acf1abd	0.0015800815
183	0x3da858d9	0.08220071
184	0x3d706872	0.058693357
185	0xbc88f07d	-0.016716236
186	0xbcf7b161	-0.030235948
187	0x3ba0cbad	0.0049070925
188	0x3ca82bcd	0.020528698
189	0x3cf4194e	0.029797222
190	0x3d70b30f	0.058764514
191	0xbd129eb0	-0.035795867
192	0x3b63a465	0.0034735438
193	0x3d448bcb	0.04798488
194	0x3be64c9e	0.0070281764
195	0xbcbfd393	-0.023416316
196	0x3d6ac844	0.057319894
197	0x3d20307a	0.03910873
198	0x3bf88317	0.0075839865
199	0xbd171456	-0.03688463
200	0x3ce461ff	0.02787876
201	0x3d2200c7	0.039551523
202	0x3cd5c6d0	0.026095778
203	0x3d50a7c5	0.050941247
204	0xbb2bfdc2	-0.002624378
205	0xbd070b4c	-0.032969758
206	0x3bb8b714	0.005637059
207	0xbd553967	-0.052056696
208	0x3d1123a5	0.035434384
209	0xbc72fe3b	-0.014831121
210	0x3d375912	0.04476268
211	0x3d56ad3e	0.05241131
212	0x3ca1794a	0.019711155
213	0x3b6a9f79	0.003580062
214	0x3d1b0275	0.03784414
215	0x3d2884ee	0.041142397
216	0x3d0db683	0.034597885
217	0xbd252c9f	-0.040325757
218	0x3cc1ae1f	0.023642598
219	0x3b92a394	0.0044750664
220	0xba73f6aa	-0.000930647
221	0x3d19e3e8	0.037570864
222	0x3cd47c5b	0.025938204
223	0x3ce68e91	0.028144153
224	0x3ca511e0	0.020150125
225	0xbd259c63	-0.040432345
226	0xbd528346	-0.051394723
227	0xbb535a4b	-0.0032249864
228	0xbd3a5822	-0.045494206
229	0xbcfc93ac	-0.030832134
230	0x3c9b7cd4	0.018980421
231	0xbc15aa32	-0.009134816
232	0x3bd1d097	0.0064030397
233	0xbcc83c5b	-0.024442842
234	0x3b4e1de6	0.0031450926
235	0xbd0ad84a	-0.033897676
236	0xbd621a50	-0.055200875
237	0xbd60513e	-0.05476498
238	0x3be79314	0.0070670936
239	0x3c207b74	0.0097950585
240	0xbc218c82	-0.00986016
241	0xbd2ba611	-0.04190642
242	0x3bd37fad	0.006454429
243	0xbcceb7c6	-0.025234114
244	0xbd2a18d9	-0.041527603
245	0x3b3232d4	0.002719094
246	0xbd85bd57	-0.06530254
247	0xbd5cdf67	-0.05392399
248	0xbbb560e2	-0.005535231
249	0xbcef15ea	-0.029185254
250	0x3bda1129	0.0066548777
251	0x3c3db753	0.011579352
252	0xbca1cd35	-0.01975117
253	0x3d0c33dd	0.03422915
254	0x3d6f23d1	0.058383767
255	0xbcbeed56	-0.02330653

fc1.bias f4 [120]
0	0x3bf24ec5	0.007394644
1	0x3cf38f29	0.02973135
2	0xbd063c54	-0.032772377
3	0xbb5e61bf	-0.0033932773
4	0x3cd83978	0.02639459
5	0xbd995353	-0.07486596
6	0xbdb2fe98	-0.08739966
7	0xbdbe5e08	-0.09295279
8	0xbd342ea1	-0.04398978
9	0x3d303c82	0.043026455
10	0x3db2d868	0.087326825
11	0x3b5ca463	0.0033667318
12	0xbc946dd5	-0.018118778
13	0x3c990654	0.018679775
14	0x3dbad889	0.09123332
15	0x3bf90a37	0.0076000947
16	0x3ddf42ee	0.10901438
17	0xbcb1bd77	-0.02169679
18	0x3dbe271e	0.09284805
19	0x3dc7a8ea	0.09749015
20	0xbce32bea	-0.0277309
21	0x3d3cf3b8	0.046130866
22	0xbd8102c0	-0.06299353
23	0x3c8d2e05	0.017233858
24	0x3cf814f6	0.030283432
25	0x3d6534d2	0.055958577
26	0x3caf6a70	0.021413058
27	0xbe2c777f	-0.16842459
28	0x3d920d9a	0.071315005
29	0x3ddb4380	0.10706234
30	0x3d5d4302	0.05401898
31	0x3e814528	0.25248075
32	0x3a4a8347	0.00077252503
33	0xbd3251af	-0.04353493
34	0x3dddcb80	0.1082983
35	0x3c460e47	0.012088365
36	0xbdffaaa4	-0.12483719
37	0x3d19a68e	0.037512355
38	0x3e00a6d4	0.1256364
39	0x3d07b020	0.03312695
40	0xbd9c3b40	-0.076284885
41	0xbc8bb1a6	-0.017052483
42	0xbd1e1496	-0.03859385
43	0xbca7be8f	-0.020476608
44	0x3ddb796d	0.107165195
45	0xbda18c4d	-0.078880884
46	0x3cebed87	0.028799785
47	0x3cf05611	0.029337915
48	0x3c273308	0.010205038
49	0x3e288d81	0.1646023
50	0x3dcd8831	0.10035742
51	0x3d8b9d2d	0.06817088
52	0xbcc7c16b	-0.024384221
53	0xbe071f85	-0.13195617
54	0x3d1d8be1	0.038463477
55	0x3de58d36	0.112085745
56	0x3d757afe	0.059931748
57	0x3e0c2617	0.13686405
58	0x3d9ef155	0.07760874
59	0xbd2fe5ed	-0.042943884
60	0xbdcd47f2	-0.10023488
61	0x3bfd983c	0.007739095
62	0xbcd92566	-0.02650709
63	0xbc7d7706	-0.015470272
64	0xbd1c500e	-0.038162284
65	0x3e2c4b7a	0.16825667
66	0x3c9aa254	0.018876232
67	0xbc896dd8	-0.01677601
68	0xbd173321	-0.036913995
69	0xbd6ebcb4	-0.05828543
70	0x3dab4a0f	0.08363735
71	0xbdae8036	-0.08520548
72	0xbc20f60e	-0.009824289
73	0x3d9b69f3	0.075885676
74	0x3d468389	0.048465285
75	0x3d9fe26f	0.07806861
76	0x3df78d63	0.12087514
77	0xbcc1f387	-0.023675693
78	0xbd626309	-0.05527023
79	0xbc31b870	-0.010847196
80	0xbe01444d	-0.12623711
81	0x3d8553b5	0.065101065
82	0xbc86ada6	-0.016440224
83	0x3e355ab9	0.17710389
84	0xbd4b237b	-0.049594384
85	0x3dbd3361	0.092383154
86	0x3df2df13	0.11858954
87	0x3d12dec8	0.035856992
88	0xbd12848d	-0.03577094
89	0xbcf663e6	-0.030076932
90	0x3d2151ed	0.03938477
91	0xbd740f9e	-0.059585206
92	0xbc42f716	-0.01189973
93	0x3be5e5ca	0.0070159184
94	0x3cc17ccb	0.023619076
95	0x3c3354aa	0.010945478
96	0x3de616ca	0.112348154
97	0x3ca6bd73	0.020354008
98	0xbcb233f4	-0.021753289
99	0x3d238f42	0.039931543
100	0xbcb13614	-0.021632232
101	0x3cefdad0	0.029279143
102	0x3d947aa5	0.07249955
103	0xbdbb52ef	-0.09146678
104	0x3e6a183a	0.22860804
105	0x3e379c18	0.17930639
106	0x3d653608	0.05595973
107	0x3dad3298	0.084569156
108	0x3e05835e	0.13038394
109	0x3d9bc42a	0.07605775
110	0x3d40a539	0.04703257
111	0x3ce6fd27	0.028196884
112	0xbd942fb3	-0.072356604
113	0x3e39f732	0.18160704
114	0x3d0ae603	0.033910763
115	0x3c534b29	0.012896338
116	0xbc5892ef	-0.013218625
117	0xbc31988d	-0.010839594
118	0x3cf8da3a	0.030377496
119	0x3d7937c5	0.0608442

fc2.weight f4 [84, 120]
0	0x3d1fcfcd	0.039016534
1	0xbb0bcc1b	-0.0021331373
2	0x3d440f0b	0.04786591
3	0xbb66bd18	-0.0035207924
4	0x3c5f9997	0.0136474585
5	0x3ddf6e50	0.10909712
6	0x3d5a0508	0.053227454
7	0x3dc5d65e	0.09660028
8	0xbd2425d5	-0.040075142
9	0xbc18bb10	-0.009321943
10	0xbd2b1de1	-0.04177654
11	0xbd01c608	-0.031682998
12	0x3ce3efcc	0.027824305
13	0x3c3dcb5c	0.011584129
14	0xbcb166e8	-0.021655515
15	0x3cf58364	0.029969878
16	0xbcc579ef	-0.024105994
17	0x3d1feb39	0.039042685
18	0xbd0fc86e	-0.035103254
19	0x3d04eb30	0.032450855
20	0x3d1bf088	0.038071185
21	0xbd5eda57	-0.054407444
22	0x3d45a5d0	0.048253834
23	0x3dd4e339	0.10394902
24	0x3dde8d87	0.10866838
25	0x3dcce406	0.100044295
26	0x3d805256	0.06265704
27	0xbd5f52e3	-0.054522406
28	0xbd173da0	-0.036924005
29	0x3ba573c4	0.0050492007
30	0xbd35f299	-0.044420812
31	0xbcb941be	-0.022614356
32	0x3c427690	0.011869088
33	0xbd4e8a94	-0.050425127
34	0xbc23bb6f	-0.009993418
35	0xbdb701a9	-0.089358635
36	0xbdfa0d7e	-0.12209605
37	0xbd8c148b	-0.06839856
38	0xbd710dee	-0.058851175
39	0xbd5d21a5	-0.053987164
40	0xbd997a42	-0.07494022
41	0x3d23f3c3	0.04002739
42	0xbd67c40a	-0.05658344
43	0xbd16c870	-0.036812246
44	0x3c73ab44	0.014872376
45	0xbc7b0e8f	-0.015323295
46	0x3c06904c	0.008213114
47	0x3d91cbb7	0.07118934
48	0xbda03a23	-0.07823589
49	0xbc8c8b3b	-0.017156234
50	0x3d954d30	0.07290113
51	0xbb874305	-0.0041278624
52	0xbc046531	-0.008080767
53	0x3cab815d	0.020935709
54	0xbc6c76ed	-0.014432651
55	0x3e18f381	0.1493664
56	0xbc28c361	-0.010300488
57	0xbc929ab5	-0.017896036
58	0xbdce84dd	-0.100839354
59	0xbdbf9f7b	-0.0935659
60	0x3c71cf99	0.014758968
61	0xbcdb90e9	-0.026802497
62	0x3ccf5ed4	0.025313772
63	0x3cd43d0c	0.025908016
64	0x3c720f75	0.014774193
65	0xbcbb380c	-0.022853874
66	0xbda2fb68	-0.07958108
67	0xbd21b7b6	-0.03948184
68	0xbcc8efd9	-0.02452843
69	0xbdc940fb	-0.09826847
70	0xbd518cb3	-0.05115957
71	0x3d34f0fe	0.04417514
72	0x3dabb2f6	0.083837435
73	0x3da0516b	0.07828029
74	0xbc9ded88	-0.019278303
75	0x3d823238	0.06357235
76	0x3d66027f	0.056154724
77	0xbd2dd4d9	-0.042439315
78	0x3d999f32	0.07501067
79	0xbd9d8fee	-0.07693468
80	0x3d817157	0.06320446
81	0x3c3c6fc8	0.01150126
82	0xbc431606	-0.011907106
83	0xbd0f2af6	-0.03495308
84	0xbdb3eaa0	-0.087849855
85	0xbd87014d	-0.06592045
86	0xbdfc723b	-0.12326475
87	0xbce75b26	-0.028241705
88	0xbb065b3c	-0.0020501157
89	0xbb7103f1	-0.003677603
90	0xbd809da5	-0.06280068
91	0x3cc9525c	0.024575405
92	0x3e019a5d	0.12656541
93	0xbdc164c2	-0.09443046
94	0xbb12b9be	-0.0022388543
95	0xbcaacfee	-0.020851102
96	0x3c081327	0.0083053475
97	0x3d18a8cb	0.03727035
98	0x3d9851bb	0.07437464
99	0xbd654e8f	-0.055983122
100	0xbd33774c	-0.043814942
101	0xbcddeae4	-0.027089544
102	0xbce2a494	-0.027666368
103	0x3db7ec0d	0.0898057
104	0xbc71eccf	-0.014765932
105	0xbd9fd231	-0.07803763
106	0xbdb39868	-0.087693036
107	0x3d893ae8	0.067006886
108	0x3c8cf023	0.01720435
109	0xbb3003d9	-0.0026857762
110	0xbda45365	-0.08023719
111	0x3bba1893	0.005679199
112	0x3d26aaf9	0.040690396
113	0x3d5fba9a	0.054621316
114	0x3b842ac3	0.004033418
115	0x3dced772	0.10099687
116	0x3d87af4c	0.06625232
117	0x3bd8837d	0.0066074715
118	0x3c794a26	0.015215432
119	0x3d978658	0.07398671
120	0xbd44e41f	-0.048069116
121	0x3d4b94de	0.049702518
122	0xbd777762	-0.060416587
123	0xbd16ad39	-0.03678629
124	0x3c0e691d	0.008692053
125	0x3d9122ea	0.070867375
126	0xbd96af15	-0.07357613
127	0xbdc1df6e	-0.09466444
128	0x3d12c59d	0.03583299
129	0x3d2261e9	0.039644156
130	0xbdb3b7ce	-0.08775292
131	0xbb25c29d	-0.0025293
132	0x3db79b8e	0.089652166
133	0xbd5e034a	-0.054202355
134	0xbcdaaeff	-0.026694773
135	0xbbc1707b	-0.0059033013
136	0x3d94c1f7	0.07263558
137	0xbd6e6362	-0.058200248
138	0xbdbf7b26	-0.093496606
139	0x3d8b1c06	0.067924544
140	0xbd1bc941	-0.038033728
141	0xbadf9ed1	-0.0017060881
142	0x3dac441d	0.08411429
143	0x3d82913e	0.06375359
144	0x3be038e5	0.00684272
145	0xbd893ed9	-0.0670144
146	0xbb03f26d	-0.002013351
147	0x3d68a79d	0.056800473
148	0xbd914e46	-0.070950076
149	0x3d84a040	0.06475878
150	0x3cf6b07d	0.030113453
151	0xbd92723a	-0.07150693
152	0xbda1fb60	-0.07909274
153	0x3dd8b9bb	0.105823
154	0xbc01beb5	-0.007919003
155	0xbda3b093	-0.07992663
156	0xbc50a39a	-0.012734318
157	0x3d332d30	0.043744266
158	0xbd6a6353	-0.05722363
159	0x3db38a35	0.08766595
160	0x3dcc8b0a	0.09987457
161	0xbd70ccfa	-0.05878923
162	0x3d5b8c66	0.05360069
163	0xbd5ea335	-0.054354865
164	0x3b3d3dc8	0.0028875936
165	0xbc3bba55	-0.011457999
166	0x3d986842	0.074417606
167	0xbdaa20fa	-0.08307071
168	0x3d7aa37e	0.061191075
169	0x3c821c1c	0.015882544
170	0xbd268d1f	-0.040661927
171	0xbd90292c	-0.07039103
172	0x3b25077f	0.002518147
173	0x3aafae0e	0.0013403313
174	0xbda21472	-0.07914056
175	0x3ce4eab4	0.027943946
176	0x3b62e9ce	0.0034624222
177	0xbd67a01b	-0.056549173
178	0x3ca7d723	0.020488327
179	0xbc24e9f2	-0.0100655425
180	0xbd0d7fac	-0.034545586
181	0x3d0fa79c	0.035071954
182	0xbc88934b	-0.016671797
183	0xbc6dbd35	-0.0145104425
184	0xbd396724	-0.04526438
185	0xba26d691	-0.00063643703
186	0x3dabfc11	0.08397687
187	0x3d959ae2	0.07304932
188	0x3d435c04	0.047695175
189	0x3d262bf6	0.04056927
190	0xbbe0d909	-0.00686181
191	0xbd75f972	-0.060052343
192	0xba2f055a	-0.00066765177
193	0xbb8804d6	-0.004150967
194	0x3dae8c1d	0.08522818
195	0x3d8688ad	0.065690376
196	0x3d2bb202	0.04191781
197	0x3d6e3fdf	0.05816638
198	0x3d85a307	0.065252356
199	0x3c8ddb15	0.01731638
200	0x3c979a3f	0.018506167
201	0xbdb2da69	-0.08733065
202	0x3ceb5651	0.028727682
203	0xbbf655a7	-0.007517535
204	0xbd19dc21	-0.037563447
205	0x3d01d08a	0.03169302
206	0x3c8c771e	0.017146643
207	0xbd135f72	-0.035979696
208	0xbca010b9	-0.019539224
209	0x3d8bcbd1	0.06825984
210	0x3dc1255e	0.09430955
211	0xbdc9af23	-0.09847858
212	0x3d1d2a73	0.03837056
213	0x3c85efea	0.016349752
214	0x3d54a055	0.051910717
215	0xbd9bd84c	-0.07609615
216	0xbd509bbd	-0.050929774
217	0x3d974530	0.07386243
218	0xbdb865a2	-0.0900376
219	0x3d17681d	0.036964525
220	0x3cfcd511	0.030863317
221	0xbd8e70c8	-0.06955105
222	0xbd931ecc	-0.071836084
223	0xbb9f337b	-0.004858432
224	0x3d6fd845	0.05855586
225	0x3d6f5cc6	0.058438085
226	0xbdc3719f	-0.09543156
227	0xbd86ceef	-0.06582438
228	0xbd9cadae	-0.07650314
229	0xbda3f99a	-0.08006592
230	0x3d0d12be	0.034441702
231	0xbd42784c	-0.047478005
232	0x3bef8407	0.00730944
233	0x3ce66c2c	0.028127752
234	0xbd405a46	-0.04696109
235	0xbd0e4201	-0.034730915
236	0xbd33a2b3	-0.043856334
237	0x3d7a80df	0.061158057
238	0x3d580f38	0.05274889
239	0xbdaf7443	-0.08567097
240	0xbd77738f	-0.06041294
241	0xbdcbe705	-0.09956173
242	0xbcb95199	-0.022621917
243	0xbda6b022	-0.081390634
244	0xbd4d180f	-0.050071772
245	0xbdeecb7e	-0.11659907
246	0xbc485a8f	-0.012228622
247	0x3ce4cb73	0.027929043
248	0x3d4c1e9d	0.049833883
249	0xbd3b3006	-0.045700096
250	0x3d189193	0.037248205
251	0xbd95363a	-0.072857335
252	0x3d3e5963	0.046471965
253	0x3bd77ff1	0.006576531
254	0xbe5c6f9d	-0.21526952
255	0x3cbc8d40	0.023016572

fc2.bias f4 [84]
0	0xbdcd02eb	-0.10010322
1	0xbd9e33ae	-0.07724701
2	0xbd152fd1	-0.036422554
3	0x3e4772ef	0.19477437
4	0x3d8f6436	0.070015356
5	0xbd5bd525	-0.053670067
6	0xbd18d5de	-0.037313335
7	0x3dee0362	0.11621739
8	0x3dfa01c2	0.122073665
9	0x3e145f69	0.14489521
10	0xbd7cf04e	-0.06175261
11	0x3eb48da2	0.35264307
12	0xbc9c76b5	-0.019099573
13	0xbd2c0a9f	-0.042002317
14	0xbdc6132d	-0.09671626
15	0x3dee9bf6	0.11650841
16	0xbd705efa	-0.058684327
17	0xbd19df32	-0.03756637
18	0x3df6edd6	0.12057082
19	0x3defb5a1	0.11704565
20	0x3d910eda	0.07082911
21	0x3e27e36f	0.16395353
22	0xbd44e742	-0.048072107
23	0x3e4316a6	0.19051608
24	0x3c1e3a5d	0.00965747
25	0x3e5e266b	0.21694343
26	0x3ead4c57	0.33847305
27	0xbd8d6db8	-0.06905693
28	0x3e2c5eb4	0.16833001
29	0x3dfacdeb	0.12246307
30	0xbd2d625f	-0.042330142
31	0xbcb64672	-0.022250388
32	0xbdc4de04	-0.096126586
33	0xbcc0188d	-0.023449207
34	0xbc53fa48	-0.01293809
35	0xbd461b17	-0.04836568
36	0x3d3546b9	0.0442569
37	0x3d166819	0.03672037
38	0x3dce623b	0.1007733
39	0x3e7c521f	0.24640702
40	0x3c518df4	0.012790192
41	0x3dc7c8a6	0.097550675
42	0xbd8024cf	-0.06257021
43	0x3cd71c9e	0.026258763
44	0xbda74518	-0.081674755
45	0x3dc2ced7	0.09512108
46	0xbdb7bff7	-0.08972161
47	0x3db039b3	0.08604755
48	0x3e22c4d9	0.15895404
49	0x3e567149	0.20941652
50	0x3dea9cb1	0.11455668
51	0x3d280550	0.04102069
52	0x3bcc792c	0.0062400308
53	0xbdb9204b	-0.090393625
54	0x3e426b10	0.18986154
55	0x399683c0	0.0002870839
56	0x3c21f0a6	0.009884035
57	0x3c41e642	0.011834683
58	0x3cc33d23	0.023832863
59	0x3e9678cf	0.29389045
60	0x3e92fa9d	0.28706828
61	0x3dd11358	0.10208768
62	0xbd689471	-0.05678219
63	0x3c0636b1	0.00819175
64	0xba289569	-0.0006430955
65	0x3e419b36	0.18906865
66	0xbd8773df	-0.066138975
67	0xbc40ad05	-0.011760001
68	0x3d3e31a4	0.04643406
69	0x3c4cffd2	0.012512164
70	0x3e80b2a7	0.251363
71	0x3d239dc5	0.039945383
72	0x3da500e7	0.08056813
73	0x3c468d27	0.012118614
74	0xbd7972d1	-0.060900513
75	0x3d4e8a82	0.05042506
76	0x3a8f80d1	0.0010948424
77	0xbd60884a	-0.054817475
78	0x3d96e3e4	0.073676854
79	0xbd2dc5fb	-0.042425137
80	0x3c2edfc5	0.010673468
81	0x3d80dc85	0.06292061
82	0x3dcadd2a	0.09905465
83	0x3d8756da	0.066083625

fc3.weight f4 [10, 84]
0	0x3daa00eb	0.08300956
1	0x3dc2675f	0.09492373
2	0x3e27b827	0.16378842
3	0x3dcd5897	0.10026663
4	0xbe6054fd	-0.2190742
5	0xbd91b78e	-0.071150884
6	0xbe4f1de7	-0.2022625
7	0x3bac5665	0.0052593225
8	0xbe27b347	-0.16376983
9	0xbd9d7db5	-0.07689992
10	0xbdcf92bb	-0.101354085
11	0xbda8737c	-0.08225152
12	0x3d8e0e43	0.06936314
13	0xbc87e48a	-0.016588468
14	0x3c9710ed	0.018440688
15	0x3ddb964e	0.10722028
16	0x3da9e1d4	0.082950264
17	0x39ecfc5d	0.00045201453
18	0x3e280680	0.1640873
19	0xbd947189	-0.072482176
20	0x3d8bc728	0.068250954
21	0xbe71e87a	-0.23623839
22	0x3db567e9	0.0885771
23	0xbd2ba9fa	-0.04191015
24	0xbd874bb2	-0.066062346
25	0x3e07d6a0	0.13265467
26	0xbdaab003	-0.08334353
27	0xbc64b493	-0.013959068
28	0x3dd2aab1	0.10286463
29	0x3e00c01b	0.12573282
30	0x3da2fe6a	0.07958682
31	0x3c1c6241	0.00954491
32	0xbd438e23	-0.047742974
33	0x3b81f369	0.0039657843
34	0x3e4ef8e6	0.20212135
35	0xbbf2a0c3	-0.007404418
36	0xbe0c877c	-0.13723558
37	0xbc1fd9be	-0.009756504
38	0x3dcada54	0.09904924
39	0xbd3a6786	-0.045508884
40	0x3cfb2eec	0.030662023
41	0x3e181b0a	0.14854065
42	0x3e6c9bd5	0.2310632
43	0xbdf9414c	-0.121706575
44	0x3d05cdaa	0.03266684
45	0x3e2a199b	0.1661133
46	0x3b4a6f49	0.0030889085
47	0xbd8e2591	-0.06940759
48	0xbdfa0ace	-0.12209092
49	0xbe8707d7	-0.2637317
50	0x3e0f9985	0.14023407
51	0xbbaf2273	-0.005344683
52	0x3d5ef9a5	0.0544373
53	0x3dcd9b3a	0.10039373
54	0xbe537832	-0.2065132
55	0xbe3e5773	-0.18588047
56	0xbe1984f2	-0.14992121
57	0x3e6130f9	0.21991338
58	0x3e2c956d	0.16853876
59	0x3d058cbc	0.032604918
60	0xbe17c721	-0.14822055
61	0xbe0f20d8	-0.13977373
62	0x3d8724ed	0.0659884
63	0xbe8b5105	-0.2721025
64	0x3e533a6f	0.2062776
65	0x3e7dcb2a	0.24784532
66	0x3dc8fc7c	0.098137826
67	0xbc99f4c2	-0.018793467
68	0xbe33a663	-0.1754394
69	0xbb5443ca	-0.0032389038
70	0x3c77cf59	0.015125119
71	0x3d841be7	0.064506344
72	0x3e52148c	0.2051565
73	0x3e1faa39	0.15592279
74	0x3de7b923	0.11314609
75	0x3d5cb6a4	0.053885117
76	0xbd299308	-0.041399986
77	0x3db7bdbf	0.08971738
78	0x3cda655f	0.026659666
79	0x3d18bdf1	0.037290517
80	0xbd41e43d	-0.047336806
81	0x3e25bd33	0.16185455
82	0x3e32e379	0.17469586
83	0xbd82df4e	-0.06390248
84	0xbbbec0fb	-0.005821345
85	0xbd940252	-0.07227005
86	0xbc8cc7b3	-0.017185068
87	0xbd01b602	-0.031667717
88	0x3d739d8d	0.059476424
89	0x3dbb4e6f	0.091458194
90	0x3e463e83	0.19359784
91	0x3dfbcb64	0.12294653
92	0xbcd73699	-0.026271151
93	0x3e675b0e	0.22593328
94	0x3d645137	0.055741515
95	0xbe04d7a5	-0.12972887
96	0xbbd8c202	-0.0066149244
97	0xbe0667b5	-0.13125499
98	0x3e513707	0.20431148
99	0xbcb2e3a9	-0.021837072
100	0x3c526d1f	0.012843399
101	0xbd546143	-0.05185057
102	0x3d11cd1a	0.03559599
103	0xbcfc9228	-0.030831411
104	0xbdadec94	-0.08492389
105	0xbe37ff99	-0.17968597
106	0xbe383458	-0.17988718
107	0xbc57207f	-0.013130306
108	0x3cb7f4fa	0.022455681
109	0xbdfdd948	-0.12394959
110	0xbdb9a374	-0.09064379
111	0x3e0ff454	0.14058048
112	0xbe2ea275	-0.1705416
113	0xbd3f8f7d	-0.0467677
114	0x3e63e9b1	0.22257115
115	0xbd703347	-0.058642652
116	0x3dd46f9c	0.1037285
117	0x3b91223d	0.0044291303
118	0xbe1023a9	-0.14076103
119	0xbca39303	-0.019967562
120	0xbcbdfe75	-0.023192624
121	0xbb3aa88a	-0.0028481805
122	0xbdd3ca15	-0.103412785
123	0xbe16ae2e	-0.14714882
124	0x3e759d38	0.23985755
125	0xbd3d27fc	-0.04618071
126	0xbe1eeadb	-0.15519278
127	0xbd8b3324	-0.06796864
128	0x3d13bba8	0.036067635
129	0x3d017dbb	0.031614047
130	0x3de08451	0.10962737
131	0xbea43a37	-0.32075664
132	0xbe591fab	-0.21203487
133	0xbe98fe46	-0.29881495
134	0xbd4f5908	-0.050622016
135	0x3d8fc8ef	0.07020747
136	0xbde5a78b	-0.11213597
137	0x3e733808	0.23751843
138	0xbeb4b987	-0.35297796
139	0x3d47b4b7	0.048756327
140	0x3c3cfb01	0.011534453
141	0x3eac0163	0.33594808
142	0x3e1b84d4	0.15187389
143	0xbe059905	-0.13046654
144	0xbe59f8f8	-0.2128638
145	0x3cd60ab6	0.026128154
146	0xbdb20a94	-0.08693424
147	0xbdd5b529	-0.10434944
148	0x3e3f9984	0.18710905
149	0xbe7d0481	-0.2470875
150	0xbd464a8e	-0.048410945
151	0x3e4bb7c3	0.19894318
152	0x3e1e13fe	0.15437314
153	0x3d19f06a	0.037582792
154	0x3d02b646	0.03191211
155	0x3e2956eb	0.16537063
156	0x3e31caf2	0.17362574
157	0xbe5d2d26	-0.21599254
158	0xbd57de22	-0.052702077
159	0x3dc9b51c	0.09848997
160	0x3d60b457	0.054859485
161	0xbc81d430	-0.01584825
162	0x3e214331	0.15748288
163	0x3ea1ebd5	0.31625238
164	0xbc2bceae	-0.010486288
165	0xbdc1fdf4	-0.09472266
166	0x3cf64809	0.030063646
167	0xbdcbb1ef	-0.099460475
168	0x3e44298b	0.19156472
169	0x3d5ed444	0.05440165
170	0xbd164dc5	-0.03669526
171	0x3d958bcb	0.07302054
172	0x3d00aa63	0.031412493
173	0x3b8200f8	0.0039674006
174	0x3e052be8	0.1300503
175	0xbddbd3c6	-0.10733752
176	0x3d89bf38	0.06725925
177	0xbe782f33	-0.24236755
178	0x3e04bde3	0.12963061
179	0x3d31dc9b	0.043423276
180	0x3dc53236	0.096287176
181	0x3cdc719c	0.026909642
182	0x3cd4b508	0.025965229
183	0x3d68f850	0.056877434
184	0x3d8df322	0.069311395
185	0x3cacfcaa	0.021116573
186	0xbe1c0dfa	-0.15239707
187	0x3d497a79	0.049189065
188	0x3e013d8b	0.12621133
189	0x3d8e21db	0.06940051
190	0x3dc2a580	0.09504223
191	0x3ced2aa4	0.028950997
192	0x3e0b40a1	0.13598873
193	0x3de09531	0.10965956
194	0x3ded5857	0.11589115
195	0xbe6ec11f	-0.23315857
196	0x3b8dfa4a	0.0043328153
197	0x3e3c96cd	0.18416901
198	0xbe1340c4	-0.14380175
199	0xbd757c66	-0.05993309
200	0x3e03b9de	0.12863871
201	0xbd0b1d10	-0.033963263
202	0x3e51abd4	0.20475703
203	0x3e35a02d	0.17736883
204	0x3be22ee6	0.0069025634
205	0x3dd3fd2c	0.10351023
206	0xbe026c14	-0.12736541
207	0x3e380241	0.1796961
208	0xbe0cfe36	-0.13768849
209	0xbd94277d	-0.07234094
210	0x3eb03576	0.34415787
211	0x3d996755	0.07490412
212	0x3d7fc371	0.062442247
213	0x3d7bc48a	0.06146673
214	0xbdbedc79	-0.093193956
215	0x3d7adabf	0.06124377
216	0xb9e0ae17	-0.00042854316
217	0x3e8e01af	0.2773566
218	0xbdf7c7d8	-0.12098664
219	0x3e1de14d	0.15417977
220	0x3e6f02f9	0.23340978
221	0xbdb27ca8	-0.087151825
222	0x3dc626cf	0.09675371
223	0xbe249625	-0.160729
224	0xbe5c00fb	-0.21484749
225	0x3d537cce	0.051632695
226	0xbd7b00ab	-0.061279934
227	0xbd59a206	-0.053133033
228	0x3e6491f1	0.22321297
229	0xbe2cfdce	-0.16893694
230	0x3dc8de38	0.0980801
231	0xbd644e64	-0.05573882
232	0xbb62a90b	-0.003458562
233	0x3e229abc	0.15879339
234	0xbc8c699f	-0.017140208
235	0xbd4f6a3a	-0.050638415
236	0x3e3219ae	0.17392609
237	0x3db82f84	0.08993438
238	0x3d9e9654	0.077435166
239	0x3bccd8fe	0.0062514534
240	0x3b93344c	0.0044923183
241	0xbe05c408	-0.13063061
242	0x3db0c238	0.08630794
243	0xbd8c9d9a	-0.068659976
244	0x3d76093f	0.06006741
245	0x3d5c7fb5	0.05383273
246	0xbd812baf	-0.0630716
247	0xbdfddd53	-0.1239573
248	0xbc662df7	-0.014049045
249	0x3dd61ffc	0.10455319
250	0xbdda5394	-0.106604725
251	0xbb4b1fa8	-0.003099421
252	0xbc472ec8	-0.01215715
253	0x3d66bef9	0.05633447
254	0xbde14290	-0.10999024
255	0x3d454311	0.048159663

fc3.bias f4 [10]
0	0xbe0e8267	-0.13916932
1	0xbf0a5bc2	-0.5404626
2	0x3c1d59cb	0.009603928
3	0x3e0138f6	0.12619385
4	0x3efb8565	0.4912521
5	0xbe4b2404	-0.19837958
6	0x3cd0e513	0.025499856
7	0xbe58e5a1	-0.21181346
8	0x3ee4fb16	0.44722813
9	0xbe8e5be8	-0.27804494
