lab1-LeNet/model/1019155042.pth (torch, 250887 bytes, 10 tensors)

conv1.weight f4 [6, 3, 5, 5]
00000000: 6d7c b9be b7aa cabe d0ab fdbc 3d02 0fbd
00000010: d9a7 5fbe 3f96 5fbe f46d 74bf 3d0f f9be
00000020: d00d 48be 8ac1 fdbd 2978 e13e 874d 0a3f
00000030: 8b15 943e 4488 a1be b297 f63d a253 22be
00000040: b94a dc3e b284 8a3e e90f 0dbe 336f 103e
00000050: 018c 78be 96b8 28bf 77e3 4cbe 8d1e 253e
00000060: 4b2b e3bc 3df7 a13e e32b a33e ac26 113f
00000070: 42b3 9d3d a48f 1d3e d6cb 893e e9da e4be
00000080: 0f08 4ebd 993b 7fbc 54d9 69bd 2e61 323f
00000090: 7e91 803f 2add 0d3f 1046 0dbe cbb3 653e
000000a0: 019d cfbc 38e8 423f 2bff cd3e 08c3 863c
000000b0: 02ca 2b3e 7228 43be a61c 17bf dcbe 6ebe
000000c0: 25a2 643e 5e66 c5bc 4d17 e1bd 3418 12be
000000d0: 9f61 b03d b57f 823d 8ac3 17bd 5c27 2bbe
000000e0: 6be1 63bf c020 8cbe 0bcf e23d 78f2 3abd
000000f0: c448 d03e dab2 993e 8d83 543d 9fef 88be
00000100: 3bc3 393d 4a0d 6ebe d0ce 603e 3829 673e
00000110: 4d73 bbbd 9ed0 893e 1cd2 73be 1914 11bf
00000120: 6ecd 8dbe a157 463e d892 98bd 58b9 363d
00000130: 9e2b b43e 875f 283f c9b9 aa3e 5a9b e23d
00000140: 32b2 6dbe e2dd 13bf 8eb2 e63e 2361 0e3f
00000150: 7b00 e33d 79b2 003e ac22 4abf f8b8 99be
00000160: 2189 0e3f 2f73 a23e 168c 773d 2bcb b6be
00000170: d091 31bf fcce c9bd b4a2 a2bd 8d58 7dbc
00000180: ae31 413d 27e0 9dbd 82a0 59be 920f 92bd
00000190: aedf c8be e31d 83be f951 e53d 4bbb a8be
000001a0: b348 c6be 1a6e 14be 0d6b 15bf ae2b 3d3e
000001b0: 1eea 7a3e 6fe2 35be 8292 ca3e 47d7 41bf
000001c0: f90f c3be 9dfc fe3d 821e c93d b73a 373f
000001d0: 3c58 eabd 7166 2bbf 4249 cabe 5d8e 18be
000001e0: e0fb f43e 27a3 123f 05b3 283e 2e16 48be
000001f0: 70d7 27be d6da c0bd 4479 c43c 7144 603e
00000200: e500 14be 0e77 95bd 0eeb b53d 5704 23bf
00000210: 0ab5 153e 2a29 c33e 3e85 05be f4d6 ef3e
00000220: 342c 23bf c791 ccbe 37a9 453e dcef aa3e
00000230: 35a1 0e3f af9a df3c 93b1 25bf 9996 a4be
00000240: 67fe 2bbd d7a7 d83e 4b49 113f 8a36 013e
00000250: 6088 0b3b a09f 66bd ba3a 54bd 1745 203e
00000260: cf02 eb3e f582 163f 518c 9c3e 7c26 133f
00000270: 8272 713f de73 393f 3136 003f dda2 523e
00000280: 4b42 863e 1d6b f63d 1994 bbbe 91fc 0dbf
00000290: b890 d5be b4c9 2fbe 7b8c a8be a376 38bf
000002a0: 6bfb d4be 0321 f7bd 7714 86be 014a 44be
000002b0: 2067 6cbe f2b4 25be 41c6 0ebe e871 08bf
000002c0: 1b48 51be a859 f8bb 8a88 673d 4ce9 68be
000002d0: e638 9d3d 607c e43e fa22 973e dff1 52be
000002e0: 5c8f bfbe f878 ad3c d14e 72be f576 2ebf
000002f0: 6a78 3dbf 03ef efbe 0258 debd 50eb c7be
00000300: 7697 fbbe 5d22 51be a804 4a3e 9eec 053e
00000310: 8fb2 dd3d 902d 733e c5fd f73e 317f a13e
00000320: ec3c abbe cc5a fabc 1779 683d d3d0 333e
00000330: 9bfb 17be 40c8 5e3e 0744 ef3e fd8b c53e
00000340: 489a 303e d8e5 31be 34e4 cd3d 7bfc 97bd
00000350: 1b2e b0be f16b bcbe b281 6cbd efef f73d
00000360: 93d0 61be 8d92 94be d5f8 643d 0929 643e
00000370: 9e37 bcbd b0e2 4b3d 3711 8d3e 3c60 0a3f
00000380: d0b7 f23e a711 2e3d 88dd 1a3d 54ba 9e3d
00000390: 2986 153e 3405 9e3e d91a 3f3c a185 1cbe
000003a0: 75a8 bcbd 1ba7 3f3c 11e1 973d 23c5 78be
000003b0: 5d5d efbe 19aa e6be 5412 afbe 8694 7ebe
000003c0: 3dfe 98be 9a4f a1be a890 59be 2faa 2cbe
000003d0: 2b04 14be 0592 0dbe 4f86 37be 37d9 c3be
000003e0: 809d d4be eca8 9cbe 34ce c33d a509 693d
000003f0: 74c3 033d 6d67 25be bfde 7abe 85bb 623c
-0.36227742 -0.3958337 -0.030965716 -0.034914244 -0.21841373 -0.21834658 -0.95480275 -0.48644438
-0.19536519 -0.1239043 0.44036987 0.5402455 0.28922686 -0.31549275 0.12040652 -0.15852216
0.4302576 0.27054363 -0.137756 0.14104919 -0.24272157 -0.65906656 -0.20008646 0.16124935
-0.027730605 0.3163394 0.3186942 0.56699634 0.07700206 0.15386826 0.26913327 -0.44698265
-0.050300654 -0.015578174 -0.057092026 0.69679534 1.0044401 0.55415595 -0.13796258 0.22431867
-0.02534342 0.7613559 0.4023374 0.01645042 0.16776279 -0.19058397 -0.5902809 -0.23314995
0.22327478 -0.024096664 -0.109907724 -0.14267045 0.0861237 0.063720144 -0.037051715 -0.16714233
-0.89015836 -0.27368736 0.110746466 -0.045641392 0.40680516 0.30019265 0.05188327 -0.26745316
0.045352202 -0.23247257 0.21953893 0.22574317 -0.09152851 0.26916975 -0.23810619 -0.5667129
-0.27695793 0.19369365 -0.07449883 0.04461035 0.35189527 0.65770763 0.33344868 0.11064787
-0.23212507 -0.5776044 0.450581 0.5561697 0.11084076 0.12568082 -0.78959155 -0.30023932
0.5567799 0.31728503 0.06043633 -0.3570188 -0.6936312 -0.09853932 -0.079411894 -0.015463007
0.04716652 -0.07708769 -0.21252635 -0.07131876 -0.39233154 -0.2560874 0.11197276 -0.32955393
-0.3872734 -0.14495125 -0.5836647 0.18473694 0.24503371 -0.17762159 0.39564902 -0.7571911
-0.38098124 0.12450526 0.09820272 0.71573967 -0.114426106 -0.6695319 -0.39509016 -0.14898057
0.47848415 0.572802 0.1647454 -0.19539711 -0.16390777 -0.0941674 0.023983605 0.21901108
-0.14453466 -0.072980985 0.08882724 -0.636785 0.14619842 0.38117343 -0.13039109 0.46843684
-0.63739324 -0.3995497 0.19302832 0.33386123 0.5571473 0.027295439 -0.6472408 -0.32146147
-0.041990664 0.42315552 0.5675246 0.12618461 0.0021291003 -0.056304574 -0.05181382 0.15651356
0.4590058 0.58793575 0.30575803 0.574806 0.9431535 0.72442424 0.5008269 0.2056994
0.26222453 0.12032149 -0.36636427 -0.5546351 -0.41711974 -0.17166787 -0.32919678 -0.72056025
-0.41598067 -0.12066843 -0.26187488 -0.19168855 -0.23086214 -0.16182306 -0.13942815 -0.5329881
-0.20437662 -0.0075790472 0.0565267 -0.22745246 0.07676868 0.4462614 0.29518872 -0.20600079
-0.37414062 0.021175846 -0.23662879 -0.68150264 -0.7401186 -0.4686204 -0.1085663 -0.39046717
-0.49138993 -0.20423265 0.19728339 0.13078544 0.10825073 0.2374785 0.48435798 0.31542352
-0.33444917 -0.030560873 0.056756105 0.17560129 -0.14842074 0.21756077 0.46731588 0.38583365
0.17246354 -0.17372835 0.10053292 -0.07421204 -0.34410176 -0.36801103 -0.057740875 0.121063106
-0.22052221 -0.2901806 0.055901367 0.22281279 -0.09190296 0.049776733 0.27552196 0.5405309
0.47405863 0.042497303 0.037808925 0.07750383 0.1460196 0.30863345 0.011664116 -0.1528535
-0.09211818 0.011697556 0.07415975 -0.24293952 -0.46750918 -0.4505165 -0.3419367 -0.24861345
-0.29881468 -0.31506044 -0.21246588 -0.16861795 -0.14454715 -0.13825233 -0.17922328 -0.3825166
-0.41526413 -0.30597627 0.095608145 0.056893963 0.03216882 -0.16152735 -0.24499033 0.013838653

conv1.bias f4 [6]
00000000: 8975 90be c817 c7be 3e5d 33bf de17 b43e
00000010: 1777 e0bd 72b7 b1be
-0.28214672 -0.3888533 -0.7006415 0.3517446 -0.109602146 -0.3471027

conv2.weight f4 [16, 6, 5, 5]
00000000: 1f58 803d 02ad 97ba aafd a03d f91a 133d
00000010: 3828 2abc 1581 e73d c038 213e b29c a43d
00000020: 1082 083e 1778 dabb f59b 0bbd 010d c03c
00000030: 60c6 923d b7a1 22bc ffb3 073c c719 f53d
00000040: 26dd 363e f12b e83d 9a0e 0a3e 00c1 35be
00000050: 7646 8a3d 123c b23d b429 a33d bc50 7c3c
00000060: 3b12 2fbe 6c47 42be 214d 52be 9006 5ebe
00000070: 80a3 46be 0e36 16be 678a 62be 1cf0 86be
00000080: 8621 8ebe fdb2 75be a3d8 77bd 480a 20be
00000090: b7a5 5ebe fed0 8cbe 8694 4cbe c64f 64bd
000000a0: 4641 14be e656 21be 2b63 f0bd a760 1ebe
000000b0: 5fa0 f2bb c4e8 2fbe 4614 32be f50a 54be
000000c0: d599 b6bd 8d15 64bd e023 81bc 8039 b2bc
000000d0: ae3f e6bd 031a aa3d 0914 923e ee40 e2bd
000000e0: 98d1 1cbe 2b3a 17bd ad83 4f3c fe82 663e
000000f0: f989 91bc 8169 2cbd cc9b 00bb 0278 613d
00000100: b17f fe3d 736d 9cbd 12a7 49bd 7e89 18be
00000110: 043e b63d f357 8a3e 2d08 4d3e 56bb 9b3e
00000120: a378 cd3e 5672 fe3e c9b9 053e 9826 9ebe
00000130: d1da 22be eca5 2cbd 4cbc d33d 3751 023e
00000140: b297 13be bb1a d6bc 9daf aa3d ab3a 323e
00000150: e511 5c3e 912d 9ebd 385a 0f3c cb3e 4d3d
00000160: fd4c ec3d a6b0 b23d 0876 9fbc 90d6 c33d
00000170: 2339 923d c9c1 133e 741b 9b3d 6169 28be
00000180: 524b 0bbe 8735 f0bd 41b0 b8bc a91c 2a3d
00000190: 7c5b ccbd cd9f d8bd 1a18 4e3c be61 bdbd
000001a0: 6a8e b7bc bbb5 07be bb24 05be 8950 96bd
000001b0: d135 d2bd cca1 02be 5fbd 0abd 4a48 cabd
000001c0: a083 18be 92ea 89bd 3c1f 6bbe 236f 85bb
000001d0: 0f38 60bd e2ac 61bd e339 41be aeb1 87be
000001e0: 3b45 01be b264 dfbc 9d7a 3e3d a7d0 b1bd
000001f0: 1628 0ebe e140 bcbd e8b9 16be 6bd3 a93d
00000200: 0b2e 083e c315 433e d102 6ebe 5c48 c8bd
00000210: a622 24bc 7c24 febb f723 463e 1c1f f8bd
00000220: 6a8e 86bd 7cbc e5bd c396 543e c26a 8f3d
00000230: 9af4 d9bd 9692 4fbe 538a 99bd d704 a3bc
00000240: 474f 923e 8722 96be f8fd d1bd 6c8a 82bb
00000250: af1f 583e c5b3 aa3e daf3 71be cdf0 b4bd
00000260: 9e03 f0bd cc07 0abc 6577 743d cd7c 07be
00000270: 7949 2abd f901 06bd 0328 ae3c 1474 33bd
00000280: 95f1 3ebd d37d 3c3d 4511 85bc ecb9 ed3d
00000290: a229 ae3d aaa4 ff3c 7793 6f3e 1cc4 9e3d
000002a0: b9ad a53d b665 953d 7116 34be 4a53 f3bc
000002b0: 5725 b73d 6436 3d3e 6300 d43d 8206 363d
000002c0: a66c cebd 993a bbbd cd34 d7be 5f14 a2be
000002d0: 36a1 813e 4f54 8e3d 9e18 d0bb 74ef 29bd
000002e0: b36c 0ebd ed08 823e 9f27 713e 2b62 adbb
000002f0: 757e 933c 6312 4abc 7440 1f3e fa7f 843d
00000300: 347c eebd 1970 9fbc 5a5e 42bd ffb1 0b3c
00000310: b09b 0b3d fe0f 9dbd 9d9d 14be 573a 05be
00000320: 6031 14bd 932d ac3c 084a 133e 053d 86bd
00000330: 03e1 87bd 38c8 a0bc 2da2 ee3d 1979 f53c
00000340: 8b5d 3abd 7ea5 2f3e 4a7f 9f3d 4c87 ad3d
00000350: 6a6f bdbd 22af 2abd 3829 173e 5fda f23b
00000360: 850f 9bbd f68d 71bd 9362 7b3d dd46 a03e
00000370: 2c0e a43b cc44 23be a21e 62bd dfd9 96bc
00000380: a80e a13c 077a 063e 18ec 723d 1674 633d
00000390: 6ae2 52bd d757 043e 6043 893c 43ff 9ebd
000003a0: 2e6f 123d cdde 2bbd 7636 543c ce13 9dbc
000003b0: 2531 12be af74 99bc d737 853d b965 e13d
000003c0: afc8 8ebb e777 09be 1cf0 173c 4407 2ebd
000003d0: 970f d73d a536 923e 9cb5 803d 00d8 a03c
000003e0: 8152 dd3d 322e e53d d6e0 b73d 04bb b23d
000003f0: 87be c73c 4c9a 35bd d605 423e f2d0 c53c
0.06266808 -0.0011571946 0.078608826 0.035914395 -0.010385565 0.11303917 0.15744305 0.080377
0.13330865 -0.006667148 -0.03408428 0.0234437 0.07166743 -0.009926251 0.0082826605 0.11967807
0.17857799 0.11336506 0.13482133 -0.17749405 0.067517206 0.08702864 0.079669386 0.015400108
-0.17096798 -0.18972558 -0.20537235 -0.21682191 -0.19398308 -0.14669058 -0.22123109 -0.26355064
-0.2775995 -0.2399406 -0.060509335 -0.15628922 -0.21742903 -0.27503198 -0.19978532 -0.05574014
-0.14478025 -0.15755805 -0.11737665 -0.15466557 -0.0074043716 -0.17178637 -0.17390546 -0.20707305
-0.0891606 -0.055684615 -0.015764177 -0.021755934 -0.11242615 0.083057426 0.2853091 -0.110475406
-0.15314329 -0.036920708 0.012665671 0.22510907 -0.017765986 -0.042092804 -0.0019624112 0.05504609
0.12426699 -0.07638063 -0.049231596 -0.14896199 0.08898547 0.27020225 0.2002265 0.30416363
0.401311 0.49696606 0.13059153 -0.3088882 -0.15903784 -0.042150423 0.10338649 0.12726294
-0.14413336 -0.026135793 0.08334277 0.17405193 0.21491201 -0.07723535 0.008749537 0.050108712
0.11538122 0.08725099 -0.019465461 0.09562409 0.07139804 0.14429392 0.07573596 -0.16446449
-0.13602951 -0.117289595 -0.022544982 0.04153124 -0.09978387 -0.105773546 0.012578988 -0.092471585
-0.022406776 -0.13252918 -0.13002293 -0.073395796 -0.10264171 -0.12757033 -0.033872005 -0.09877069
-0.14893961 -0.06734194 -0.22961134 -0.0040720864 -0.05474096 -0.055096515 -0.18869738 -0.26502746
-0.12624066 -0.027269695 0.046503652 -0.086823754 -0.13882479 -0.09192062 -0.14719355 0.08292278
0.13298814 0.1905127 -0.23243262 -0.097794265 -0.010018026 -0.007755814 0.19349657 -0.12115309
-0.06570132 -0.11217591 0.20760636 0.07002784 -0.10642357 -0.20270762 -0.074970864 -0.019899769
0.2857611 -0.29323217 -0.10253519 -0.0039837863 0.21105836 0.33340278 -0.23628178 -0.088349916
-0.1171944 -0.0084247105 0.059684176 -0.13231201 -0.041573975 -0.032716725 0.021259313 -0.043811873
-0.04661711 0.046018433 -0.016243586 0.116077274 0.085040346 0.031206448 0.23396097 0.07752249
0.080897756 0.072947904 -0.17586686 -0.029702801 0.08942669 0.1847778 0.10351636 0.0444398
-0.10079317 -0.09142036 -0.4203247 -0.31656167 0.25318307 0.06949674 -0.006350591 -0.041488126
-0.034771632 0.25397435 0.2355027 -0.0052912435 0.018004635 -0.012333485 0.1555193 0.06469722
-0.116447836 -0.019462632 -0.047453262 0.008526324 0.034084022 -0.07669066 -0.1451325 -0.13010536
-0.0361799 0.021017825 0.1438371 -0.06554607 -0.066347145 -0.019626722 0.11652026 0.02996497
-0.045499366 0.17152974 0.0778795 0.084730715 -0.09249766 -0.041670926 0.14761817 0.007411286
-0.075713195 -0.058973275 0.061373305 0.31304064 0.005006572 -0.15944213 -0.055204995 -0.018414436
0.019660309 0.13132487 0.059307188 0.05553063 -0.051485457 0.12924133 0.01675576 -0.07763531
0.03575056 -0.041960526 0.012952438 -0.019174483 -0.1427656 -0.018732397 0.06504791 0.1100573
-0.0043574194 -0.13424645 0.009273555 -0.042487398 0.105010204 0.28557315 0.06284639 0.019634247
0.10806752 0.11190452 0.08978431 0.08727077 0.024382843 -0.044336602 0.18947539 0.024147484

conv2.bias f4 [16]
00000000: 68f1 223e 1911 b83f a666 d3be bbab 053e
00000010: 5869 f63e 6e62 a23e 0288 393d ac6c d2bd
00000020: cb1d 30be 401a aa3f 11c9 81be e0cb 0d3e
00000030: 3299 aabf d98c a33c b238 d73e 2786 04be
0.15912402 1.4380218 -0.41289252 0.13053791 0.48127246 0.3171572 0.045295723 -0.10274634
-0.17198865 1.3289261 -0.25348714 0.13847303 -1.3328001 0.019964622 0.42035443 -0.129418

fc1.weight f4 [120, 400]
00000000: f73a 703d 7cfe 83bd a889 ebbd a999 8bbd
00000010: f963 89bd bcf5 b13c 7b6a 33bd 6f85 7abd
00000020: 618d 97bc beac 9ebb 8f12 36bc 10e9 7ebd
00000030: 854d b739 0d7f c83c b64b d7bd 4096 f3bc
00000040: accb 5ebd 170d c03b 5d74 4fbd 98ff 57bd
00000050: c036 183d 2b0d 98ba c465 993b 171f aabd
00000060: 0062 aebd 1218 0f3d 76f1 fcbb 748a 0a3d
00000070: 49d4 593c 6b70 0cbb ccc2 42bd fcb4 5cbc
00000080: d87d 5cbc 59b9 d53b d60b e03d 0cf9 4c3c
00000090: 4849 d13d 47bb 883c c083 873d 6478 823c
000000a0: d9d8 263d 6d43 883c 7c4e 003c 5650 2ebc
000000b0: 04fb d5bc 4dcf 1dbd 9d1b e2ba 5372 c8bd
000000c0: 02d8 98bd b948 55bc 2b84 9dbd 4504 243d
000000d0: 5a10 b53d 79a3 07bd 350c 13be 2314 08bd
000000e0: 6c72 893d 434f 8ebc de81 bebd 2a45 11be
000000f0: cb24 f0bd 63a8 31bd aa81 fb3c 715c 093c
00000100: d229 9fbd 3e56 5abd fcd7 89ba 4863 983c
00000110: 2d0a a63d 5f68 68bb 60d8 9aba c029 40bc
00000120: a73a 6ebd 07cd 25bc 0949 a2bd 9b26 15bd
00000130: 204b 0bbd f9ed 02be eedd bcbd 9dd3 ab3b
00000140: f9cf af3b cbf1 223d 5b33 60bd f929 f5bd
00000150: 56a0 0bbd 65ea fdbc ef46 503c 28f0 e7bc
00000160: 6ab4 88bd 6397 80bd cff6 debd 8ee0 8b39
00000170: 0040 36bb 65d6 a5bb a7bc ce3c e08f b0bd
00000180: c96e dcbd fc6a 163d e300 903d d4c7 38bd
00000190: 1107 12be b94d fcbc d892 963c 3eb2 6c3d
000001a0: 36a7 e63c 5f7d 393d d31a e03c 123b 87bc
000001b0: 883f 79bd 62f3 f53d de2b cc3d 6ba4 583d
000001c0: 3afc 303d a1b8 e4bc 88c5 b4bc de0f 663d
000001d0: d6d3 bf3c 1717 4ebd 29d5 25bd 0ca9 4bbd
000001e0: 6193 443d 8be3 ac3d 72ae 3c3d 3c36 00bd
000001f0: 4fe3 14bc dd60 bc3d 990f 06bd f8d7 053c
00000200: 1703 08be d25f b7bd 247f 20bd 7182 a03c
00000210: bff6 95bc 2cdb 92bd ef08 09be 530e e7bc
00000220: 6710 66bb ee19 963c 3ccc b53c 69f7 d8bd
00000230: 5a4b 883b 22d4 743d a2cf 83bc 4b7e 823c
00000240: 59e3 d63c 83b5 7f3c 15e2 febc a018 b0bb
00000250: 4675 4a3d 7064 b8bb b6d7 20bd 7afc 193d
00000260: 1f1e 82bd 6371 91bd 0ef7 8fbd d32c 23bd
00000270: 449c b73d f7f8 b43d 12d5 e2bd 17b7 a0bd
00000280: 0ccc 54bd a57f f03d 6e04 a83d 83f2 9bbd
00000290: 637a 773d d6ef c6bd 47d5 393c 482c 443b
000002a0: b3bb 4dbc a200 083d 5599 9ebd ad7e b8bd
000002b0: 7956 8b3d d1a3 5d3d 3e2d 9dbd fa43 0dba
000002c0: 3c54 e6bc ffbb 293b 496e cdbd 709c 40be
000002d0: 3bc2 0b3e 2dd5 a13d 34f2 fc3b 2f6a 93bd
000002e0: 138d 5bbe 9437 c23c 03b7 3cbb 609c debb
000002f0: 5b18 c2bd 8d1b 26be a772 1d3d 6154 bc3c
00000300: dfef b43c 857f dfbd 3815 90bd 43ea b63d
00000310: 18da b93c 7cca 01bd acee 14bd d856 e9bd
00000320: 8ee7 c9bc 1661 a23d 9c4a e83b b413 cebd
00000330: ccad a3bd d03d ab3c 121d 803d d643 703c
00000340: a75b c4bd 37e9 fabd feb0 9cbb 4d88 efbc
00000350: a869 ecbd 67be 23bd 9cd2 efbd 5fe1 43bd
00000360: a74d dabb a53f 8bbd 279e c03c b8a0 97bc
00000370: 5835 dcbd 2a38 05bd c91e a9bb e86a 0dbc
00000380: 3ad9 edbd d8c2 993c b908 a73d 60fb afbb
00000390: 77ce 133d bab3 37bc 0619 023d f875 d4bc
000003a0: ed1e 1cbd 51e7 b3bb d03d 02bd 264a 013c
000003b0: 18e9 633d f993 e63d 51a7 9c3d 92af 963d
000003c0: f779 38bb 9738 673b 7dd9 45bb ebd0 143d
000003d0: 2dea 70bd 45f0 463c f22d 423c 1be4 5b3d
000003e0: d66a 133e 4710 0fbc 82d1 173e 05f2 f4bc
000003f0: 9b5f f6bc 9b31 01bc 2714 9bbd 374d 423e
0.058649983 -0.064450234 -0.11500865 -0.06816418 -0.067085214 0.02172362 -0.04380272 -0.06116241
-0.018500032 -0.00484237 -0.011112823 -0.062233984 0.00034962237 0.024474645 -0.105124876 -0.02973473
-0.054393455 0.0058609354 -0.050648082 -0.052733988 0.03716159 -0.0011600604 0.004681321 -0.08306711
-0.08514786 0.034935065 -0.007719214 0.033823445 0.013295242 -0.002142931 -0.047549054 -0.013470884
-0.013457738 0.0065223393 0.109397575 0.012510549 0.102190554 0.016690863 0.06616926 0.015926547
0.040734146 0.016633714 0.007831212 -0.010639271 -0.02612067 -0.038527776 -0.0017250661 -0.097874306
-0.07463075 -0.013017827 -0.07691225 0.040043134 0.088410094 -0.033114884 -0.14360125 -0.03322233
0.06711277 -0.01737178 -0.09302114 -0.1418654 -0.11725768 -0.043373477 0.030701477 0.008383856
-0.077716485 -0.053304903 -0.0010516639 0.018602028 0.081074096 -0.00354626 -0.0011813752 -0.011728704
-0.058161404 -0.010119683 -0.079240866 -0.03641377 -0.03400719 -0.12786092 -0.09222017 0.005243732
0.0053653684 0.039781373 -0.054736476 -0.11970896 -0.034088455 -0.030995557 0.012712224 -0.028312758
-0.06675036 -0.06278875 -0.10886919 0.00026679452 -0.0027809143 -0.005060958 0.02523644 -0.08621192
-0.10763318 0.036723122 0.07031419 -0.045112446 -0.14260508 -0.03079878 0.018380567 0.057787172
0.028155904 0.04528558 0.02735654 -0.01650766 -0.060851604 0.12009312 0.099693045 0.052891176
0.043209292 -0.02792007 -0.022066846 0.056167476 0.023416441 -0.05031499 -0.04048649 -0.049721763
0.047992114 0.08441838 0.0460648 -0.031301722 -0.009087398 0.09198163 -0.03272972 0.008169167
-0.13282429 -0.08953823 -0.03918375 0.01959345 -0.018306134 -0.0717071 -0.13382314 -0.028205073
-0.0035104991 0.018322911 0.022192113 -0.10594065 0.004159373 0.059772618 -0.016090218 0.015929362
0.026231455 0.015607241 -0.031113664 -0.0053740293 0.049428247 -0.0056272075 -0.039268218 0.037594296
-0.063534014 -0.07101705 -0.07029544 -0.03983767 0.08965352 0.08836549 -0.11075796 -0.078474216
-0.051952407 0.11743096 0.0820397 -0.07614615 0.06041945 -0.09713714 0.011342353 0.002993362
-0.012556958 0.03320373 -0.077440895 -0.090085365 0.06803603 0.054111306 -0.07674645 -0.00053888524
-0.028116338 0.0025899408 -0.10030801 -0.18809676 0.13648312 0.07901988 0.0077193025 -0.07197987
-0.21440534 0.023708142 -0.0028795607 -0.0067935437 -0.09477302 -0.16221447 0.03843942 0.022989454
0.022087036 -0.10912994 -0.07035297 0.089314006 0.022687003 -0.031687245 -0.036360428 -0.11393517
-0.024646547 0.07928674 0.0070889723 -0.10062352 -0.079921335 0.020903498 0.06255545 0.014664611
-0.09587794 -0.122515135 -0.0047818413 -0.029239798 -0.1154359 -0.039976504 -0.117100924 -0.047822352
-0.006662089 -0.067992486 0.023512913 -0.018509254 -0.10752362 -0.032524265 -0.0051611406 -0.0086314455
-0.11613698 0.018769667 0.081559606 -0.0053705424 0.036085572 -0.011212284 0.031762145 -0.025935158
-0.03811543 -0.0054902215 -0.03179723 0.0078912135 0.055642217 0.11258692 0.076491006 0.07357706
-0.0028148869 0.0035281533 -0.0030189448 0.036332052 -0.058817077 0.012142246 0.0118517745 0.053684335
0.14396223 -0.008731908 0.14826015 -0.02990056 -0.030074885 -0.007885362 -0.07572203 0.18974768

fc1.bias f4 [120]
00000000: a494 163d 5306 293e 9d10 a03c ca7c 2c3e
00000010: 72ff 973e fae1 bbbd 84d9 223d 24e9 3e3e
00000020: bca6 b13d dd20 943c 3b3f 2bbd 3d0a 00bd
00000030: c98f 7bbd dc7a 303e 94e2 ce3d 4a4a 1bbd
00000040: b933 a4bd c0a0 f6bc 31a5 383e 6cb6 263d
00000050: 8b32 5abe 2923 10be 6989 b33c 6b28 883d
00000060: 0a46 10be 8672 0b3d 564f 233e 9894 663e
00000070: d613 4cbd bbff d63b b123 27bc ea8a 8abc
00000080: 8bed a13c 99d6 d03d 6cbd b03d 28bc ab3d
00000090: 14e9 9a3e 9694 b1bd 0ede 55be b1da ffbd
000000a0: b4d5 193c 00d3 6cbd 488d 8cbd 59a5 f5bb
000000b0: b550 9abc 24b0 843d ab68 06bd 06ed 8b3e
000000c0: e3ac 2cbe 1d7d 82bd 4502 31bc 2ee6 643e
000000d0: 10c3 a33c 3c55 8abd e8e2 3cbd a494 683e
000000e0: 328b 133b 417d c1bd 361d 093d 1cf4 1e3d
000000f0: 5ac8 9c3d 0986 46bd eba1 09be ed7b 853c
00000100: f06a bb3d 7144 c93c e520 6c3e 404c 4c3d
00000110: 848d cdbd 76b2 c23d 040c dc3d 906f 5f3d
00000120: 281a fabb 1972 bd3b cf4c d63d 47bd 5b3d
00000130: bae0 f3bd 3c53 f63d 6997 87bc 670d ac3c
00000140: 98d1 0ebd 5db2 333d 66dc 103b 20bc 82bd
00000150: 2522 a83d 49b1 863c 5484 6dbd e956 34bd
00000160: b5a6 1b3e 907b 3c3d 6694 703c fe63 1e3e
00000170: e7ef bb3b c786 4e3d 56e6 923d 726f ff3d
00000180: a1bc 003e c0fb 93bd b25e 05bd 1c92 673d
00000190: 92be 09bd a7bf 45bd b543 3ebe ef96 773e
000001a0: c780 60bd 4630 523e 7fb8 c8bc d77b 2a3e
000001b0: 1d34 4cbd 95a8 3b3b 4caa 4c3e 5bb7 c4bb
000001c0: 363d e53d e3ca 1fbd 9879 573c ea10 283e
000001d0: 9928 d13d da04 da3d d4a3 28be 9feb 0cbd
0.03676285 0.16506319 0.019539172 0.16844478 0.29687077 -0.09173961 0.03975822 0.18643624
0.0867438 0.018082077 -0.04180835 -0.031259764 -0.06141642 0.17234367 0.1010181 -0.037912644
-0.08017678 -0.030105948 0.18031766 0.040701315 -0.21308343 -0.14075913 0.021916108 0.06648334
-0.14089218 0.034044765 0.15948233 0.22517622 -0.049823605 0.006561247 -0.010201381 -0.016911943
0.01976659 0.10197181 0.08629879 0.08385497 0.3025595 -0.08670919 -0.20885488 -0.12492884
0.00938933 -0.057818413 -0.06862885 -0.0074965176 -0.018837312 0.06478909 -0.032814663 0.27329272
-0.16862826 -0.0637152 -0.010803764 0.22353432 0.019990474 -0.067545384 -0.046114832 0.22712952
0.0022513387 -0.094477184 0.033475123 0.03880702 0.076554015 -0.04846767 -0.13440673 0.016294444
0.09151256 0.024568768 0.23059423 0.049877405 -0.100367576 0.09506695 0.10744479 0.054549754
-0.0076325126 0.0057814238 0.10463869 0.053647306 -0.119080976 0.120275944 -0.01655169 0.021002484
-0.034867853 0.043871272 0.0022104024 -0.06383538 0.082096376 0.016441958 -0.057987526 -0.044028196
0.15200312 0.046016276 0.014683818 0.15467831 0.0057353857 0.050421502 0.07172839 0.124724284
0.12571956 -0.07225752 -0.03256101 0.056535825 -0.033629008 -0.048278477 -0.18580516 0.2417867
-0.05481031 0.20526227 -0.024502037 0.16648804 -0.049854387 0.0028634418 0.19986838 -0.006003303
0.11193316 -0.039011847 0.013151549 0.16412702 0.102128215 0.106454566 -0.16468745 -0.034404393

fc2.weight f4 [84, 120]
00000000: 0833 a1bd cf1e 903d dc76 bb3d 969a 97bc
00000010: d8ba 18bc 84df 8ebd 5039 cb3c 246d 753c
00000020: 545c 233d 3f13 233d 30ed efbc 2cd4 31bd
00000030: f710 d33b b523 1dbd cab3 643c 0910 56bb
00000040: fbaa 5f3d f044 9a3d c5c5 e4bc 4e7a 55bd
00000050: 62ae 71bd 11ba c13c dd3e 2abd 4a2f 98bd
00000060: b74c 3b3d 578b d53c 5280 0d3d ca93 f3ba
00000070: dbcb 85bd 0ba9 093c ceb7 9f3d 4c9d febc
00000080: ca6f 0f3d 6329 49bd 5f35 be3c 7660 113c
00000090: dd68 97bd 3bc4 d7bd f9ea acbd 62e5 b03c
000000a0: 58a7 9bbd f1d6 103d 8a61 233d 2a70 f53c
000000b0: 2f4b 0d3d 7a9c 86bd 114e 923d 8f88 7c3d
000000c0: 0e7b 3f3c 47db 55bd 4607 e4bd d563 eb3c
000000d0: e227 083d a719 143d 3f31 66bc f681 d0bc
000000e0: 18ba 8cbd 282c 5dbd 55a0 96bd 26e0 21bd
000000f0: 3221 c7bd b8ef 8f3d 43df 5e3d a272 fc3c
00000100: 37fc edbc 1e79 23bd cffb 65bc 1c62 32bd
00000110: 78ee 173c bb63 c73c 6b96 afbc 6fc0 7bbd
00000120: bf45 353d 231a dcbd 2b0a 3ebd 471b 01bd
00000130: 721c c4bc f6de 1b3d 5983 1b3d a0e2 b4bb
00000140: a113 183d 51fd 593d 6174 1d3c bc46 ca3c
00000150: ecdd aabd 4606 cabc 54b3 b4bd f9eb 7bbd
00000160: ba14 4abd 257c 72bc 6297 67bd 33fb 6cbd
00000170: 37e6 abbd a08f 35bd 88a3 83bd 376a cebd
00000180: 312e 173b 50ed 1bbd 810d 6e3d e2e9 a83c
00000190: 3c35 503d d1d6 d9bd 7344 15bd 0a68 fbbc
000001a0: fdcb 0bbd 8457 8fbc 27a8 6a3c 41f6 5d3d
000001b0: a30f 43bd 0d01 57bd d942 a8bd 3b4c dcbc
000001c0: 4713 bbbd 68d6 bbbc b042 f33b 147b 053d
000001d0: 3ae3 d73c 9742 453d b5db 9dbd 4ad4 2bbd
000001e0: b6c4 bbbd 7bd6 613d 02e2 12be 4438 113e
000001f0: 225a 5b3d 2d06 15be 2b75 8fbc 560e 60bc
00000200: 5364 40bd 7a4e 81bd 7bdf 383d 24e1 bdbd
00000210: 4111 883d c668 d2bc 8cdc ed3c 4a17 3abd
00000220: ea15 b8bd 7dbb 47bd 654f 9ebd df87 f73d
00000230: fcd1 2abd 45fd 92bd 5ff2 37bd 4fdb 8b3c
00000240: fa28 56ba 5d37 71bd 71ea ee3d 3b91 c63c
00000250: d7a6 14bb 1f99 8dbd e34d d2bd a31c abbd
00000260: 8832 33bd 2b5b 22bd 85d7 04be 9805 db3d
00000270: d706 0b3b ffd3 743b cada cdbd 506d 80bd
00000280: 3377 1b3d a5f8 1f3c f540 8d3d 5660 a8bd
00000290: 896e 4cbd a0cc 593c f0c2 66bd 6d87 ddbb
000002a0: 1159 d3bc cd6a b23c 52a7 9dbd 201b 963d
000002b0: 48e0 86bd 46af 36bb 8102 92bd 65b6 8b3d
000002c0: 5de5 a7bd 90a3 af3d 233a 1a3d 64dc 233d
000002d0: 3288 52bd 163a 893d c6be 09be b038 e8bc
000002e0: 1b5c 64bc 209e 973b af85 01be 46a9 a9bd
000002f0: a120 c0bd f307 76bd 6d2a 95bd d4d1 3dbe
00000300: bc57 18be 9a93 2d3e 21b1 e93c a4b6 84bc
00000310: c5b6 863d 0296 193d 0849 873d a3fe 1d3d
00000320: 7452 3abd 0ff6 a6bd d3b3 e03c 3d95 b33d
00000330: 44a1 c2bc 5433 823d 6608 a3bd 0c3f 923a
00000340: cf2a 24bd dcff 18bd baf7 843d 7a05 7dbd
00000350: ba83 0a3d 1f63 253d 9a0f 52bd deae aebd
00000360: 9043 d9bb ea97 27bd 9883 a0bd 2646 403d
00000370: e461 463d 2d27 c93d 4954 df3d f395 9abd
00000380: aef2 a13d 9c51 8d3c df6a 913d 777b 863c
00000390: 73cf a6bd a70b 15bc fb50 7ebd ab1e bb3d
000003a0: 491f cd3d cff8 033d 4a48 4339 6322 07be
000003b0: 3c04 46bd 46f0 dbbd 5cf5 28bd 5fb0 eabc
000003c0: 8a47 8cbd 1041 773d 51d5 8abd df68 aabd
000003d0: 75b8 3bbe 2934 92bd 2651 15be c6f0 99bd
000003e0: bd8c 63bd 1d5f 9b3d a75b cabd 7379 e33d
000003f0: b83d 41bc 7d59 b0bd eb3e 0a3d 431a 9bbc
-0.078710616 0.07037126 0.0915353 -0.01850633 -0.009321891 -0.06976226 0.024807602 0.014979634
0.039882973 0.039813276 -0.029287905 -0.043415233 0.0064412314 -0.03836413 0.013958881 -0.0032663366
0.05460642 0.0753268 -0.027926335 -0.052118592 -0.059004195 0.023648294 -0.041563857 -0.07430895
0.045727458 0.026067419 0.034546204 -0.0018583473 -0.06533023 0.008402119 0.0779873 -0.031080864
0.03501872 -0.049111735 0.023218809 0.008873096 -0.07393048 -0.10535475 -0.08443255 0.021593753
-0.07600278 0.035361234 0.039887942 0.02996071 0.03449553 -0.06572814 0.07143796 0.06165367
0.011687053 -0.052211072 -0.111342 0.028734127 0.03324116 0.036157276 -0.014049827 -0.025452595
-0.06871432 -0.05399719 -0.073548 -0.039520405 -0.097231284 0.070281446 0.054412138 0.03081638
-0.02905093 -0.03991043 -0.014037087 -0.043550596 0.009273164 0.024339547 -0.02143403 -0.061462816
0.04425597 -0.10747173 -0.046396416 -0.031520154 -0.023939345 0.03805443 0.03796706 -0.00552018
0.037128095 0.053220097 0.009610266 0.024691932 -0.083431095 -0.024661195 -0.088232666 -0.061504338
-0.049336173 -0.014800106 -0.056540854 -0.05785675 -0.08393519 -0.044326425 -0.064276755 -0.100788526
0.0023068304 -0.038068116 0.058118347 0.020619337 0.05083202 -0.10636676 -0.03644223 -0.030689258
-0.034130085 -0.017497785 0.014322317 0.054189924 -0.047622334 -0.052491236 -0.08215875 -0.026891818
-0.09134536 -0.022929385 0.0074237213 0.03258808 0.026353467 0.04815921 -0.077079214 -0.0419505
-0.09168379 0.055136185 -0.14344028 0.1418162 0.053552754 -0.14553137 -0.017511925 -0.013675293
-0.046970677 -0.06313796 0.045135003 -0.09271458 0.06643916 -0.025684725 0.029035829 -0.045432366
-0.08988555 -0.048762787 -0.07729987 0.12086462 -0.041704163 -0.071772136 -0.044908877 0.017072348
-0.0008169558 -0.05889069 0.1166581 0.024239173 -0.0022682452 -0.06913971 -0.10268762 -0.083550714
-0.043749362 -0.039637726 -0.12972839 0.10694426 0.0021213794 0.0037357805 -0.10051496 -0.0627085
0.037955474 0.009763871 0.06897155 -0.082214996 -0.049910102 0.013293415 -0.05633825 -0.006760529
-0.025799306 0.021779442 -0.076979294 0.073293924 -0.06585747 -0.0027875467 -0.07129384 0.06821898
-0.081980444 0.08576119 0.0376531 0.040005103 -0.051399417 0.06700532 -0.1345168 -0.028347343
-0.013937975 0.0046270043 -0.12648652 -0.082842395 -0.093812235 -0.060066175 -0.07283483 -0.18537074
-0.14877218 0.16950837 0.028526844 -0.016200371 0.06577829 0.037496574 0.066057265 0.03857292
-0.04548879 -0.08152401 0.027429497 0.08768699 -0.023758538 0.06357446 -0.07960586 0.0011157705
-0.040079888 -0.03735338 0.064925626 -0.0617728 0.03381703 0.040377732 -0.05128441 -0.08529447
-0.0066303685 -0.04091636 -0.078375995 0.0469419 0.0484332 0.09821925 0.10904748 -0.07548132
0.079076156 0.017250828 0.07100462 0.016416295 -0.081450365 -0.009097016 -0.062088948 0.09136709
0.10015733 0.032219704 0.00018623579 -0.13196711 -0.048343882 -0.10739188 -0.041249618 -0.028648553
-0.068495825 0.060364783 -0.06778968 -0.08320784 -0.18332084 -0.07138855 -0.14581737 -0.07516627
-0.05555414 0.07586501 -0.098807625 0.11107149 -0.0117945 -0.086108185 0.03375141 -0.018933421

fc2.bias f4 [84]
00000000: aaaa 8bbd d5c4 b23d 9440 883d 0010 07bc
00000010: fa24 dd3d 36e2 eabc e95c 653e 48b8 a63e
00000020: 5dec b7bd b58a f8bd ed66 e23d 6912 f3bd
00000030: 88cb c7bd 1ef3 ea3e ef68 f43e ded5 ae3d
00000040: c77f 4b3e 7853 bd3e fdae 5f3e 89df 7f3b
00000050: 3518 583c 5056 ab3e fe32 d93e 803e 5abc
00000060: 0216 2dbd 464a 3c3e 21a4 adbd f73b a93e
00000070: 49c7 5d3e 3085 9fbd 1683 503e 6868 353e
00000080: c009 f7bb 5f54 773e 61e9 803d 2a57 293f
00000090: c38a 623e ec03 283e 04df 233c 8d69 463e
000000a0: fb6e 973e 8bf1 933c 2e2a b5bc 80e8 cb3e
000000b0: 3893 703d bf22 fcbc d04a b2bd 74a3 7dbd
000000c0: 3fad 1c3e fe7f 713e c81e 823e a4da 4e3e
000000d0: f78b 173e 6bf4 02bd f429 d43e 2a32 93bb
000000e0: 2b1c e33e 129f bb3c 6f12 713d c5a6 933e
000000f0: 8fa0 abbd 1478 523e 45d4 94bd 4863 903d
00000100: 60ce cd3c 885d a43d 4493 66bc 903d 063e
00000110: 972a 0e3c 6540 8ebd ccde 2dbd 957f 423d
00000120: 18cf cd3e 9f1b d23e a787 f4bc a5cf a9bd
00000130: 5515 143e 96b9 c33e f218 693d 2044 ae3c
00000140: a43b ca3d dd29 133e f006 8d3e 4b4e e53e
-0.06819661 0.08728949 0.06652942 -0.008243561 0.10798068 -0.028672319 0.22398724 0.3256247
-0.089806296 -0.12135831 0.11054788 -0.11868746 -0.097556174 0.4588861 0.47736308 0.08536886
0.19872962 0.36977744 0.21844096 0.003904315 0.013189365 0.3346429 0.42421716 -0.013320565
-0.042257316 0.18387708 -0.08478571 0.33053562 0.21658053 -0.077890754 0.20362505 0.17715609
-0.007539004 0.24153279 0.062945135 0.66148627 0.22123246 0.16407746 0.010001902 0.19376202
0.2957686 0.018059513 -0.02211484 0.3982582 0.05873415 -0.030778287 -0.087056756 -0.06192346
0.15300463 0.23583981 0.2541411 0.20200592 0.14799486 -0.031971376 0.41438258 -0.004492064
0.44357428 0.022903 0.05885547 0.28838173 -0.083802335 0.20553619 -0.0726705 0.070501864
0.025122821 0.08025652 -0.014073197 0.13109422 0.008677146 -0.06945876 -0.042448804 0.047484953
0.40197062 0.41036698 -0.02984984 -0.08291558 0.14461263 0.38227528 0.056908555 0.021272719
0.09874657 0.14371438 0.27544355 0.44786295

fc3.weight f4 [10, 84]
00000000: 87a1 9f3d 3f7f a2bc 3844 eb3d af48 2dbe
00000010: a940 b5bc 98b4 b43d 86e5 abbd cc3f 3bbd
00000020: f4ca cc3d 9ce8 223e daab 8b3e 3d67 263e
00000030: 7379 f5bd 197c c8be c1c3 4ebe 03a4 733e
00000040: a39a 5fbd 9f58 48be 85b7 433e ed8f e13c
00000050: 955d 443e 6ae3 16be 19a8 6cbd ae71 4bbd
00000060: cdd2 313e a30a 603e 27c2 c0bd 0d99 283e
00000070: 3339 1ebe 2032 773d 4f8e 81bd 562b 233d
00000080: ef80 14bc 1dfd 133e 1716 113e cd92 90be
00000090: 0a54 cbbc 8b7c 5a3d 6503 b33d 73cc 0d3e
000000a0: 95f2 ed3d 0b1a dd3d aa87 333e f1b3 153c
000000b0: ece7 62be c9d2 96bd 3453 d0bd 05f8 b5bd
000000c0: 20d7 04be 797d 843d acbc dabd 822d 35be
000000d0: bcbb ae3d fe10 763e 33fb fcbd 3b69 d43d
000000e0: 08d7 8b3e 7249 49bd 2684 febd b59b dd3d
000000f0: a541 ad3d ae48 18be 9275 473d 7ad8 39bd
00000100: be4b 503e 33cb 1ebe 12f6 223d 7838 0f3e
00000110: 5e1e cebc 98ef a7bd 0f44 113e b320 053e
00000120: 8f21 c43d f6e8 b6bc 35ef 3ebd 069d cfbd
00000130: b36b 4d3e 1e88 21be b020 513e a973 aa3d
00000140: fb4d 843d cc63 5ebe 93cd cebd 7462 8e3e
00000150: c890 1bbd 9e8e b23c 149e 2b3d c4f9 903d
00000160: b138 52bd d73c 01bd c5a9 ee3d db17 35be
00000170: c7c0 06be 5e17 fa3c 9042 133e 02cf e83d
00000180: e3c2 103e 83b3 74be 243b 20be c534 e6bd
00000190: d3e9 8b3e 55d5 d8bd 78d7 c1bd 655c 633d
000001a0: 3eea 073e 9b3a 6ebe 70dc 40be 9154 b73e
000001b0: bb49 ce3e 9b74 40be cfbd 263d bb37 96bd
000001c0: f138 e53d 65d6 02bd ca3f 00be 92c9 36be
000001d0: 1c17 3b3e 5cfb 273e 933b 05be 2ca6 5ebe
000001e0: e6d5 a2be 07a0 423e 8161 43bd cb50 1e3e
000001f0: 56e9 63be 6189 e7bd b89a 2a3d ff91 23be
00000200: 6301 1c3e c7be 3dbd 89eb dabd f3be 8abd
00000210: ab23 ecbd ac9a 75bd cc0e 8fbd e8cd f7bd
00000220: 5d52 c13c f926 17be 81fc e7be f0c9 8a3d
00000230: e0c1 533e 858a 9b3d a925 2f3e ae2e 793e
00000240: a672 55bc 6575 edbd 4c68 9e3d 52de 25be
00000250: 5140 36be 4c4f 9b3e 16c4 fb3d 9fd5 92be
00000260: c37d 9ebc 7e46 413e 8135 29bd adb3 b3bd
00000270: e689 86be 4cea a43d 49f2 9bbd 30da b6bd
00000280: b996 cdbd 7ae1 4ebe 870f f53d 0453 ad3b
00000290: 39c2 03bd cf02 333e 1ce5 863d a40c 81be
000002a0: 3bbd 81bd fc11 e4bd ef74 3bbe f0c1 04be
000002b0: 4e0a 08be fda4 6dbd e230 18be 6883 713d
000002c0: 266b b13d 12a9 16bd 5f8b e63d 9644 bdbd
000002d0: 3d4c 3ebe afa4 a5bb 1e97 28bd 8517 473d
000002e0: 2b9c 10be a93e 6b3e cd32 a2bd 74af 87bd
000002f0: 7dcd 87bd 926d c83d e5dd 403e 8129 bdbd
00000300: ad0b 7fbd 8eaf bbbd b66f 153e 7141 47be
00000310: 323c 963d 1376 c139 a223 3c3e 838e 19be
00000320: da75 d73d ebf6 c5bd 6e31 7ebc 1d51 1b3e
00000330: ad2a 15bc e9fa 6d3a f1bc 223e f9cc 5fbd
00000340: 13c1 74bd 3863 9c3d 41d2 a33c 8bef 323e
00000350: 16c1 943e e98f 1b3d f75f babd d34d 01be
00000360: 94e7 a53d 4c22 533d 781d 26be 4dcc 913d
00000370: 3bb7 3b3e ed1f 793e 64f3 383e 45e3 16bc
00000380: bb50 e03d 9105 5f3e e758 f1bb 9088 8cbd
00000390: daac 7a3d a491 2cbd 2b89 6b3c f5cb 443e
000003a0: 971d 123e 1dd3 e33d 03e1 13be 5d17 253e
000003b0: 74e7 323e a83a 61bd 992e 793d 3db3 213b
000003c0: 7bde 823e 8fbe 133e 4aad bebd 5e0b fd3c
000003d0: d1c0 753e a672 323e 8c9d 21bc b280 863e
000003e0: 11c6 623e 53e1 07be 6cfc 143d daed 9abd
000003f0: 9516 223d 979d 163e 0552 55be 5001 133c
0.07794481 -0.019836066 0.11487621 -0.16922258 -0.022125559 0.08823508 -0.083933875 -0.04571514
0.09999648 0.15909046 0.2727955 0.1625032 -0.11986055 -0.3915718 -0.20191862 0.23793034
-0.054590832 -0.19565056 0.19112976 0.02753445 0.19176324 -0.14735189 -0.057777498 -0.04966896
0.1736557 0.21879058 -0.094120316 0.16464634 -0.15451507 0.060350537 -0.06325971 0.03983625
-0.009063943 0.14452024 0.14168583 -0.28237 -0.024820346 0.05334143 0.08740882 0.13847522
0.116185345 0.10795983 0.1753222 0.00913714 -0.22158784 -0.07364423 -0.1017212 -0.088851966
-0.12972689 0.064692445 -0.106805176 -0.17693141 0.08531901 0.2402992 -0.123526 0.103716336
0.27312493 -0.04914231 -0.12427549 0.108207144 0.08459786 -0.14871475 0.04869611 -0.045372464
0.20341393 -0.15507202 0.039785452 0.13986385 -0.025160965 -0.08199996 0.14186119 0.13000755
0.09576713 -0.022327881 -0.046614844 -0.10137372 0.20060615 -0.15774581 0.20422626 0.08322842
0.06460186 -0.21717757 -0.10097804 0.2780949 -0.03797987 0.02179652 0.041898802 0.07078889
-0.051323596 -0.031552162 0.11653475 -0.17684881 -0.13159476 0.03052872 0.1438086 0.113676086
0.14136843 -0.23896603 -0.1564756 -0.11240534 0.2732683 -0.10587565 -0.094649255 0.055508036
0.1327295 -0.23264544 -0.1883409 0.35806707 0.40290627 -0.18794481 0.04070836 -0.073348485
0.11192501 -0.031942744 -0.12524334 -0.1785033 0.18270534 0.1640448 -0.13011007 -0.21743077
-0.31803817 0.19006358 -0.04770041 0.15460508 -0.2225698 -0.113055 0.041651458 -0.15973662
0.15234904 -0.046324518 -0.10689456 -0.06774702 -0.115302406 -0.05996196 -0.06985244 -0.120998204
0.023598844 -0.1476096 -0.45309833 0.06776798 0.20679426 0.0759478 0.1710421 0.24334213
-0.013027823 -0.11594657 0.07734737 -0.1619809 -0.17797972 0.30333936 0.1229326 -0.28678605
-0.019347077 0.18874547 -0.04131079 -0.08774505 -0.26277083 0.08052501 -0.076145716 -0.08928335
-0.10038514 -0.202032 0.11965852 0.0052894372 -0.032167647 0.1748154 0.06586668 -0.25204957
-0.06334921 -0.11136243 -0.18306325 -0.12964606 -0.13285181 -0.058018673 -0.14862397 0.05896321
0.08663015 -0.03678233 0.11257052 -0.09241597 -0.1858377 -0.005055032 -0.04115974 0.048606414
-0.14122073 0.22973122 -0.07919846 -0.06625262 -0.06630991 0.09786524 0.18834646 -0.09236432
-0.062266994 -0.09164344 0.14593396 -0.19458558 0.073357 0.000368998 0.18372968 -0.1499577
0.10520525 -0.096662365 -0.015514715 0.15167661 -0.009104413 0.0009078221 0.15892388 -0.054638837
-0.059754442 0.07636112 0.019997718 0.17474191 0.29053563 0.03797904 -0.09100335 -0.12627344
0.08100811 0.05154638 -0.16222179 0.071190454 0.18331616 0.24328585 0.18061596 -0.009209459
0.10952898 0.21779467 -0.0073653343 -0.06861985 0.0612 -0.04213108 0.014375965 0.19218428
0.142691 0.11124251 -0.14441304 0.16122194 0.17471105 -0.05498758 0.060835455 0.0024673485
0.25560364 0.14428161 -0.09310396 0.03088921 0.23999335 0.17426547 -0.009864222 0.26270062
0.22145869 -0.13269548 0.03637354 -0.07564898 0.039572317 0.14708553 -0.20832069 0.008972481

fc3.bias f4 [10]
00000000: af4c 71be 37da 1cbf 3a55 1dbd b953 ed3e
00000010: 801a 4b3f ec4a e7bb 7930 2a3d 5d8f 81be
00000020: 0245 913e b235 41be
-0.23564409 -0.6127047 -0.038411357 0.46352938 0.7933731 -0.007058492 0.041550133 -0.2530469
0.2837296 -0.1886814
