lab1-LeNet/model/1019171539.pth (torch, 250887 bytes, 10 tensors)

conv1.weight f4 [6, 3, 5, 5]
0	0xbe8bd0c0	-0.273077
1	0xbe6f546f	-0.23372053
2	0xbe5802ee	-0.21094868
3	0xbcafa6d7	-0.02144186
4	0xbe8b78e8	-0.27240682
5	0xbe463971	-0.1935785
6	0xbe882dba	-0.26597387
7	0xbdef69e7	-0.11690121
8	0xbd84309c	-0.06454584
9	0xbe0dc363	-0.13844065
10	0xbe0bb74f	-0.13644145
11	0xbe665b96	-0.22495875
12	0xbe7d652d	-0.24745627
13	0xbdbd69d9	-0.092487045
14	0xbe6eadcf	-0.2330849
15	0xbe124129	-0.14282669
16	0xbe7093cb	-0.23493879
17	0xbdc571ae	-0.09640823
18	0xbdfc5233	-0.12320366
19	0xbe09d6dd	-0.1346087
20	0xbe2355c6	-0.15950689
21	0xbe175609	-0.14778914
22	0xbe035563	-0.12825541
23	0xbe3ea295	-0.18616708
24	0xbe50d6cf	-0.20394443
25	0xbc0fa991	-0.008768455
26	0xbccbdd80	-0.024885893
27	0x3b873785	0.0041264915
28	0x3d56c940	0.05243802
29	0x3d9ce43d	0.076607205
30	0xbc9efb98	-0.019407079
31	0x3bb1cbe3	0.0054259165
32	0x3d96a443	0.07355549
33	0x3d993781	0.0748129
34	0xbd39a37d	-0.04532193
35	0xbb78c8d6	-0.0037961504
36	0x3e2d7513	0.16939192
37	0x3d4e0c89	0.050304923
38	0x3e0c5569	0.13704456
39	0x3e14faed	0.14548846
40	0x3c62a33c	0.013832863
41	0x3d884cbb	0.0665526
42	0x3ddba7b4	0.10725346
43	0x3ada138a	0.0016637903
44	0xbcda5267	-0.02665062
45	0xbe852d6c	-0.26011217
46	0xbcc58aaf	-0.024113981
47	0x3d2be242	0.041963823
48	0xbd13e2a9	-0.03610483
49	0xbd9aa8ff	-0.07551765
50	0x3e083fe2	0.1330562
51	0x3e8cb5f2	0.27482563
52	0x3e92e8bc	0.28693187
53	0x3dba3706	0.09092526
54	0x3e557114	0.20843917
55	0x3dc197d0	0.09452784
56	0x3ea71aa8	0.32637525
57	0x3e9ff0b3	0.31238326
58	0x3e59e16b	0.21277396
59	0x3e16f840	0.14743137
60	0x3ce5ca15	0.028050462
61	0x3ea37f48	0.31933045
62	0x3eb082cb	0.34474787
63	0x3eb15100	0.3463211
64	0x3e10844e	0.1411297
65	0xbb2e9b09	-0.00266427
66	0x3e202961	0.15640785
67	0x3e99b619	0.30021742
68	0x3e858ee7	0.26085588
69	0x3e00a430	0.12562633
70	0xbc28b2ee	-0.010296566
71	0x3e095f4b	0.13415258
72	0x3e428001	0.18994142
73	0x3e5e6f77	0.21722208
74	0x3dccb579	0.09995551
75	0xbe806512	-0.2507711
76	0xbe3ab7e4	-0.18234211
77	0xbe8a6b41	-0.27034953
78	0xbe0791ba	-0.13239184
79	0x3d0bc0be	0.03411936
80	0xbe37cfa0	-0.17950296
81	0xbde576d2	-0.11204304
82	0x3ca849ec	0.020543061
83	0x3da587d3	0.08082547
84	0x3df05edf	0.11736845
85	0xbcf62a7c	-0.030049555
86	0xbd1d1421	-0.038349275
87	0x3e07ea73	0.13273029
88	0x3e5527cc	0.20815963
89	0x3e7760a8	0.24157965
90	0x3e20ec6c	0.15715188
91	0x3da4d7b2	0.08048953
92	0x3e88ddf7	0.26731846
93	0x3e16623c	0.14685911
94	0x3d5f5f44	0.05453421
95	0x3e4d9306	0.20075616
96	0x3e7d1509	0.24715056
97	0x3e0155da	0.12630406
98	0x3e4cecef	0.20012258
99	0x3e4f59a4	0.20249039
100	0x3d1de413	0.038547587
101	0xbe304375	-0.17213233
102	0xbc23cd75	-0.009997715
103	0xbc08ef11	-0.008357779
104	0x3d7280fa	0.059205033
105	0xbe273cfd	-0.16331859
106	0xbdff3e10	-0.12463009
107	0x3d06335c	0.032763824
108	0xbd391005	-0.045181293
109	0x3e1ad076	0.15118584
110	0xbe02a046	-0.12756452
111	0x3d9ca2c7	0.07648235
112	0xbd252af6	-0.040324174
113	0xbd0d4ab3	-0.034495067
114	0xbc4d7f57	-0.012542567
115	0xbdfec2c9	-0.12439496
116	0xbd0f4ad7	-0.034983482
117	0xbc9a32c5	-0.018823037
118	0xbccb477a	-0.024814356
119	0x3c8867fa	0.016651142
120	0xbde18934	-0.110124975
121	0xbd4ce769	-0.050025377
122	0x3be923cf	0.0071148644
123	0xbda0b46c	-0.07846913
124	0xb9a23a37	-0.0003094242
125	0x3cb2fe7f	0.021849869
126	0x3d4fde82	0.05074931
127	0xbd9d504a	-0.076813295
128	0x3dbcba64	0.09215239
129	0x3e63f41c	0.22261089
130	0xbdbeb44a	-0.09311731
131	0xbd9f972b	-0.07792505
132	0xbca7878c	-0.020450376
133	0x3df92ffc	0.121673554
134	0x3de4f075	0.11178676
135	0xbc2de11c	-0.010612752
136	0x39831dd1	0.00025008482
137	0x3d268dec	0.04066269
138	0x3e3a32f4	0.181835
139	0x3e1c1af2	0.15244654
140	0xbdcf63d7	-0.10126465
141	0x3d96ae1a	0.07357426
142	0x3d0bd8c2	0.034142263
143	0x3e2d6c2e	0.16935799
144	0x3e2a29fb	0.16617577
145	0x3caca5dd	0.021075184
146	0xbe0a2aa4	-0.13492829
147	0xbd5e41ed	-0.05426209
148	0xbda3bf23	-0.07995441
149	0xbc84f231	-0.016228767
150	0x3d989c06	0.07451634
151	0x3ce75926	0.028240751
152	0x3e06fd69	0.13182606
153	0x3ddf0b08	0.10890776
154	0xbe05a720	-0.13052034
155	0xbebf1931	-0.37323907
156	0xbed9e868	-0.42560124
157	0xbee7a5a2	-0.45243555
158	0xbed2486f	-0.41070887
159	0xbec5cfe1	-0.38635162
160	0xbeb77b1a	-0.35836107
161	0xbecbc5ab	-0.39799246
162	0xbe8332ff	-0.25624844
163	0xbe623d02	-0.22093585
164	0xbe486f64	-0.19573742
165	0x3e43c25d	0.19117112
166	0x3daa4e35	0.08315698
167	0x3e222464	0.15834194
168	0x3e1f9380	0.1558361
169	0x3d94d079	0.072663255
170	0x3e8778ba	0.26459295
171	0x3e80b9e3	0.2514182
172	0x3e3c70d1	0.18402411
173	0x3e836656	0.25664014
174	0x3e2f199b	0.17099611
175	0x3e75968b	0.23983209
176	0x3ed8018b	0.42188677
177	0x3e803c77	0.2504613
178	0x3eb5ba1b	0.3549355
179	0x3e4a6313	0.19764356
180	0xbe28e420	-0.16493273
181	0xbe194f43	-0.14971642
182	0xbe681d6b	-0.22667472
183	0xbe1b676c	-0.15176171
184	0xbe575d71	-0.21031739
185	0xbe2cc939	-0.16873635
186	0xbe5ef180	-0.21771812
187	0xbe7659aa	-0.24057642
188	0xbddfded1	-0.10931171
189	0xbe030b0d	-0.12797184
190	0x3d3e2084	0.046417728
191	0x3e8f597e	0.27997965
192	0x3e25f693	0.16207342
193	0x3e0d5fd3	0.13806085
194	0x3e4f2b7d	0.20231433
195	0x3dccc88a	0.09999187
196	0x3cae59bd	0.021283025
197	0x3dc05aa3	0.093922876
198	0x3b8a1692	0.0042141164
199	0xbd8ffbfc	-0.07030484
200	0x3e5003ca	0.20313945
201	0x3eab457d	0.33451453
202	0x3ebc1a1f	0.3673868
203	0x3e715531	0.23567654
204	0x3e7f18c4	0.24911791
205	0xbdffcb4f	-0.1248995
206	0xbd9a8e31	-0.07546652
207	0xbd9b72c9	-0.07590253
208	0xbe146387	-0.14491092
209	0x3a80e44f	0.0009833666
210	0xbd148350	-0.03625804
211	0xbe3149f3	-0.17313366
212	0xbe88d36a	-0.26723796
213	0xbdd50829	-0.10401947
214	0xbd3b76c7	-0.04576757
215	0x3de35110	0.11099446
216	0x3e0faa1d	0.14029737
217	0x3e1ab1f0	0.1510694
218	0xbc5a43e4	-0.01332185
219	0x3db88561	0.09009815
220	0xbe0b2ad6	-0.1359056
221	0xbd4b362b	-0.049612205
222	0xbd653ac4	-0.055964246
223	0xbdc41724	-0.09574726
224	0xbd875479	-0.06607909
225	0x3ebca792	0.36846596
226	0x3ebbfc47	0.3671591
227	0x3f1045a0	0.5635624
228	0x3edb296e	0.42805046
229	0x3ee440bc	0.44580638
230	0x3eb7a248	0.35865998
231	0x3eb85fc3	0.3601056
232	0x3e9bddac	0.3044256
233	0x3edcd777	0.43133137
234	0x3e87022e	0.2636885
235	0x3dea5597	0.11442106
236	0xbe34cc60	-0.17656088
237	0xbe39c12b	-0.18140094
238	0xbe4ed042	-0.20196632
239	0xbd8d9376	-0.069128916
240	0xbeac6d00	-0.3367691
241	0xbebd0601	-0.36918643
242	0xbec681b7	-0.3877084
243	0xbe3cf193	-0.18451528
244	0xbe9d6191	-0.307385
245	0xbe9f1bef	-0.31076
246	0xbe2d1c5e	-0.16905352
247	0xbde1f3a7	-0.11032801
248	0xbe2ea6ef	-0.17055868
249	0xbe48b085	-0.19598587
250	0xbe8086bd	-0.25102797
251	0x3d68f728	0.05687633
252	0x3cef173d	0.029185886
253	0x3e1cc300	0.15308762
254	0x3d72e66b	0.059301775
255	0xbdb93e9a	-0.090451434

conv1.bias f4 [6]
0	0x3f01ccde	0.5070323
1	0x3cdb87d2	0.026798163
2	0xbe607b1e	-0.21921965
3	0xbeef82bd	-0.46779433
4	0xbe364f7e	-0.17803761
5	0x3e1e8c34	0.15483171

conv2.weight f4 [16, 6, 5, 5]
0	0x3c85cb77	0.016332371
1	0x3dd63844	0.104599506
2	0xbd1922bd	-0.037386645
3	0x3dfe86a5	0.12428025
4	0xbd13d1b8	-0.036088675
5	0x3cadfcd4	0.021238722
6	0x3d4ccbbc	0.049998984
7	0xbcf44673	-0.029818749
8	0xbb62a6d0	-0.0034584291
9	0xbb3a3c0a	-0.0028417134
10	0xbd131806	-0.035911582
11	0x3db70c82	0.089379326
12	0xbd750cd2	-0.05982668
13	0xbcf95ee6	-0.030440759
14	0x3b345101	0.0027514102
15	0xbdfa1e8c	-0.122128576
16	0xbd420e4f	-0.047376927
17	0xbdb750d7	-0.08950966
18	0xbddc94f8	-0.10770601
19	0xbda66c03	-0.0812607
20	0xbe1639d0	-0.14670491
21	0xbe3ff44c	-0.18745536
22	0xbd25c451	-0.040470425
23	0xbddc597f	-0.107592575
24	0xbdb2afc2	-0.087249294
25	0xbd4a7f02	-0.04943753
26	0xbdb3a84c	-0.087723345
27	0xbc63aa4d	-0.013895583
28	0xbd3d7f42	-0.04626394
29	0x3d2a195f	0.041528102
30	0xbd4357be	-0.0476911
31	0xbcedd843	-0.029033786
32	0x3a17f1c7	0.00057962205
33	0xbc06b07a	-0.008220786
34	0x3d2c0f38	0.0420067
35	0xbda5f636	-0.08103602
36	0xbd4fb1ca	-0.050706662
37	0xbe02dc93	-0.12779455
38	0x3d8a00a8	0.067384064
39	0xbbb43bf5	-0.0055003115
40	0xbc825ad5	-0.015912453
41	0x3d2c09b1	0.04200143
42	0xbdb71d29	-0.08941109
43	0xbd0b0cdb	-0.033947807
44	0xbbcf1ed8	-0.0063208155
45	0xbd37e96c	-0.044900343
46	0x3cc83ee7	0.024444057
47	0xbd34ad9e	-0.044110887
48	0x3c783b69	0.015150883
49	0x3d50f3cc	0.051013753
50	0x3d27dad5	0.04098018
51	0xbc3d30d2	-0.011547284
52	0x3cca3dcc	0.02468767
53	0x3cbc5f3d	0.022994632
54	0x3ca66d33	0.020315742
55	0x3d2960a4	0.04135193
56	0x3cff4632	0.031161401
57	0xbc231b51	-0.009955243
58	0xbd1f98c3	-0.038964044
59	0xbb20758a	-0.0024484121
60	0x3c4a4b9f	0.012347131
61	0x397d5443	0.0002415935
62	0x3d1e04c8	0.03857878
63	0xbcd6c6bf	-0.026217816
64	0x3ce1ff37	0.027587516
65	0x3c13ae3c	0.009013709
66	0xbc7b4857	-0.015337071
67	0x3d63e3fb	0.05563734
68	0xbdac7a14	-0.08421722
69	0xbb0703c0	-0.00206016
70	0xba9749f0	-0.0011542421
71	0x3ccf7206	0.025322925
72	0xbc652101	-0.0139849195
73	0x3c971a11	0.018445047
74	0xbd97f729	-0.07420189
75	0x3c675cdd	0.014121261
76	0x3d4d5e91	0.050139014
77	0x3da2c76e	0.079481944
78	0x3daca1f0	0.084293246
79	0x3e00d987	0.1258298
80	0xbe250668	-0.16115725
81	0xbdf76d92	-0.12081446
82	0xbdfebaeb	-0.124379955
83	0xbd1974a1	-0.03746474
84	0xbda2c508	-0.07947737
85	0xbd7e3f89	-0.06207231
86	0xbbb11337	-0.005403902
87	0xbde99c63	-0.114067815
88	0xbc990444	-0.018678792
89	0x3c282a1a	0.010263944
90	0x3dbb206c	0.09137043
91	0xbd4ffb96	-0.05077704
92	0x3d559ec3	0.05215336
93	0x3c61bdeb	0.01377819
94	0x3da49c91	0.08037675
95	0x3b9c0cf9	0.0047622886
96	0xbdec5b70	-0.11540878
97	0xbdfd5cad	-0.12371192
98	0xbc641098	-0.013919972
99	0xbd6ca562	-0.05777491
100	0x3e1dd603	0.1541367
101	0xbd82a83a	-0.06379743
102	0xbd42bfa7	-0.047546055
103	0x3e8842ce	0.26613468
104	0xbd68a7ae	-0.056800537
105	0x3d401c41	0.046901945
106	0xbd51eec8	-0.05125311
107	0xbe57b62a	-0.21065584
108	0x3e765c47	0.24058639
109	0xbe822824	-0.2542125
110	0xbd17ed79	-0.037091706
111	0xbde0bd67	-0.10973626
112	0xbe3d84b6	-0.18507656
113	0x3e2440f7	0.16040407
114	0xbe6e6400	-0.23280334
115	0xbd95c3d3	-0.07312741
116	0xbdcc801e	-0.09985374
117	0xbe48b48c	-0.19600123
118	0x3e0e35c9	0.13887705
119	0xbdc04045	-0.093872584
120	0xbe484bb8	-0.19560134
121	0xbe4894b1	-0.19587971
122	0xbe69223b	-0.22766964
123	0x3d12f94d	0.035882283
124	0xbe250f7c	-0.16119188
125	0x3e2033e3	0.15644793
126	0x3e193a84	0.14963728
127	0xbdcc5cf1	-0.09978665
128	0x3d58d4aa	0.052937187
129	0xbdfa4b63	-0.1222141
130	0x3e0256e5	0.1272846
131	0x3e705848	0.23471177
132	0xbdf300fd	-0.11865423
133	0x3e4c3c3c	0.19944853
134	0xbc604a82	-0.013689639
135	0x3de139ce	0.109973535
136	0x3e291e09	0.16515364
137	0xbdfd82fb	-0.12378498
138	0x3e14b7f1	0.14523293
139	0xbd70d358	-0.058795303
140	0x3d431f42	0.04763723
141	0x3d733cf4	0.0593843
142	0xbc8692dd	-0.016427452
143	0x3d7308c0	0.059334517
144	0xbd4fe72e	-0.05075758
145	0x3daaa263	0.08331754
146	0x3d738c1a	0.059459783
147	0xbc35028e	-0.011047972
148	0x3cc85218	0.024453208
149	0xbd181c13	-0.03713615
150	0xbe60f0a2	-0.21966794
151	0xbe88ff88	-0.26757455
152	0xbe6cddb4	-0.23131448
153	0xbddaf733	-0.10691681
154	0xbd1af58a	-0.03783182
155	0xbcce1548	-0.025156632
156	0xbe5829ed	-0.21109743
157	0xbdfd2104	-0.12359813
158	0xbc48867e	-0.012239097
159	0x3dc911d7	0.09817856
160	0xbcafcaf4	-0.02145908
161	0xbdd68ab1	-0.10475672
162	0xbda97def	-0.08275973
163	0x3bbca94e	0.0057574874
164	0xbc8a20e7	-0.016861392
165	0xbccc3e06	-0.024931919
166	0xbdd1cca4	-0.1024411
167	0xb9a31b00	-0.000311099
168	0xbdb8b2d7	-0.09018486
169	0x39bb0624	0.00035671995
170	0xbddd8951	-0.10817207
171	0xbde0a225	-0.109684266
172	0xbdd2dac9	-0.10295636
173	0xbc2c14b4	-0.010502983
174	0xbe167923	-0.14694647
175	0xbd2d940e	-0.042377524
176	0xbd960659	-0.073254295
177	0x3e21f8c8	0.15817559
178	0x3e5c49e9	0.2151257
179	0x3df748b4	0.12074414
180	0xbe066d2c	-0.13127583
181	0x3dbcaffc	0.09213254
182	0x3dedd377	0.11612599
183	0x3e1e54d5	0.15462048
184	0x3d040e2d	0.03224008
185	0x3d86a473	0.06574335
186	0x3da15374	0.078772455
187	0xbdb78b5c	-0.089621276
188	0xbd0fc5b4	-0.035100654
189	0x3da423f2	0.080146685
190	0xbd658a01	-0.056039814
191	0xbdb8cff1	-0.09024037
192	0xbbb6b526	-0.005575794
193	0xbd9f83cf	-0.07788812
194	0x3d0d6d6e	0.03452819
195	0xbca5713a	-0.020195592
196	0xbdd8828d	-0.105717756
197	0xbc081c76	-0.008307567
198	0x3cdcc27e	0.02694821
199	0x3d97001f	0.0737307
200	0xbdbfd46b	-0.093666874
201	0xbdf71151	-0.1206385
202	0xbe0f4ef8	-0.13994968
203	0xbde14096	-0.10998647
204	0xbe4d8c79	-0.20073117
205	0xbdbc4847	-0.09193473
206	0xbda30825	-0.07960538
207	0xbe043ba9	-0.12913384
208	0xbdf547cc	-0.11976585
209	0xbe3bc7db	-0.18337958
210	0x3b578e68	0.0032891277
211	0xbde1feb8	-0.11034912
212	0xbe0ea0b0	-0.13928485
213	0xbe0b28a7	-0.13589726
214	0xbd652405	-0.055942554
215	0xbddc3c28	-0.107536614
216	0xbd6d72be	-0.057970755
217	0xbd9aa8c8	-0.07551724
218	0xbd6f2d3d	-0.058392752
219	0x3ce0af2c	0.027427278
220	0xbda31801	-0.07963563
221	0xbe3c8342	-0.18409446
222	0xbe0aef96	-0.13567957
223	0x3c794f12	0.015216606
224	0xbd86bb1e	-0.065786585
225	0xbd1d27ff	-0.03836822
226	0xbd6c362d	-0.057668854
227	0xbcf0b34e	-0.029382374
228	0x3d4b860c	0.049688384
229	0xbd8a4945	-0.06752256
230	0xbcdb41eb	-0.02676483
231	0xbdffe725	-0.12495259
232	0xbe46353e	-0.19356248
233	0xbce56138	-0.02800046
234	0x3d891689	0.06693751
235	0xbe6df17a	-0.23236647
236	0xbe293a0d	-0.16526051
237	0xbd645499	-0.05574474
238	0x3de69f19	0.11260814
239	0x3dee3154	0.11630502
240	0xbe488369	-0.19581379
241	0xbe4a1439	-0.19734277
242	0xbdbfc6d7	-0.093640976
243	0xbc91e70f	-0.017810373
244	0x3d61085c	0.054939613
245	0xbe1d469d	-0.15358968
246	0xbe0971cb	-0.13422315
247	0xbe221828	-0.15829527
248	0xbe25941b	-0.16169779
249	0xbb92c375	-0.0044788667
250	0xbd045b45	-0.032313604
251	0x3ded9f55	0.11602656
252	0x3d9b7b6a	0.07591899
253	0xbc234bbf	-0.00996679
254	0xbcfe5dfa	-0.03105067
255	0x3d7ef193	0.062242102

conv2.bias f4 [16]
0	0xbe92e152	-0.2868753
1	0x3f52f84e	0.8241013
2	0x3cf9aad7	0.03047697
3	0xbcc55692	-0.024089132
4	0x3ece33ea	0.40273982
5	0xbbea4e84	-0.007150473
6	0xbc57b53e	-0.01316577
7	0x3c54ae4e	0.012981011
8	0xbe96e5f0	-0.29472303
9	0xbdd938e2	-0.10606553
10	0x3ded74a9	0.11594517
11	0xbd2f1beb	-0.042751234
12	0xbf025968	-0.50917673
13	0xbf191962	-0.59804356
14	0xbd9d7c25	-0.07689694
15	0x3f43a99b	0.7643067

fc1.weight f4 [120, 400]
0	0xbd5f2b27	-0.054484513
1	0x3b2852d8	0.0025684144
2	0xbd3c1adf	-0.045924064
3	0xbd923b60	-0.07140231
4	0x3c997316	0.018731635
5	0x3d3bfdfa	0.045896508
6	0xbd446408	-0.04794696
7	0xbcce7082	-0.025200132
8	0xbc821188	-0.0158775
9	0xbd87b06e	-0.06625448
10	0x3d9e687c	0.077347726
11	0x3d04897c	0.032357678
12	0xbd2c377d	-0.042045105
13	0x3cb3cf68	0.021949485
14	0xba81ea06	-0.0009911663
15	0xbad3b146	-0.0016150854
16	0xbbf2e6fe	-0.0074127903
17	0x3cd8abf3	0.02644918
18	0x3c5361e6	0.012901759
19	0x3d09176e	0.03346961
20	0xbd27a0b1	-0.04092473
21	0x3d914e6a	0.070950344
22	0x3c6a5067	0.014301396
23	0xbcafe799	-0.021472739
24	0x3d648598	0.055791467
25	0xbd68f276	-0.056871854
26	0xbdaefddb	-0.08544513
27	0xbc3d4017	-0.011550925
28	0xbda2f6d0	-0.07957232
29	0x3b865820	0.004099861
30	0xbc9f4716	-0.019443076
31	0x3cd12b23	0.025533265
32	0xbd03a2d3	-0.032137703
33	0xbc3a04a4	-0.0113536455
34	0x3cad619b	0.021164706
35	0x3c9bec57	0.019033594
36	0x3cd94493	0.026521957
37	0x3d55dd08	0.052212745
38	0xbc9d11bc	-0.019173495
39	0x3da63fd3	0.08117642
40	0x3cec1d70	0.02882263
41	0x3d2a80a0	0.041626573
42	0x3d77cabd	0.06049608
43	0x3d7ad724	0.06124033
44	0x3d8d1444	0.06888631
45	0x3d00d437	0.031452384
46	0x3dde314f	0.108492486
47	0x3e18b0e8	0.14911234
48	0x3d202b66	0.039103888
49	0x3bb6a5b9	0.005573955
50	0xbd8569ca	-0.06514318
51	0x3b4f3f6f	0.0031623503
52	0x3b5361d7	0.0032254362
53	0xbd037f1c	-0.032103643
54	0xbda7430e	-0.081670865
55	0xbd4acec9	-0.049513612
56	0xbd4a126b	-0.04933397
57	0x3a512c89	0.00079793535
58	0x3ca697f4	0.020336129
59	0xbd8499b2	-0.064746276
60	0xbb88d350	-0.004175581
61	0x3b840fd2	0.0040302062
62	0xba12a234	-0.0005593628
63	0x3da0c46f	0.07849967
64	0xbd00962d	-0.03139322
65	0x3cc93ba0	0.024564564
66	0x3daa4ef0	0.083158374
67	0x3ce3cbee	0.027807202
68	0x3ce0de6b	0.027449807
69	0xbb13eba6	-0.0022570877
70	0xbc6f94f2	-0.014622914
71	0x3c16bd99	0.009200477
72	0x3bbec490	0.005821772
73	0xbd33a7ea	-0.043861307
74	0x3cb8989f	0.022533713
75	0xbd0cc72a	-0.034369625
76	0xbd0fd9e1	-0.035119895
77	0x3d49932c	0.04921262
78	0x3d1d3c64	0.03838767
79	0xbd4786a0	-0.048712373
80	0x3b24c959	0.0025144427
81	0xbd0c5a9a	-0.034266092
82	0x3c1fca0b	0.009752761
83	0xbd047707	-0.032340076
84	0xbba112f0	-0.0049155876
85	0xbc37a2e8	-0.0112082735
86	0x3d0cc252	0.034365006
87	0x3bf80bef	0.007569782
88	0x3d811b21	0.063040026
89	0x3bb301ef	0.005462877
90	0xbd2f27d8	-0.042762607
91	0xbc125ed0	-0.008933738
92	0x3d3856a9	0.04500452
93	0x3d2a0b2f	0.04151457
94	0x3ab047e5	0.0013449161
95	0xbbbe5e29	-0.0058095646
96	0xbb93cadb	-0.0045102662
97	0x3d011fad	0.03152435
98	0x3dc8b12e	0.09799419
99	0x3c969d51	0.018385561
100	0xbd2bac21	-0.0419122
101	0xbd83cd99	-0.06435699
102	0xbb9863c2	-0.004650564
103	0xbc7794a3	-0.015111121
104	0xbc1d0689	-0.009584078
105	0x3ae0045d	0.0017091144
106	0x3c953c55	0.018217245
107	0xbafcd390	-0.0019289125
108	0xbd267240	-0.0406363
109	0xbd19ad13	-0.037518572
110	0x3b1224e6	0.0022299825
111	0x3b34348c	0.002749714
112	0xbd6ccf3e	-0.05781483
113	0xbd1984aa	-0.037480034
114	0x3c60d38d	0.013722313
115	0x3d664dd5	0.05622657
116	0x3b5afcaa	0.003341476
117	0xbca74a80	-0.020421267
118	0xbb892d23	-0.004186289
119	0xbce494da	-0.02790301
120	0x3c7887e6	0.015169119
121	0x3ce5f344	0.0280701
122	0xbcf3f64c	-0.02978053
123	0xbc62dddc	-0.013846841
124	0xbca5ff2e	-0.02026328
125	0xbd99f920	-0.0751822
126	0xbd2ebb5e	-0.042659156
127	0xbc8002c0	-0.015626311
128	0x3d9d501b	0.076812945
129	0x3becdf82	0.0072287926
130	0xbcbee9f7	-0.023304923
131	0x3d0d2c48	0.034466058
132	0x3d9c80e1	0.07641769
133	0x3c02b944	0.007978741
134	0xbbc28991	-0.0059368093
135	0x3be8c81b	0.0071039326
136	0x3d0d4871	0.034492914
137	0xbd147173	-0.036241006
138	0x3ca3d938	0.020001039
139	0xbd09eb2f	-0.033671554
140	0x3c99d402	0.018777851
141	0x3d1eac91	0.03873879
142	0xbd79418f	-0.060853537
143	0xbc804ded	-0.015662158
144	0x3c097ff9	0.008392327
145	0xbda61da4	-0.08111122
146	0xbd5f0f8a	-0.05445818
147	0xbcf4c505	-0.029879102
148	0xbd5b9c2a	-0.053615727
149	0xbd4cfc89	-0.050045524
150	0xbc577816	-0.013151189
151	0x3d5b678d	0.05356555
152	0x3d1c37f0	0.038139284
153	0xbcf00143	-0.029297477
154	0xbd7da338	-0.061923236
155	0x3ae29599	0.0017287015
156	0xbd1c3fa2	-0.038146622
157	0x3c1a933b	0.009434517
158	0xbd2c4fa4	-0.04206814
159	0xbdc1d376	-0.09464161
160	0xbce49f28	-0.027907923
161	0xbd689c50	-0.056789696
162	0x3d06bef5	0.032896955
163	0x3c19808f	0.00936903
164	0xbda6e264	-0.08148649
165	0xbd3a8bb2	-0.04554338
166	0x3c27f99d	0.010252384
167	0x3c227e78	0.009917848
168	0x3c89b08e	0.01680782
169	0xbd190ca4	-0.03736557
170	0xbd9a98bd	-0.07548664
171	0xbd3d7f3d	-0.046263922
172	0xbcf4e668	-0.029895023
173	0x3c5cde17	0.013480685
174	0xbdc1e640	-0.09467745
175	0xbc34cb09	-0.0110347355
176	0x3d464b38	0.048411578
177	0xbd30bc40	-0.04314828
178	0x3d40a2c3	0.04703022
179	0x3c3998e6	0.011327958
180	0x3d6506d2	0.055914707
181	0x3d1ac7cb	0.037788194
182	0xbc665279	-0.014057749
183	0xbd0012d4	-0.031267956
184	0xbd4fdd9a	-0.050748445
185	0xbc8ab8f3	-0.016933894
186	0x3d0eff9d	0.03491174
187	0x3d8117bf	0.06303357
188	0xbc1f6dd5	-0.009730776
189	0xbd719cdf	-0.058987495
190	0x3b202148	0.00244339
191	0x3d297b47	0.041377332
192	0x3ceede0f	0.02915862
193	0xbc320048	-0.010864325
194	0xbcd41570	-0.025889128
195	0xbd8e90f2	-0.0696124
196	0xbdb15d9a	-0.08660431
197	0xbc542b70	-0.012949809
198	0xbd7df460	-0.062000632
199	0xbd760e36	-0.060072146
200	0x3cdd0d2a	0.026983816
201	0xbd5301b3	-0.051515292
202	0x3d2da389	0.042392287
203	0x3ca6cd50	0.020361573
204	0xbc83cf11	-0.016089948
205	0x3c8dd374	0.017312743
206	0x3cdae768	0.026721671
207	0x3d226b6a	0.03965322
208	0x3c2e1c10	0.010626808
209	0xbd83b6a6	-0.06431322
210	0xbda03a02	-0.07823564
211	0xbca7e799	-0.020496177
212	0x3d3f899e	0.0467621
213	0x3d14901e	0.036270253
214	0xbce7e144	-0.028305657
215	0xbd149903	-0.036278736
216	0xbcaba475	-0.020952443
217	0x3c00a6aa	0.007852236
218	0x3d2b5766	0.041831397
219	0x3c9c152d	0.019053066
220	0xbdbd8695	-0.09254185
221	0xbd63f79e	-0.055656068
222	0x3d16569b	0.036703687
223	0x3ba21d86	0.004947367
224	0xbca79de6	-0.020461034
225	0x3c947076	0.018120032
226	0x3d63f858	0.05565676
227	0xbc70843c	-0.014679965
228	0x3d30fa17	0.043207254
229	0x3c5f650e	0.013634933
230	0x3c52a0d6	0.012855729
231	0x3d1bc670	0.03803104
232	0x3d1da894	0.038490847
233	0x3bd38ba7	0.006455857
234	0x3b37bb76	0.002803532
235	0x3cf9b64e	0.030482437
236	0xbc334bba	-0.010943348
237	0x3d6e159b	0.058126073
238	0x3d361bed	0.044460226
239	0xbad1c5fb	-0.0016004437
240	0x3d2a4bd8	0.041576236
241	0xbc5cc992	-0.0134757925
242	0x3bd0e916	0.0063754423
243	0x3d331db2	0.04372949
244	0x3c6f1b00	0.01459384
245	0x3d8b8491	0.068123944
246	0x3ce012a7	0.027352644
247	0x3b715b50	0.0036828108
248	0xbd0c6815	-0.034278948
249	0x3aaafc84	0.0013045226
250	0xbcb04523	-0.021517342
251	0x3c4e58ba	0.012594396
252	0x3c51b8c2	0.012800397
253	0x3d1d93d4	0.038471058
254	0x3d104b00	0.035227776
255	0x3de2f721	0.11082292

fc1.bias f4 [120]
0	0x3c50fc7f	0.012755512
1	0x3c98d29a	0.01865511
2	0x3db282df	0.08716368
3	0x3c2634df	0.010144441
4	0x3c31ac00	0.010844231
5	0x3e358383	0.17725949
6	0x3cef90ea	0.029243905
7	0x3d4cf252	0.050035782
8	0x3d8e618e	0.06952201
9	0xbdf9f5f8	-0.12205118
10	0x3e4e6549	0.20155825
11	0xbcd9a4af	-0.026567785
12	0x3d9ecb33	0.07753601
13	0xbd27024f	-0.040773686
14	0xbdf58d49	-0.11989839
15	0xbd9d17b4	-0.07670537
16	0x3d96c882	0.073624626
17	0x3d6d0dc6	0.057874463
18	0xbca0f0b8	-0.019646034
19	0x3dffe2e0	0.12494445
20	0x3df0174c	0.117231935
21	0x3c669274	0.014073003
22	0x3c1aa60f	0.0094390055
23	0x3dd98c0c	0.10622415
24	0x3cc3b332	0.023889158
25	0xbdf684c9	-0.120370455
26	0x3cdeffbf	0.027221559
27	0x3c51844e	0.012787892
28	0x3e2ce522	0.16884282
29	0xbd6cd547	-0.057820585
30	0xbe5c9314	-0.21540481
31	0x3de511e3	0.11185052
32	0x3b8980bc	0.0041962545
33	0x3dec5e25	0.11541394
34	0x3d40a0b3	0.047028255
35	0x3d098c17	0.033580866
36	0x3cbf5dbb	0.023360124
37	0xbd5325ed	-0.05154984
38	0x3d0b9882	0.03408099
39	0x3cde4220	0.02713114
40	0x3e0e3c72	0.13890246
41	0xbd4dbf9f	-0.050231572
42	0x3e923979	0.28559473
43	0xbd059c8a	-0.03261999
44	0x3c5be559	0.01342138
45	0x3d19dfb2	0.037566848
46	0x3dbf596a	0.09343226
47	0xbcf49fe2	-0.029861394
48	0xbcd36ceb	-0.025808772
49	0xbd217b82	-0.039424427
50	0x3ca7b0fa	0.020470131
51	0x3e063871	0.13107468
52	0xbd3be908	-0.045876533
53	0xbcb24a50	-0.02176395
54	0xbd1778f6	-0.03698059
55	0xbdb37ec5	-0.08764414
56	0xbd2b4104	-0.04181005
57	0xbb8edaef	-0.004359595
58	0x3c8e91cf	0.017403511
59	0x3d3d2ffb	0.046188336
60	0x3c5eff6c	0.013610702
61	0x3c6a4405	0.014298444
62	0x3dc17a30	0.094471335
63	0xbb2cee9d	-0.0026387342
64	0xbc01757a	-0.007901544
65	0x3cd51bfa	0.026014317
66	0x3d881fa3	0.06646659
67	0xbc479907	-0.012182481
68	0x3e03e48c	0.12880152
69	0xbc9ce00b	-0.0191498
70	0xbdd4fac4	-0.10399392
71	0x3e3b8c6c	0.18315285
72	0x3da53667	0.08067017
73	0x3d6c6d53	0.057721447
74	0xbdfa7c1b	-0.122307025
75	0x3b564fb0	0.0032701306
76	0x3d770418	0.06030664
77	0x3bec1877	0.007205065
78	0xbda6e5a9	-0.08149273
79	0x3e37f7f5	0.17965682
80	0x3cf100ad	0.029419268
81	0x3e689e0d	0.22716542
82	0xbce22c4e	-0.027609017
83	0x3c9d1fec	0.01918026
84	0xbd0e51f2	-0.034746118
85	0xbcfd274c	-0.030902527
86	0xbd083332	-0.03325195
87	0x3c5dd762	0.013540121
88	0x3cc57f62	0.024108592
89	0x3d0b5b5d	0.034022678
90	0x3cdaa942	0.026692037
91	0x3e227ab3	0.15867119
92	0x3d71a623	0.05899633
93	0x3d1b1baa	0.03786818
94	0xbde36de7	-0.111049466
95	0x3da2d2e5	0.07950381
96	0x3d21c150	0.039490998
97	0xbc8e57af	-0.017375795
98	0xbd0138eb	-0.03154842
99	0x3cad8ef7	0.021186335
100	0xbda49cf9	-0.08037753
101	0xbc08f240	-0.008358538
102	0x3c99db23	0.01878125
103	0xbcc53e20	-0.024077475
104	0x3d269768	0.040671736
105	0xbcbd14e3	-0.023081249
106	0x3d9032c6	0.07040934
107	0xbd196a3d	-0.037454832
108	0x3bf40451	0.0074468036
109	0xbd4991cc	-0.04921131
110	0xbbc5f8ed	-0.006041637
111	0x3db88151	0.0900904
112	0xbd25c6fe	-0.040472977
113	0xbd25886f	-0.040413316
114	0xbe1c6dbf	-0.1527624
115	0xbd2ccb57	-0.042186107
116	0xbd8b320e	-0.067966565
117	0x3d788d94	0.060681894
118	0x3ced0716	0.028934043
119	0x3dcd0f07	0.10012632

fc2.weight f4 [84, 120]
0	0x3ccd418b	0.025055667
1	0xbd8615fb	-0.06547161
2	0x3c9d0fa7	0.019172503
3	0x3d333c9c	0.043758973
4	0x3d8d4c41	0.0689931
5	0x3d978eab	0.07400259
6	0xbca55cd5	-0.020185867
7	0x3ce97ece	0.028502848
8	0xbc74bd69	-0.014937737
9	0xbdcfb256	-0.10141437
10	0x3c84b20b	0.016198179
11	0x3dc4cad4	0.09608999
12	0xbc402138	-0.01172667
13	0x3cee8f56	0.029121082
14	0xbdc65760	-0.09684634
15	0xbdb094ba	-0.08622117
16	0x3db64082	0.08899023
17	0xbd8d1e2b	-0.0689052
18	0x3d6c4ae4	0.05768861
19	0xbd853c05	-0.065055884
20	0xbc97edb6	-0.018545967
21	0x3d5d2fbd	0.054000605
22	0x3dae8d1b	0.085230075
23	0x3cfe27ae	0.03102478
24	0x3d9297c4	0.07157853
25	0x3c3ff9d8	0.011717282
26	0xbd0681fc	-0.032838807
27	0xbd9a0623	-0.07520702
28	0xbd96a57e	-0.07355784
29	0x3caf1b80	0.021375418
30	0xbcb1bc15	-0.02169613
31	0xbc4adc51	-0.012381629
32	0xbdc6cb43	-0.09706738
33	0xbdaa9cc5	-0.08330683
34	0xbc95a3ec	-0.01826664
35	0x3dbbd08b	0.09170636
36	0xbd161a3c	-0.036646113
37	0x3d5092f9	0.050921414
38	0x3d8f09b6	0.06984274
39	0x3dc8adfc	0.0979881
40	0xbcac6ffe	-0.021049496
41	0xbae70c07	-0.0017627486
42	0xbd818dd0	-0.06325877
43	0x3dce1983	0.1006346
44	0xbc228a3e	-0.009920655
45	0xbd761851	-0.060081784
46	0xbd88ff28	-0.06689292
47	0xbc3eb2e2	-0.011639329
48	0xbdbc9d19	-0.092096515
49	0x3d3590d6	0.04432758
50	0x3d78c064	0.060730353
51	0xbcbdfcb5	-0.02319179
52	0x3b501d49	0.0031755737
53	0x3cb9fd4c	0.02270379
54	0xbd1f4053	-0.038879704
55	0xbd4a97df	-0.04946124
56	0xbc53834e	-0.012909723
57	0x3ce1e725	0.027576039
58	0xbd76014b	-0.060059827
59	0x3c4dd329	0.012562552
60	0xbd1f9175	-0.038957078
61	0x3d9244cd	0.07142029
62	0xbd74b929	-0.059746895
63	0x3d12c035	0.035827834
64	0xbc97437e	-0.0184648
65	0x3da959b2	0.08269061
66	0x3dd8037c	0.105475396
67	0x3cdddae1	0.027081909
68	0x3d24d0b8	0.040238112
69	0xbdc245b3	-0.0948595
70	0xbd345964	-0.044030562
71	0x3cf2f2bb	0.029656759
72	0x3c2b51af	0.010456487
73	0x3dc02262	0.09381558
74	0x3d7dff96	0.062011324
75	0x3dc16f92	0.094451085
76	0xbd47447c	-0.048649296
77	0xbd7c751b	-0.061635118
78	0xbd19d822	-0.037559636
79	0x3d243616	0.040090643
80	0x3c115044	0.0088692345
81	0x3d1e22b8	0.03860733
82	0x3cb93e54	0.022612728
83	0x3dd272ac	0.10275778
84	0x3d699d56	0.057034813
85	0xbca2db29	-0.019879894
86	0xbced5aee	-0.028974023
87	0xbd801f3f	-0.0625596
88	0x3d65e4ef	0.05612653
89	0x3ab21379	0.0013586126
90	0xbd6d1db4	-0.057889655
91	0xbc6eb9ec	-0.014570694
92	0x3dbaf488	0.09128672
93	0xbde041bc	-0.10950038
94	0x3d532cff	0.051556583
95	0xbd49b998	-0.04924926
96	0xbd890fe7	-0.06692486
97	0x3c26bfef	0.0101775965
98	0xbd5e8776	-0.054328404
99	0xbbb097a4	-0.0053891707
100	0x3dbf65c0	0.09345579
101	0xbcea918b	-0.028633853
102	0x3dae4d59	0.08510847
103	0xbc8ad290	-0.016946107
104	0x3bb62e1a	0.005559695
105	0xbb95cb8a	-0.004571383
106	0xbd82b930	-0.06382978
107	0x3d5093c6	0.050922178
108	0x3b70fa3f	0.0036770252
109	0xbcc9e4be	-0.024645206
110	0xbd1bf5f6	-0.038076364
111	0x3d6c4e0c	0.05769162
112	0x3c6cc889	0.014452108
113	0xbdb7b29d	-0.08969615
114	0xbd99dbee	-0.075126514
115	0xbc4e22d2	-0.012581544
116	0x3cabd482	0.020975355
117	0x3d6ae6b1	0.05734891
118	0x3d9b61ab	0.07586988
119	0x3deea1ac	0.1165193
120	0xbd58b21b	-0.05290423
121	0xbd9c8b76	-0.076437876
122	0x3d100087	0.035156753
123	0xbd8c6b35	-0.068563856
124	0x3ced60d2	0.028976832
125	0x3cf85a0d	0.030316377
126	0xbd911d62	-0.070856825
127	0xbda6fd69	-0.08153803
128	0x3d535206	0.051591896
129	0x3d7b79c3	0.061395418
130	0xbd3e0165	-0.04638805
131	0x3da317a0	0.079634905
132	0x3d9d6f80	0.076872826
133	0xbd0c5a93	-0.034266066
134	0x3bcd37ad	0.0062627406
135	0xbd815f73	-0.063170336
136	0x3d21693a	0.039406992
137	0xbccaa99f	-0.024739085
138	0xbc4c1f05	-0.0124585675
139	0xbd9fa835	-0.07795755
140	0xbc355470	-0.011067495
141	0x3d62e4d0	0.055393994
142	0x3dc60472	0.096688166
143	0xbc09b91d	-0.008405951
144	0xbc88d9a1	-0.016705336
145	0x3d324f5b	0.04353271
146	0x3d9a6ed2	0.075406685
147	0x3d31c68b	0.043402236
148	0xbccca47a	-0.024980772
149	0xbd278088	-0.04089406
150	0xbd36dc0c	-0.044643447
151	0xbd058cbc	-0.032604918
152	0xbd613fd6	-0.05499252
153	0x3bf4fcc6	0.007476422
154	0xbcb98b24	-0.022649355
155	0x3d3139e2	0.043268092
156	0xbceb6e1b	-0.028739026
157	0xbd6b2ddd	-0.057416786
158	0xbd6001c9	-0.054689202
159	0xbd49e35c	-0.049289092
160	0xbd5588f9	-0.05213258
161	0xbca99a0d	-0.02070334
162	0xbc74e684	-0.014947537
163	0xbdb67d5b	-0.089106284
164	0x3da03bc4	0.078238994
165	0x3ccbc449	0.02487387
166	0xbc920c4d	-0.017828131
167	0xbdb8c225	-0.09021405
168	0xbda8efb1	-0.082488425
169	0x3db0939a	0.08621903
170	0x3d7827db	0.060584884
171	0x3d9be6fc	0.07612416
172	0xbd5f452d	-0.05450933
173	0xbd10636d	-0.03525107
174	0xbd8a6859	-0.06758184
175	0x3dad8758	0.084730804
176	0x3d36c301	0.044619564
177	0xbd5b6da1	-0.053571347
178	0x3d9f4c5f	0.077782385
179	0xbceaae1b	-0.028647473
180	0xbd935aa5	-0.071950234
181	0x3c040564	0.008057926
182	0xbd5d51a4	-0.054032937
183	0xbca9c4d0	-0.02072373
184	0x3d7fb930	0.062432468
185	0xbce289b8	-0.02765356
186	0x3d11233a	0.035433985
187	0xbd20ffca	-0.03930644
188	0x3cb84c3c	0.022497289
189	0x3da1257e	0.07868479
190	0x3d607641	0.054800276
191	0xbbfab5d0	-0.0076510683
192	0xbda8ddcc	-0.082454294
193	0xbd9b8301	-0.075933464
194	0xbd815f21	-0.063169725
195	0xbad1ee47	-0.0016016447
196	0x3d3b3077	0.045700517
197	0xbda27c4a	-0.079338625
198	0x3ce596ef	0.028026072
199	0x3cc542bc	0.024079673
200	0x3d3500b1	0.044190113
201	0x3d9c2876	0.07624905
202	0x3ce92e11	0.028464349
203	0xbc9d8a87	-0.019231094
204	0xbb964ee7	-0.0045870426
205	0xbcd19101	-0.025581839
206	0xbd1a3490	-0.037647784
207	0x3d025b42	0.03182531
208	0x3c049fd4	0.008094747
209	0x3cf2d6bf	0.029643415
210	0xbc23406c	-0.00996409
211	0xbc8321a5	-0.016007254
212	0xbcb5a886	-0.022175085
213	0xbc682221	-0.014168293
214	0xbd825fe4	-0.06365946
215	0x3abf2261	0.0014582389
216	0xbce11f2e	-0.027480688
217	0xbd951293	-0.072789334
218	0x3d332de4	0.043744937
219	0x3b663760	0.003512822
220	0x3dc64d8d	0.096827604
221	0xbd188526	-0.037236355
222	0x3d15b63a	0.036550738
223	0x3d122bae	0.035686187
224	0x3d58b242	0.052904375
225	0x3d139ec0	0.036040068
226	0x3c47aef3	0.012187707
227	0x3d6b78d9	0.057488296
228	0x3db3ddff	0.08782577
229	0xbdb2693c	-0.08711478
230	0xbd7e4ca4	-0.06208481
231	0x3a829600	0.0009962916
232	0xbb6e59bd	-0.0036369406
233	0xbda74b2a	-0.08168633
234	0x3d445431	0.047931854
235	0xbdc23abd	-0.0948386
236	0xbd856d8c	-0.06515035
237	0xbd3edd8a	-0.046597995
238	0x3db38ae4	0.08766726
239	0xbd35e726	-0.044409893
240	0x3dc97fd1	0.09838832
241	0x3d70ca76	0.05878683
242	0xbda214cd	-0.07914124
243	0xbd86db1c	-0.065847605
244	0x3d05d568	0.032674223
245	0x3b00c155	0.0019646485
246	0xbdaaeebc	-0.08346316
247	0xbda5b661	-0.08091427
248	0xbdf6ee6b	-0.12057193
249	0xbdb7d1a8	-0.08975536
250	0xbbdda6ce	-0.0067642694
251	0x3ac2c513	0.0014859758
252	0xbcd59a06	-0.02607442
253	0xbcc09e1b	-0.02351289
254	0xbc930adc	-0.017949514
255	0x3bfeec9c	0.007779671

fc2.bias f4 [84]
0	0xbd28db0c	-0.041224524
1	0xbd4eff37	-0.05053636
2	0xbbffbc6b	-0.0078044436
3	0xbe5bd1fa	-0.21466818
4	0xbdc53bdb	-0.09630557
5	0x3d67422a	0.056459583
6	0x3c6ffc8d	0.014647615
7	0x3e6521ae	0.22376129
8	0x3e8e3c14	0.2778021
9	0xbb959384	-0.0045647044
10	0xbc53e50c	-0.012933027
11	0x3cc0a3e0	0.023515642
12	0x3dc0724f	0.09396803
13	0xbccc1d81	-0.024916412
14	0xbc7d91da	-0.015476668
15	0xbd0e8794	-0.034797266
16	0xbd313be1	-0.043269996
17	0x3dba1938	0.09086841
18	0xbcdb1c35	-0.026746849
19	0xbcd6f7f5	-0.026241282
20	0xbd3e2833	-0.046425056
21	0x3e9897e2	0.29803377
22	0x3e71c4bf	0.23610209
23	0x3da7f1f2	0.08200444
24	0x3e3adf8b	0.18249337
25	0x3e4752a8	0.19465125
26	0x3e0f28d6	0.13980421
27	0xbd9a079a	-0.07520981
28	0x3cd49bd4	0.02595321
29	0x3e1f16e6	0.15536079
30	0x3e16b56d	0.14717646
31	0x3d391632	0.045187183
32	0x3e35d911	0.17758586
33	0xbdb9456e	-0.09046446
34	0xbd2f2a58	-0.04276499
35	0xbc923498	-0.017847344
36	0xbd9c0015	-0.07617203
37	0xbd5073f9	-0.05089185
38	0x3dd77c39	0.105217405
39	0x3dd34b93	0.10317149
40	0x3e72ba47	0.23703872
41	0x3e0083cb	0.12550275
42	0xbd7c12fc	-0.061541542
43	0x3e0a55c5	0.13509281
44	0x3b05bb40	0.00204058
45	0x3cb9a320	0.022660792
46	0x3ea7a611	0.32743886
47	0x3c187024	0.00930408
48	0xbb0f86dd	-0.0021900453
49	0x3e3bc344	0.18336207
50	0x3eb09624	0.34489548
51	0x3e1f42e0	0.15552855
52	0x3b7dbc42	0.0038716947
53	0xbdcdd614	-0.10050598
54	0xbe46f7d3	-0.19430475
55	0x3df9ef72	0.12203874
56	0x3dce9b5d	0.10088227
57	0xbcf998cb	-0.030468365
58	0x3de97af5	0.11400405
59	0xbe084d36	-0.13310704
60	0xbd8e4c94	-0.069482
61	0xbd11f6e6	-0.03563585
62	0x3c186e95	0.009303709
63	0xbd966ae6	-0.07344608
64	0xbd44f309	-0.04808334
65	0x3e1617fd	0.14657588
66	0x3ea779bc	0.32710063
67	0xba8daade	-0.0010808369
68	0x3e8c5076	0.27405137
69	0x3ce3d6e5	0.02781243
70	0x3dc3cad1	0.095601685
71	0xbe396ef7	-0.18108736
72	0x3e81d7ef	0.25360057
73	0x3d08bb09	0.033381496
74	0x3ea0143a	0.31265432
75	0x3c845d5d	0.0161578
76	0x3e7d8dc1	0.24761106
77	0xbe63b5bb	-0.22237293
78	0x3dce9eca	0.1008888
79	0x3e646a9f	0.22306298
80	0x3c0bda02	0.008535864
81	0xbc6f56f3	-0.014608133
82	0xbd4d8bd6	-0.050182186
83	0xbd013e61	-0.03155363

fc3.weight f4 [10, 84]
0	0xbde60413	-0.11231246
1	0xbc8e1977	-0.017346127
2	0x3dc2c863	0.09510877
3	0x3e36573b	0.17806713
4	0x3d57e7f8	0.052711457
5	0xbdb76daf	-0.08956467
6	0xbd886d82	-0.06661512
7	0xbdfbac0a	-0.12288673
8	0x3e54f5d4	0.20796901
9	0xbe26fcc2	-0.16307357
10	0x3d48e659	0.0490478
11	0xbd98422d	-0.07434497
12	0x3e3f77ea	0.18698087
13	0x3e70daf9	0.23521031
14	0x3e322db6	0.1740025
15	0x3d1c54cb	0.038166802
16	0xbd92e893	-0.07173266
17	0x3ccdc560	0.02511853
18	0x3d09e94d	0.03366976
19	0xbdaf76e6	-0.085676
20	0xbdb3cb04	-0.087789565
21	0xbe3bc487	-0.18336688
22	0xbe1ea34c	-0.1549198
23	0x3da7a0e4	0.08184984
24	0xbbfd9005	-0.0077381157
25	0x3d17a558	0.03702292
26	0x3c86fb7f	0.016477345
27	0x3dd7dcf1	0.10540188
28	0xbdfb9ff4	-0.12286368
29	0xbe9d9ee5	-0.3078529
30	0x3e43976f	0.19100736
31	0x3e38a5a1	0.18031932
32	0x3e86b7b5	0.26312032
33	0xbd3b4366	-0.045718573
34	0xbc845fb2	-0.016158912
35	0xbd1b8365	-0.037967104
36	0x3d2dec9b	0.042461973
37	0x3d1662d0	0.03671533
38	0x3e7c6925	0.24649484
39	0xbdcfe659	-0.10151357
40	0x3d1c1b56	0.038112007
41	0x3d8de0ae	0.0692762
42	0xbc0db4e6	-0.008649087
43	0x3eb5e65b	0.3552731
44	0xbdb516af	-0.08842217
45	0xbbc6a26b	-0.006061842
46	0xbe9492fc	-0.2901839
47	0x3d5ea6d7	0.05435833
48	0xbe1aff14	-0.15136367
49	0xbce201fb	-0.027588835
50	0xbd9e93a3	-0.07743003
51	0xbc1a6a2a	-0.009424726
52	0x3e3da262	0.18518975
53	0x3dc41232	0.09573783
54	0x3dc66a4b	0.096882425
55	0xbdb636a5	-0.08897141
56	0xbe2959d0	-0.16538167
57	0xbda3f61b	-0.08005925
58	0xbe13806e	-0.14404461
59	0x3dc3e42e	0.09565006
60	0x3db83ec6	0.08996348
61	0x3dbb02cc	0.09131393
62	0xbd9f32e7	-0.07773381
63	0xbdc7bdb2	-0.097529784
64	0xbd7b7567	-0.06139126
65	0x3e60e27d	0.21961398
66	0x3e706c40	0.23478794
67	0x3e405270	0.18781447
68	0x3dd8efe2	0.10592629
69	0xbca08b93	-0.019597804
70	0xbda00beb	-0.07814773
71	0xbc6d2aae	-0.014475508
72	0x3e9d0ff0	0.30676222
73	0xbcbec7e3	-0.023288673
74	0x3db35379	0.087561555
75	0xbde12585	-0.109934844
76	0xbd501bff	-0.05080795
77	0xbddba821	-0.107254274
78	0xbe2e9535	-0.17049105
79	0xbe21ce21	-0.15801288
80	0x3d839e17	0.064266376
81	0xbda16a44	-0.07881597
82	0xbb171104	-0.0023050914
83	0xbde8e868	-0.11372453
84	0x3cf0a693	0.029376304
85	0xbcb79903	-0.022411829
86	0xbdc8b6b9	-0.098004766
87	0x3de7167a	0.11283584
88	0xba2dc4d0	-0.00066287536
89	0x3eba761f	0.36418244
90	0xbe0628fc	-0.13101572
91	0xbea03827	-0.3129284
92	0xbd89fa31	-0.06737173
93	0x3e38089e	0.17972037
94	0xbd9a60af	-0.07537972
95	0x3dcf918c	0.10135183
96	0x3e2a401d	0.1662602
97	0x3d2f464e	0.042791657
98	0x3d730c6c	0.05933802
99	0x3e4a7dba	0.19774523
100	0xbce88fe2	-0.028388921
101	0x3e09f01a	0.13470498
102	0x3ce55149	0.027992861
103	0xbd1652b5	-0.03669997
104	0xbc903403	-0.017602926
105	0xbe543194	-0.20722038
106	0xbe39d772	-0.18148592
107	0xbc3834fb	-0.0112431
108	0xbea960f1	-0.33081773
109	0xbe748590	-0.23879075
110	0x3e653484	0.22383314
111	0x3dbc46bc	0.09193179
112	0x3d7f055c	0.06226097
113	0x3d802abf	0.06258153
114	0x3d5eac8b	0.05436377
115	0xbe5f46d3	-0.21804361
116	0xbe2e3e49	-0.17015947
117	0xbdc37b87	-0.09545045
118	0xbd738ac3	-0.059458505
119	0x3dfe9bf2	0.12432088
120	0x3e89e7c3	0.26934633
121	0x3eaaf85e	0.33392614
122	0x3c939b5e	0.01801842
123	0xbe247e29	-0.16063751
124	0xbd9453e8	-0.07242566
125	0xbe02da6a	-0.12778631
126	0xbc231400	-0.009953499
127	0x3e080a79	0.13285245
128	0x3df906a1	0.121594675
129	0xbd965e9d	-0.07342265
130	0xbe9bfc8c	-0.30466115
131	0xbdf53a50	-0.11974013
132	0x3d218a70	0.039438665
133	0x3cdb26c9	0.026751893
134	0xbdbe5aeb	-0.09294685
135	0xbdd3b618	-0.10337466
136	0xbd55d186	-0.05220177
137	0xbe0b80c8	-0.13623345
138	0xbcc8b16d	-0.024498666
139	0x3e541575	0.2071131
140	0xbd8845c5	-0.066539325
141	0xba5486fe	-0.00081072736
142	0x3d1fa3db	0.038974624
143	0x3e8c30a9	0.27380875
144	0x3d0c6954	0.034280136
145	0xbd06bc4c	-0.032894418
146	0x3dc30303	0.09522059
147	0xbd440746	-0.0478585
148	0xbd3630d3	-0.044480156
149	0x3e53a981	0.2067013
150	0x3d4acb73	0.04951043
151	0xbe25c1dd	-0.16187234
152	0xbe9a9167	-0.30189058
153	0xbdb0dcea	-0.08635886
154	0xbc024304	-0.007950548
155	0x3dc6b32d	0.09702144
156	0xbddaa77c	-0.10676476
157	0xbe7c3003	-0.2462769
158	0xbd182503	-0.037144672
159	0xbd61b1fc	-0.05510138
160	0x3d2f096b	0.04273359
161	0x3d937ad1	0.0720116
162	0xbcf27660	-0.029597461
163	0xbdcafce9	-0.0991152
164	0xbd453d4f	-0.04815417
165	0xbd050fa8	-0.032485634
166	0xbc204817	-0.009782813
167	0x3e466e6d	0.19378062
168	0xbdf036c1	-0.117291935
169	0xbdb646d3	-0.089002274
170	0x3de4430b	0.111456
171	0x3dd5b211	0.10434354
172	0xbc63bf97	-0.013900659
173	0xbd7c1a45	-0.06154849
174	0xbe22a6a9	-0.15883888
175	0xbdb6565c	-0.089031905
176	0xbc68afbf	-0.014202057
177	0xbe12e145	-0.14343746
178	0x3e66989f	0.22519158
179	0xbd932603	-0.071849845
180	0xbe237d71	-0.15965821
181	0xbda433bd	-0.08017681
182	0x3d9e2d21	0.077234514
183	0x3d2f3052	0.04277069
184	0x3e901740	0.28142738
185	0x3dba5f6f	0.09100234
186	0xbdea807f	-0.1145029
187	0xbd10b9b4	-0.03533335
188	0x3dafce3a	0.085842565
189	0x3e33ccdd	0.17558618
190	0xbd5d2bf8	-0.05399701
191	0x3e08fc5a	0.13377514
192	0x3e3c0b65	0.18363722
193	0x3e205eae	0.15661117
194	0xbdedc1f6	-0.11609261
195	0x3d4b3d47	0.049618986
196	0xbdc97833	-0.09837379
197	0x3e4a0515	0.19728501
198	0xbd754b76	-0.05988642
199	0x3e36f51f	0.17866944
200	0x3e0b8d25	0.13628061
201	0xbdc40f68	-0.09573251
202	0x3c0b6c7c	0.008509751
203	0xbd782fb5	-0.060592372
204	0xbd8024e2	-0.06257035
205	0xbe1b3ac2	-0.15159133
206	0xbda0a490	-0.07843888
207	0xbcfbf01c	-0.030754142
208	0x3d695771	0.056968156
209	0x3dfe74ed	0.124246456
210	0x3cc6435d	0.024202043
211	0x3de57a49	0.11204965
212	0xbd8945c4	-0.0670276
213	0xbc5def83	-0.013545874
214	0x3cab44f1	0.020906897
215	0xbdd20f28	-0.10256797
216	0xbd319533	-0.043355178
217	0xbde4c0e8	-0.111696064
218	0x3d3c25d6	0.04593452
219	0xbc085a19	-0.008322262
220	0xbd94dbad	-0.07268462
221	0xbcb209c7	-0.021733178
222	0xbd96b032	-0.07357825
223	0x3ddb102a	0.106964424
224	0xbcc84876	-0.024448615
225	0x3d92d797	0.07170027
226	0x3e18bd1a	0.14915887
227	0xbe1a2479	-0.15052976
228	0xbd2e7ea4	-0.042601243
229	0x3c57f8e8	0.0131819025
230	0x3d38f1a9	0.04515234
231	0xbcbdaeb0	-0.023154587
232	0x3c5a15d6	0.01331087
233	0x3c914f87	0.017738117
234	0x3c9dd4f0	0.019266576
235	0x3dfbc0b3	0.12292614
236	0x3dfcb219	0.12338657
237	0x3e1f8535	0.15578158
238	0xbdb0e47b	-0.08637329
239	0xbe2602f9	-0.16212071
240	0x3e8fed94	0.28110945
241	0x3e5c55d9	0.21517123
242	0xbe1ba032	-0.15197828
243	0xbc8b1e27	-0.016982151
244	0x3d6bff54	0.057616547
245	0xbd8074bb	-0.062722646
246	0xbdc8b623	-0.09800365
247	0x3dd2405f	0.10266184
248	0x3dd05908	0.10173231
249	0xbd95b637	-0.07310145
250	0x3c7d99a9	0.01547853
251	0xbdad5ef1	-0.08465374
252	0x3d4d05aa	0.05005423
253	0xbd499a1f	-0.049219247
254	0xbc605be0	-0.01369378
255	0x3dcf69aa	0.10127576

fc3.bias f4 [10]
0	0xbe09ffd2	-0.13476494
1	0xbef85f5e	-0.4851026
2	0x3e4e1963	0.20126872
3	0x3e952bee	0.29135078
4	0x3ec5c3d0	0.38625956
5	0xbe23e774	-0.16006261
6	0x3e54b288	0.2077123
7	0xbebe20b0	-0.37134314
8	0x3f11154b	0.56673115
9	0xbebdf839	-0.3710344
