lab1-LeNet/model/1019180515.pth (torch, 250887 bytes, 10 tensors)

conv1.weight f4 [6, 3, 5, 5]
00000000: aaeb 403d 7ebd 24be 2018 63be 9220 a4bd
00000010: 40b2 d1bd e34c 243c 11e5 fa3d 7aec 81bc
00000020: 1895 e2ba dff8 a0bd 9c92 a03d fccd de3d
00000030: fb7c b83d f4af 8c3d 1a7f 5e3d f22d 8b3a
00000040: 2440 a33d c4b4 e13d 9e46 043e fab9 213e
00000050: 554b dc3b 0daf 0b3e fb7b 933d fb42 503d
00000060: 6e40 1f3e 274c 073e 293d 9d3d d7d8 c6bc
00000070: d8db cbbd f0bd 403d 5c09 0c3e 522f 4dbd
00000080: d562 e03a 2a7d 43bd d55d 8f3d 51e8 b6bc
00000090: 73d8 023e b6c4 733d 44a1 043d 8569 54bc
000000a0: 8117 4abd 2054 9f3c 9677 363d bca5 3b3d
000000b0: 20ef a8bd 5507 a7bd cb9c 86bd 4f70 6ebd
000000c0: 9044 0a3d 749d a93d 1db4 9e3d 9280 e53d
000000d0: afa4 2bbc 64b0 853d 79e6 69bc 29ac d13d
000000e0: 6d42 243e a7f2 013d a5b1 74bd 92d7 9d3d
000000f0: 7278 883d 1ad6 983d a3d4 1b3e 469b c13d
00000100: 4209 313d 6282 13bd 3a0d 3cbd ad42 be3d
00000110: 1059 453d 5936 89bd fdd1 c7bd 77b9 18be
00000120: 0a14 2d3d e1ab 01be 6563 1abe bd09 0f3e
00000130: f698 573e e228 c93e 93f4 6d3e 3f01 4b3e
00000140: c94e 423e 6771 a63e 9d6a f33e b5b0 8b3e
00000150: 983e a6bd b34d aa3e 3efe 173f 6806 fa3e
00000160: 6c3c c43d d3aa f4bd 4e36 adbe 4835 a3be
00000170: a1a3 78be 5686 a9be a7e2 4abe c875 9abe
00000180: 8c78 f6be 7ffd 0fbf 67d5 b4be 0914 4d3e
00000190: 4199 afbe 6b97 50be ce80 c1bd af76 02be
000001a0: 18c4 3cbe f278 4abe e1f7 c43d 2ae5 173d
000001b0: 41e6 fcbd aab6 b6be 7a3a 363e db48 823e
000001c0: b6dc 4a3d f3ae 5abe f093 c2bd 0c32 87be
000001d0: b9e7 cabe 7feb b6be 3f44 b4be 1970 f63d
000001e0: 970e a9bd 1ea8 6ebe f223 9abe c1c1 66bd
000001f0: b688 bd3e 2f78 05be 7a50 64be a55f 67bc
00000200: b8cf 2bbe 2b41 5abe a5ea 37bc 837b 693d
00000210: 1152 023e 1bd2 953d 6b51 89bd 0100 a13e
00000220: c92f a33e af42 6a3e 71fd c83c f574 553d
00000230: 0624 03bd 2b28 57be 3617 a5be 1c58 54be
00000240: a054 193e 512e 48bd 49f7 febd 8885 b0bd
00000250: c075 233e 5109 3a3f 975a 423d 62a0 19bc
00000260: 894a 733c 7915 a63d 6879 2f3e 48ed e53d
00000270: 5730 dd3d d153 713d 7c69 06be 6462 0aba
00000280: 9c04 143e 2ed2 843e cd2e 043e f9b8 53be
00000290: 643f 1fbe f588 413d 1f49 2a3e 2e4d a53d
000002a0: 2430 9ebe ca5b ecbd b66a 5b3d 4ca9 1e3e
000002b0: 3e32 07be 8f7c 3bbe 31bf a7bd 12ef a5bd
000002c0: 72da 30bd d6f9 29be 5d70 dbbd 29e5 05be
000002d0: 51a7 0bbd b22a 853e 120f abbd 235f 7fbe
000002e0: 16cf 7cbe aa79 fd3d b043 b53e 3eb8 76bd
000002f0: 301a f6be a309 40be 9666 fc3d 31e3 913e
00000300: cae2 8f3d 2654 bdbe 7047 12be d84f df3d
00000310: 422b 443e a4fb a8bd bbd0 8bbe 1e4c 3fbd
00000320: 02ca 0e3e 33a5 033e 8b0e 16be f71b f1bd
00000330: f368 703b 1531 3e3e 0f99 5f3e 1b4e 3cbc
00000340: 480c b0be 2bb2 9dbd 36ad 193e 6690 853e
00000350: 2dc7 ad3d 6f3f debe f20e 7dbe 861e 353e
00000360: 68c3 ab3e 3957 253e c558 cbbe 493e ccbd
00000370: f222 6c3e b477 7b3e b85e 07bd f084 1bbe
00000380: 0de8 a33d 2ea4 49be a4c0 6fbe c8de 70be
00000390: b123 8bbd c8a2 4cbe 09d8 31be df7a c7be
000003a0: 673a babe 0d8c 9bbe 6595 82be e5c9 b6bd
000003b0: 577d e5bd f92f b5bd 6bff 02be 07fe dcbc
000003c0: a32e 083c c425 7c3d 5e89 823e 499f 1a3e
000003d0: e5c2 013e ee62 983e 841c 9b3e 4b86 793e
000003e0: e835 5a3e 5698 c53d b71d bb3d b3f5 09be
000003f0: d588 313b fd3d 1abd 4e56 a3bc ca34 1dbe
0.047099747 -0.1608791 -0.22177172 -0.08014025 -0.102390766 0.010028097 0.12250722 -0.015859831
-0.0017286865 -0.078599684 0.078404635 0.10879132 0.09008213 0.06869498 0.054320432 0.0010618551
0.07971218 0.110208064 0.12917563 0.157936 0.0067228475 0.13640995 0.07201382 0.050845128
0.15551922 0.13212644 0.07677681 -0.02427332 -0.09954041 0.04705614 0.13675445 -0.050093956
0.0017119298 -0.047726788 0.07000319 -0.022327574 0.12777881 0.05951377 0.032380357 -0.012964611
-0.04933882 0.019449294 0.04454764 0.045812353 -0.082487345 -0.08155695 -0.06572875 -0.058212575
0.033756793 0.08281985 0.07749198 0.112061635 -0.010476275 0.065277845 -0.01427614 0.10237915
0.16040964 0.031725552 -0.059739728 0.077071324 0.06663598 0.07462712 0.15217833 0.09453444
0.04322172 -0.036013015 -0.04591105 0.09290061 0.04818064 -0.06699819 -0.09756849 -0.14914499
0.04225544 -0.12663223 -0.15076979 0.13968559 0.21054444 0.39289004 0.23237829 0.19824694
0.18975367 0.32508394 0.47542277 0.27283254 -0.081174076 0.33262405 0.5937232 0.48833013
0.09581837 -0.11946645 -0.33830494 -0.31876588 -0.2428117 -0.33110303 -0.19813024 -0.30167985
-0.48138845 -0.5624618 -0.35319063 0.20027174 -0.3429661 -0.20370261 -0.09448396 -0.12740587
-0.18434179 -0.197727 0.09617592 0.037083782 -0.12348605 -0.35686237 0.17795745 0.2544621
0.049526893 -0.213558 -0.09500873 -0.2640537 -0.39629915 -0.35726544 -0.35208318 0.120331
-0.08254736 -0.23306319 -0.3010555 -0.056337122 0.37018365 -0.13034128 -0.22296324 -0.0141219245
-0.16778457 -0.21313922 -0.011225377 0.057002556 0.12726618 0.07315465 -0.06704982 0.31445315
0.31872395 0.22877 0.024534913 0.052113492 -0.032016777 -0.21011417 -0.3224427 -0.20736736
0.14973688 -0.048872296 -0.1244951 -0.08619219 0.15962887 0.72670466 0.047449674 -0.009376617
0.014849314 0.08109564 0.17136157 0.112268984 0.10800236 0.058917824 -0.13126177 -0.00052789436
0.14454883 0.25941604 0.12908478 -0.2067603 -0.15551525 0.047249753 0.16629456 0.080713615
-0.30896103 -0.11540945 0.053568564 0.15494269 -0.1320276 -0.18309234 -0.08190764 -0.0810224
-0.043177076 -0.16599211 -0.10714791 -0.13075699 -0.034095112 0.26009136 -0.08352484 -0.24938636
-0.24688372 0.12376721 0.35403204 -0.0602343 -0.48066854 -0.18753676 0.12324254 0.28493646
0.070256785 -0.36978263 -0.14285064 0.10903901 0.19157127 -0.08251122 -0.27307686 -0.04670345
0.13944247 0.12855987 -0.14653985 -0.11772912 0.0036683648 0.18573411 0.21835731 -0.011493231
-0.3438437 -0.076999985 0.15007481 0.2608673 0.084852554 -0.4340777 -0.24712732 0.17687425
0.3354752 0.16146554 -0.39716163 -0.099728175 0.23060206 0.24557382 -0.033049315 -0.1518743
0.080032445 -0.19691536 -0.2341333 -0.23522484 -0.06793917 -0.19983971 -0.17367567 -0.3896093
-0.36372682 -0.30380288 -0.25504604 -0.08925227 -0.11205547 -0.08847041 -0.12792747 -0.026976598
0.0083119 0.061559454 0.25495428 0.15099825 0.12672003 0.29762977 0.30295193 0.24367635
0.21309626 0.096481964 0.09136527 -0.13472633 0.0027089615 -0.037656773 -0.019938614 -0.15352169

conv1.bias f4 [6]
00000000: 9c22 ae3e 41c5 f1be 2e84 4abe c3d2 fcbd
00000010: 2d45 b73e 3b1a 4f3c
0.3401078 -0.47220805 -0.19776985 -0.12344887 0.35794964 0.012640531

conv2.weight f4 [16, 6, 5, 5]
00000000: a5af 4d3e a723 f73d 6deb e63d e77b 21bd
00000010: fe98 0ebd 6696 1d3e 834d 123e 8795 f93d
00000020: 3e9e 9cbd a6cb 55bd 4c55 033e 2ce8 003e
00000030: 9a1e c83d d897 f5bb 435c ccbd fe97 083e
00000040: 47f5 283d 73f7 6f3d da49 0cbe b940 57bd
00000050: b485 393d f81f c33d 1a81 b0bc 0bf5 98bd
00000060: a206 adbd 19a3 20be 6047 42bd e6cb 15bd
00000070: 84bc dcbc 4fe7 e43d 1956 04be 8062 58be
00000080: b865 52bd 36ce e53c 82be 053d 81c2 06be
00000090: 4198 afbd 8e9a bebd f290 f13a b0d9 4a3c
000000a0: afc8 f0bd 4f64 03be 041f 55bd 74b9 a4bd
000000b0: 14f7 ddbd 4ffd 3dbe a9c4 f0bd d3c1 10bd
000000c0: bec8 37bd aff7 27bd 3d9a 0c3e 5169 c43d
000000d0: ded2 d8ba e074 ca3d c259 b13d 3b72 433d
000000e0: 89c2 65bc ec08 0a3e 7079 543d 8324 1e3e
000000f0: ff4a 9e3d c487 883d 6b5b 833c c34b d63c
00000100: 279c 043e b599 093e 5946 013e 2291 a73d
00000110: de69 8d3d e061 183e 42cd b03d 3e10 303e
00000120: 7910 3c3e eb58 5d3c 2007 573e fab1 683d
00000130: 3dac a3bc c68d 4cbd de12 233d 32fe 75bc
00000140: 7eb8 40bd 54a7 19be 052d 7dbd 684a bdbd
00000150: 4348 833d 95e6 1bbe 89a0 28be 73e4 29be
00000160: 9283 04be 5e82 0cbd f0eb 14be 0b15 0ebe
00000170: 0522 80be 03ca eabd bd70 933d 0b95 18be
00000180: f19c babd dff8 10be 2a32 ab3c b67b de3d
00000190: 5852 a6bd 8a23 d9bd a2d2 16be 3898 4a3d
000001a0: 345a 6a3e bf83 eebd 24e9 5cbe 1a16 17bd
000001b0: e870 83bd ecbb 0d3e 26e8 24be c079 e3bd
000001c0: 4c91 ed3c 968e 88bd cf6f 803d f94e b4bd
000001d0: bd44 583c fe38 073c 0197 2bbc 4d16 823d
000001e0: b59a 8dbd 16af 15bd 748a 563c 4bbc 803d
000001f0: eea3 0b3e c73e efbb 36e1 7fbc 93a7 91bd
00000200: 2eb5 14bd 54c0 11be 150a ecbd 7538 debd
00000210: d0cf 0bbe ab63 b7bd 1399 b8bd d959 e9bd
00000220: 52b8 0abe cdd0 79bd a568 40bd 7669 c6bd
00000230: cedc 18bd 105f 5ebd 79b9 3ebd f0c8 07bd
00000240: c790 46bd a00e eabd 9b19 1fbd 8196 3bbd
00000250: 09cb 88bd 60c9 243d e4b1 99be e99c 3bbe
00000260: 7cd1 bc3c 8017 7d3e 1be4 bf3e 54ac b8be
00000270: 4730 69be 19d5 05bd 4d39 7b3e a338 b83e
00000280: 8688 80be bb54 7fbe 5ae0 84bd 978f e73d
00000290: a11b bb3e efe4 44be d037 15be beaa 45be
000002a0: b600 183c 3ff1 a33e aa81 61be c96f 9dbd
000002b0: 3d2c b6bd 03f0 15bd b4b4 1e3e a75a 443d
000002c0: f975 1e3e 010b eabc c029 32be 5ba2 6bbe
000002d0: 4165 013d f31e 8f3d bfd8 633d 1751 8bbd
000002e0: 2d9d 71be b618 a13d f1a0 f43b 59c8 16bd
000002f0: dfe5 5fbc e39d 65be 728f 22bc 739f dabc
00000300: f8f3 ca3d 322f 57bd 3261 0bbe 592b 293d
00000310: 4aa5 b83d 9dad 24bd 3c0c 7ebd d6d1 3ebd
00000320: aed4 92be fb5e 6cbe 691e 0a3d 1f95 3e3d
00000330: 15e6 6e3d 482b 59be 5fdb 72bd dd41 f4bc
00000340: 2082 8b3d 9b32 493d 24b8 cbbd aa46 a1bd
00000350: 8613 6c3d 92ea 67bd 8673 8bbd de4a 6bbd
00000360: 4727 4ebd cdb2 bc3d 1a04 263e 2d9b 90bc
00000370: 1883 b2bd 9c8a 8dbc f983 dc3c 0bf4 8f3d
00000380: 735a 873d 1167 533d b0aa 97bd ee1f 50bd
00000390: fee4 b13d 311e 993d f15a 9cbd ef1a 8cbd
000003a0: 3ce1 27bd 3892 a43c 5448 833d 6bb9 813c
000003b0: b5ae e7bd 9ffe 35bd 3096 58bd 3c7f 88bb
000003c0: 66fb 1cbd 4c46 56bc a072 25bd 4131 acbc
000003d0: c254 b0bd 32e0 70bd 0539 0a3d d146 bb3d
000003e0: 1a62 27bd 7824 07be 2aca 10be 9ea4 00bd
000003f0: 435a 1f3e 14e2 8f3d d75f 343e a484 9cbe
0.20086534 0.12067347 0.11275373 -0.039424803 -0.034813873 0.15389404 0.14287381 0.12186723
-0.0764737 -0.052196167 0.12825507 0.12588567 0.09771462 -0.007494908 -0.09978535 0.1333923
0.04124954 0.058585595 -0.13700047 -0.05255196 0.045293525 0.09527582 -0.021545935 -0.07468613
-0.08448531 -0.15687217 -0.04743135 -0.036571406 -0.02694536 0.11176931 -0.12923469 -0.21131325
-0.051366538 0.02805243 0.032652386 -0.13160135 -0.08573962 -0.09306823 0.0018430038 0.012381002
-0.11757027 -0.12831233 -0.052031532 -0.08043185 -0.10838142 -0.18553661 -0.1175626 -0.035341095
-0.044869177 -0.041007694 0.13730712 0.095904 -0.0016542336 0.098855734 0.08659698 0.04771636
-0.014023432 0.13479966 0.051873624 0.15443616 0.07729148 0.0666652 0.016034802 0.026159173
0.12950192 0.13437541 0.12624492 0.08181979 0.06904958 0.14881086 0.086329 0.17193696
0.18365659 0.013509969 0.20998812 0.056810357 -0.01997959 -0.049939893 0.039812915 -0.015014218
-0.047050945 -0.15005237 -0.061810512 -0.092427075 0.06410267 -0.15224679 -0.1646749 -0.16591053
-0.12940815 -0.034304015 -0.14543128 -0.13875215 -0.25025955 -0.11464312 0.071992375 -0.14900605
-0.091119654 -0.14157437 0.020897944 0.1086344 -0.081211746 -0.10602482 -0.14728788 0.049461573
0.22885972 -0.11646222 -0.21573311 -0.036886312 -0.064180195 0.13841218 -0.16104183 -0.11107206
0.028999947 -0.06667821 0.06271326 -0.08804125 0.013199982 0.008253334 -0.010473014 0.0635191
-0.06914274 -0.036543928 0.013094533 0.06285914 0.13636753 -0.007301185 -0.015617659 -0.0711204
-0.0363056 -0.14233524 -0.115253605 -0.10850612 -0.13653493 -0.08954557 -0.090135716 -0.1139409
-0.13546875 -0.060990144 -0.046974797 -0.09688084 -0.03731995 -0.054289877 -0.0465636 -0.033150613
-0.048477914 -0.11428571 -0.03884278 -0.04579783 -0.06679351 0.04023111 -0.30018532 -0.18321575
0.023049109 0.24715996 0.37478718 -0.36068976 -0.22772323 -0.03267393 0.24533577 0.3598071
-0.2510416 -0.24934666 -0.06488104 0.113066845 0.36544517 -0.19227956 -0.14572072 -0.19303414
0.009277513 0.32019994 -0.22022119 -0.07687337 -0.088951565 -0.036605846 0.1549862 0.047938015
0.1547469 -0.0285697 -0.17398739 -0.23011152 0.031590704 0.06988325 0.055626627 -0.06802576
-0.23595114 0.07866041 0.007465475 -0.03681216 -0.013665645 -0.2242351 -0.009921895 -0.02668736
0.099098146 -0.052535243 -0.13611296 0.041301105 0.090159014 -0.040204633 -0.062023386 -0.046586834
-0.28677887 -0.23083107 0.033720408 0.04652893 0.058324892 -0.21207917 -0.05929124 -0.029816562
0.06811929 0.049120527 -0.099472314 -0.07874806 0.057635807 -0.056620188 -0.06809144 -0.057444446
-0.050330427 0.09213791 0.16212502 -0.017652119 -0.087164104 -0.017278008 0.026918398 0.070289694
0.06609049 0.051611964 -0.07405603 -0.0508117 0.08686255 0.07476462 -0.07634533 -0.06841075
-0.040986285 0.020089254 0.0641028 0.015835484 -0.113126196 -0.04443228 -0.052877605 -0.004165558
-0.03832569 -0.0130782835 -0.040392518 -0.02101958 -0.08609916 -0.05880756 0.033745784 0.091443665
-0.04086504 -0.13197505 -0.1413962 -0.03140699 0.15561776 0.07025543 0.17614685 -0.30569947

conv2.bias f4 [16]
00000000: 2f4f 703d 6919 ff3d 1903 06bf 4941 c0bd
00000010: 44aa ab3d 2ef9 b03d 6b8d 59bd da9d 0f3f
00000020: 1010 72bd 7ac9 38be cce1 8fbe 425d eebe
00000030: a572 debe 976d 333e 284d 4e3f 405b 523f
0.058669265 0.124560185 -0.52348477 -0.09387452 0.08382085 0.08641277 -0.053113382 0.5610024
-0.05909735 -0.18045607 -0.28101957 -0.46555525 -0.43446842 0.17522274 0.8058648 0.82170486

fc1.weight f4 [120, 400]
00000000: 206a 713c 6191 b53c 9be5 273d 1113 03bd
00000010: 5424 d23b 08a8 dc3b 21dc 4fbd 00b0 063d
00000020: 6db5 2fbc 2172 f73c a99c 6b3c b643 0fbc
00000030: 02fc b23b 37b0 d8bc a89c 00bd a203 35bd
00000040: 8b1b 3ebc d002 143d 07bb 27bd 83f5 80bc
00000050: 1182 253a 0450 b93c a7f5 31bd 927e a73c
00000060: 19d5 9cbc 95f0 013b c5f7 683b 76af 08bd
00000070: da32 08bd 8ac7 62bb 35a6 d8bc 2cd8 51bc
00000080: 96dd d3ba 6060 1cbd 30d9 1ebd 6d47 94bb
00000090: 6f93 ee3b c3fc 20bd 05f6 043d 75f8 063b
000000a0: d3e9 713b f5db c9bc 9014 c43b 6006 91bc
000000b0: f67a 93bc 8728 13bc 022c 22bd c861 c33c
000000c0: 8e74 293d dabb b2ba e8fd 873b ad2f 3ebd
000000d0: d572 973b 0406 853c 1cf6 123d ad13 0dbb
000000e0: eab7 d03c b8a9 4abd 738c 91bc 9c0a 9c3c
000000f0: 6ef3 6abc aa1b 773c bd13 323d e8d7 db3b
00000100: cf96 f7bb 0e53 2bbd 2660 fd3c cc05 23bd
00000110: 38dd 7c3c 5fdd 43bc 30c3 ae3c b8ab 033d
00000120: 37a0 8d3c ba47 103d 875f 3c3d 021f 273d
00000130: 7061 f03c 3747 8bbc 05cd a93c c0ae f2bc
00000140: 2d7f 363d ac23 17bc 7c48 153c 3aa8 9dbc
00000150: e8f5 99bb 79ff 2ebd 729d 4a3c a74f 34bc
00000160: 9f89 25bd 855b 2bbd bfd1 493c 4f53 ddbc
00000170: 703b b0b9 96eb 5bbc 69bd 0d3c 807c 5cbb
00000180: af99 5abb 63e7 1dbb ba43 953c 7209 b23b
00000190: 9dd5 38bd b6d5 223c 624a eebc 638e 983c
000001a0: 969e 2abd 35a1 853c e5cf 123d 7e93 20bd
000001b0: 8a4a 3f3d 2e8a 08bd 9f3d b83c 2349 f9bc
000001c0: 9672 2cbd b829 0bbd 3414 5f3b 8df2 6bbc
000001d0: 056d fdbc bca2 d23b 8e6c d63c 8496 4d3d
000001e0: e18c 293d 793b 2fbd ded0 2ebd 6784 493d
000001f0: c2fa b137 d4b2 353d c3b2 a0bc be09 c73c
00000200: 62bf bbbc bbd2 1b3d 6183 dcba c736 c33c
00000210: 0177 983b c195 04bd d875 8e3b a97a 58bc
00000220: da5a 2e3d b35f 11bd fb9e 1d3d 2ff0 b6bc
00000230: cf34 493c a3a0 d93b 79ff 2cbc 7cff f5bc
00000240: 6bb1 febb c923 40bd 4220 bbbc f9c5 423c
00000250: 2c3f f9bc 8dc4 203b cc0a f53b 8512 07bd
00000260: ab3f 2dbd 62c1 37bd cc66 08bd e856 00bd
00000270: abaa 3abb bfe0 303d 423b 053a 84bb e83c
00000280: 498c 42bd c2f7 35ba 00ab 2e3c abcd 0e3d
00000290: 807c 24bd bfd6 0b3d 7f0d 1f3d 695d 3bbd
000002a0: e900 d5bc cd8c c5bc 0868 0a3d 610a 5ebd
000002b0: 05d7 383c 90d6 373d 1dc4 01bd 1fd5 fd3c
000002c0: 9e48 e43b 6b47 853b ddca 39bd 8659 8fbc
000002d0: 60f7 813c 10de 10bd b919 123c 2310 edbb
000002e0: 7a86 e63c 71c0 213b 30a3 e7bc db0c 36bd
000002f0: 2d14 abbc 49a8 283d 999f 3bbd 74a3 363b
00000300: 9c95 93bc e4d7 03bd 3014 99bc 53b4 40bd
00000310: 8a31 2fbd 2162 1bbd 6808 0b3d 5700 cbbc
00000320: dd12 e7bc 9359 cf3c 32a9 30bc a2d5 083d
00000330: 266c 383d 9fcb a4ba 1ad5 6e3b 39f7 703c
00000340: 997d 2abd a248 8ebc c0f8 693c 31ad d1bc
00000350: be9d 22bd 3231 f13b 7b88 8e3c 39c1 86bc
00000360: 8e09 9ebc 1d76 483b 0c84 89bc ea39 89bb
00000370: a011 063d c54b 35bd 3dae 723c 87d8 1a3d
00000380: 4722 4bbd 2a47 143d 0035 b2bb 6a22 1bbd
00000390: 49f2 403c 7962 c43b 2435 e53c deaa 103d
000003a0: 0a30 99bc 5f94 0f3d 359b b13c 19a4 4b3c
000003b0: 7322 a5bb 3c31 2c3d f77c 94bc f9b1 d93c
000003c0: c6e2 9b3c dc79 083d 431a 00bd a8b6 8a3b
000003d0: cc90 163d 0406 1ebd 52e3 54bd 18ee 3c3d
000003e0: 9106 52bd bbb1 ff3c 8fe6 d1bc 0e28 17bd
000003f0: 2738 0a3d 3eb4 17bd ce3f be3c 3e45 fe3c
0.014734775 0.022164049 0.040990453 -0.032000605 0.006413022 0.006733898 -0.05074704 0.03288269
-0.010724408 0.030205788 0.014380612 -0.008744171 0.0054621706 -0.026451213 -0.0313994 -0.044192918
-0.011603246 0.036135495 -0.040949848 -0.01574207 0.0006313632 0.022621162 -0.043447163 0.020446096
-0.019144582 0.0019827236 0.0035548073 -0.033370458 -0.03325162 -0.0034603798 -0.026446441 -0.012807887
-0.001616406 -0.038177848 -0.038781345 -0.004525116 0.007280759 -0.039303552 0.032461185 0.002059487
0.0036913052 -0.024641016 0.0059838966 -0.017703235 -0.018002968 -0.00898183 -0.03959275 0.023850337
0.04137092 -0.0013636306 0.004150141 -0.046432186 0.0046218433 0.01623822 0.03587924 -0.002152662
0.025478322 -0.049478263 -0.017767167 0.019048028 -0.014340265 0.015082279 0.043475855 0.0067090876
-0.0075558196 -0.041827254 0.030929636 -0.03980045 0.015433602 -0.011954634 0.021333307 0.032146186
0.01728831 0.035224654 0.04598954 0.040801056 0.029343337 -0.017001731 0.020727644 -0.029624343
0.044554878 -0.009224813 0.00911152 -0.019245256 -0.0046985038 -0.042724106 0.012366639 -0.011005319
-0.04041445 -0.041835327 0.012318074 -0.027017264 -0.0003361362 -0.013422867 0.008651116 -0.0033643544
-0.0033355763 -0.0024094216 0.018220771 0.005433255 -0.045125592 0.009938648 -0.029088203 0.018622583
-0.041655146 0.016312221 0.035842795 -0.03920316 0.046701945 -0.033334903 0.02249032 -0.030430382
-0.042101465 -0.033975333 0.0034039142 -0.01440109 -0.030935774 0.006428091 0.02617481 0.05019237
0.04139412 -0.042781327 -0.04267966 0.049198534 2.1216812e-05 0.044359997 -0.01961649 0.024296638
-0.022918407 0.038042765 -0.0016823822 0.02382983 0.0046528582 -0.03236938 0.004347544 -0.013212838
0.04256711 -0.035491657 0.038481694 -0.022331325 0.012280657 0.006641464 -0.010558956 -0.030029051
-0.0077726147 -0.046909127 -0.02284253 0.011888021 -0.03042563 0.0024531216 0.0074780937 -0.032976646
-0.042297047 -0.04486216 -0.03330116 -0.03133288 -0.0028483074 0.043183085 0.00050823775 0.028409727
-0.047497068 -0.0006941521 0.010660887 0.03486411 -0.040157795 0.034140345 0.03883123 -0.04574338
-0.02600141 -0.02411499 0.03379062 -0.054209117 0.011281733 0.044882357 -0.03168117 0.030985413
0.0069666645 0.0040673516 -0.04535948 -0.017498743 0.015865028 -0.035368025 0.008917266 -0.0072345897
0.028140295 0.0024681354 -0.028276056 -0.044445854 -0.020883644 0.041176114 -0.0458065 0.0027868422
-0.018015675 -0.03218831 -0.018686384 -0.04704697 -0.042771854 -0.03793538 0.033943564 -0.024780435
-0.028207237 0.025311267 -0.010782527 0.03340686 0.045025013 -0.0012572891 0.0036442936 0.01470738
-0.041623686 -0.017368618 0.014280498 -0.02559528 -0.039701216 0.007360601 0.017399063 -0.016449558
-0.019291665 0.003058798 -0.016786598 -0.004187812 0.032731652 -0.044261713 0.014812049 0.037804153
-0.049593236 0.03620068 -0.005438447 -0.037874617 0.011776515 0.005993184 0.027979441 0.0353192
-0.018699665 0.035053607 0.021680454 0.012429261 -0.005039507 0.04203914 -0.018125994 0.026574122
0.019029032 0.03331934 -0.031275045 0.0042332 0.036759183 -0.038579956 -0.051974602 0.0461255
-0.051275793 0.031212678 -0.025622634 -0.036903434 0.033744957 -0.037037127 0.023223784 0.031038877

fc1.bias f4 [120]
00000000: 0665 d7bc 232a d63c 0320 7d3c 4e78 493d
00000010: 4d4c 6d3e e4bd 8d3c a43e 963b 1edd 54bd
00000020: f906 f33c 5ee2 723b c6ac acbb 0aea 633e
00000030: 488f 2e3d 6317 14bd c5b6 12bc 3dd0 a1bd
00000040: d1a6 7b3d fc9a a9bd 4062 bc3d fc04 a33d
00000050: e8c9 6dbc 20a4 82bd 9070 22bd 3f12 61be
00000060: ce1a 13bd 2200 6dbd 0b83 eb3c 9cdc 84ba
00000070: fe99 86bd 83df c93d 41de 653e 9a87 a0bc
00000080: e584 8b3d 84e6 9ebd 7dc6 e5bc fb8b 183d
00000090: 2e64 58bd 199b 00bd 9c52 213e 874e 77bc
000000a0: e329 ec3c 298f 7f3a a352 eabd d9fe 913d
000000b0: 21cd 69bb fb29 cabd ba03 033e 69da c6bb
000000c0: 65df a0bc 7cb0 49bd 1173 32bd 7637 c73d
000000d0: b77a 4c3d b436 883d 8aa0 cabc 85c6 473c
000000e0: 2632 6d3d 8642 8c3c a4b5 04be 56e9 163e
000000f0: ed0a ae3d 48a7 a5bb 5ce9 433d 1c24 e13c
00000100: 0f11 ca3c 92ce 0fbc 3638 81bd e759 7c3d
00000110: 5917 c33d 9d7f ed3d 327b b23d dab8 e8bb
00000120: f06b 003d f914 0e3e 7d24 bdbc 974a bd3d
00000130: ac21 54bd 0686 83bc 16bd 9dbd db1d 91bc
00000140: 45a7 23bc d865 453d cc0c df3c 6dcb b83d
00000150: dc91 013d 8669 393e 27b6 003d be4a 093b
00000160: 9541 1bbd 5e33 1fbc 17fc 2f3e c0b5 1dbd
00000170: 1a22 86bc daf5 213e 9242 ee3c bda8 25be
00000180: 7ddc 90bc d7a2 ee3b 2f28 82bd 56f1 dcbb
00000190: eff1 583d bfa5 b43b 5ff7 85bd 5607 ccbb
000001a0: fe46 d73c 53cb bd3d 5c00 c3bd 0985 4bbd
000001b0: c275 ad3d d36a d73d 57d0 043e ea2f ed3d
000001c0: ab1c b8bc 637a 3b3d b7b0 e13c f3b1 313c
000001d0: 19ea 3d3e b2b9 78bd 505f 40bd ffd2 8e3d
-0.026293289 0.02614314 0.015449527 0.049186997 0.23173638 0.017302461 0.004585104 -0.051968686
0.02966641 0.0037061195 -0.0052696196 0.22257248 0.042617112 -0.036155116 -0.008954708 -0.079010464
0.061438385 -0.08281514 0.09198427 0.07959935 -0.01451347 -0.063789606 -0.03965813 -0.21979617
-0.035914235 -0.057861455 0.02874901 -0.0010136547 -0.065723404 0.098570846 0.22448064 -0.01959591
0.06812457 -0.07758811 -0.028048748 0.03724287 -0.052829914 -0.031397913 0.15754169 -0.015094406
0.028828567 0.00097488106 -0.11441543 0.071286865 -0.0035675245 -0.098712884 0.1279439 -0.006068517
-0.019637773 -0.049240574 -0.043566767 0.09727375 0.049921717 0.06651059 -0.024734754 0.012193327
0.057909153 0.017121565 -0.12959915 0.14737448 0.08498178 -0.005055342 0.04782997 0.027483039
0.024666337 -0.008777278 -0.063095495 0.061609175 0.095259376 0.11596606 0.08714904 -0.007102114
0.031352937 0.13875188 -0.023088688 0.092427425 -0.051789925 -0.016055118 -0.07702081 -0.017714432
-0.009988611 0.04819283 0.027227782 0.090231754 0.031633243 0.1810666 0.031423714 0.002094909
-0.03790434 -0.009716837 0.17186008 -0.03850341 -0.016373683 0.15816441 0.029084478 -0.1617765
-0.017683262 0.0072825956 -0.06355321 -0.0067426367 0.0529651 0.0055129225 -0.06541323 -0.0062264604
0.026278969 0.09267297 -0.09521553 -0.04968742 0.08469726 0.10518422 0.129701 0.115814045
-0.022474607 0.045771014 0.027550085 0.010845649 0.18546332 -0.060723968 -0.046965897 0.06973838

fc2.weight f4 [84, 120]
00000000: 30e7 efbc e407 d1b7 3cab 243d 81e6 9abd
00000010: 5afd 833b deea a93d 0830 48bd b10c b8bd
00000020: 182c 5a3a 7545 6dbd c8ea 863d 538b a8bc
00000030: c98d bd3c 57f2 aa3d a009 bf39 9d09 89bd
00000040: 0a43 883d 2242 5fbd 4b57 b13d 0434 933d
00000050: 725a 6bbd 9746 9c3d a29b 92bd ef35 c0bc
00000060: 5973 473d 5c73 1a3d bd0d c63d 0dc7 7a3d
00000070: eb03 0ebd 0195 573d 9623 c5bd 904f 4abc
00000080: 98f2 ac3d 207a 093c 1a6c 7e3d 144d 9dbd
00000090: 5bbe 82bc 0a3c b2bd ee2f cb3d 7acd 1dbd
000000a0: 763a c13d 6cbf 6ebc 81cf cdbd 114e c73d
000000b0: d240 503d 11d0 043e e3e7 4d3d bfc9 013d
000000c0: 7c00 95bd 95ba 18bc c982 ab3d c7ea cc3c
000000d0: 41e7 90bd f5e9 adbd a2e9 29bd 063f 81bc
000000e0: 6e29 a93d 31af adbd f879 4f3d 3fdd 77bd
000000f0: 4e0c 043d 8453 2a3b 2e90 e8bd 4ee6 b73d
00000100: fc30 a33d b352 b73d 195c a9bc d9b8 a03d
00000110: 9a01 163d b200 6d3c 1194 593d 7799 233d
00000120: 36b7 62bd 0938 8c39 8cb7 8abd ea2d b23d
00000130: 5886 5d3b e34a d8bd a50e 84bd 4bf4 37bd
00000140: 6977 3e3d fcca 88bc ef39 4bbd 2319 c13c
00000150: 3266 fcbc 6a5f b63d e074 b53c c5e3 863b
00000160: 4613 4c3d f3d5 963c 6fd2 83bd 9de9 4bbd
00000170: 1289 0dbd 5d88 cc3d 1fdd 65bd 69eb 86bd
00000180: 4cf2 9c3d c91e 8c3d 5a6d ebbc cc6e 88bd
00000190: 74f9 853c cf2a 41bc dc4e d4bd cefe 7f3d
000001a0: ce0f c6bd 432e 893d 20ff 85bd 558c 44bd
000001b0: 0006 943c dc13 c6bb 9839 843d fea0 513d
000001c0: 8693 f0bc 6662 8cbd 6244 a3bd d53f a43d
000001d0: a6b0 57bd 5d3d 0ebd 9424 6d3d 8d25 b0bd
000001e0: 088e 733d 555a a93b d080 9abd 9c02 a23d
000001f0: 5336 133d f306 c8bd 8f96 73bd ec2f a5bc
00000200: 2f5e 7d3d 46dc 54bd ad61 ddbd ffac bdbc
00000210: 37b3 fcbc 5f24 05bc cc57 7abc 8b29 85ba
00000220: 5d6b a6bc bfae 683d 4296 4f3c d73d 11bd
00000230: 579c 0b3c f85a 88bc 6602 8a3d 41bb 093e
00000240: c212 a13d d6ad 9dbc befa b7bb dd01 b43d
00000250: faaf 5c3a b581 ccbd 9f27 62bc b002 48bd
00000260: c80b 033b 2774 26bc 2206 0a3d 8f12 2cbc
00000270: 4244 4c3d fbee af3d 8ee5 703d 4878 54bd
00000280: 9c9e 97bd 5b12 3b3c 2427 ebbc 12ed b7bd
00000290: 9d8e 00be d276 2d3d 07de 0bbe 832c 413d
000002a0: 9de1 6cbd 130d 4dbd c1bd 823d 9247 dcbd
000002b0: afb3 6c3d d4ac 2d3d 6a4b 02bd 2c15 dc3d
000002c0: 6634 babd 45c1 be3d a03d 833d 3baf 9c3d
000002d0: 45be ab3c 8c7b f33c 4ebb 363d 90da 3bbd
000002e0: a03d dc3c ca10 a73c 0c15 063d ae71 c2bd
000002f0: 3e8b d33d b055 f13c cdd1 11be de63 653c
00000300: 2915 a0bd a760 cc3d 8d97 203c bde1 b53d
00000310: 46d7 d23d a55d c83c a477 033e 3194 7a3d
00000320: 6eaa 03bc e9ee 6cbd cd17 a83d 42a4 bf3d
00000330: 3c8d fdbc d738 6abc 0cd5 993d 3652 fc3d
00000340: 1426 9f3d b876 9f3d f647 303c 9930 223d
00000350: 86e7 2d3d d078 803d 3b3f 023d 2725 3e3d
00000360: b6c2 343d e1cc e0bd d9eb cb3d 8947 58bc
00000370: 5211 6fbc dd16 a13d fb49 1a3d 954e 373d
00000380: fc5d 24be 7716 823d 6780 c8bd 099d 31bd
00000390: 4a78 623d ff31 853d 8038 ee3d 31fd 113e
000003a0: b602 d3bd 85fa f23c 3369 74bc bca8 ccbd
000003b0: 8a2e 5cbd 7724 13bd 99e7 653d b064 903d
000003c0: 0eef 113d 8f71 74bd 7087 17bd f7e2 6b3d
000003d0: 8b93 e83c 448c c23d be3f c9bd af2f aebc
000003e0: e32e 2f3d 9a9c 813d 4082 22bd a0bb 75bc
000003f0: 10e7 023d 84d4 6ebd f15d 76bc c2c0 733d
-0.029285043 -2.4918416e-05 0.040202364 -0.075634964 0.0040280046 0.082967505 -0.04887393 -0.08986796
0.00083226105 -0.057927568 0.0658775 -0.020574247 0.023138897 0.08347004 0.0003643753 -0.06691287
0.06653412 -0.05450643 0.08659228 0.071876556 -0.057459302 0.076306514 -0.07158591 -0.023463218
0.04869399 0.03770767 0.09670589 0.061224986 -0.034671705 0.052632336 -0.09625928 -0.012348071
0.084447086 0.008390933 0.062114812 -0.07680717 -0.01595991 -0.08702858 0.09921251 -0.038526036
0.09434979 -0.014572006 -0.10049344 0.09731687 0.050843067 0.12969996 0.050269973 0.03168654
-0.07275483 -0.009321828 0.08374555 0.025014294 -0.07075358 -0.084918894 -0.041482575 -0.015777122
0.08259855 -0.08480681 0.050653428 -0.06051373 0.032238297 0.002598972 -0.11355625 0.08979474
0.079683274 0.089513205 -0.020673798 0.07847757 0.03662262 0.014465498 0.053119723 0.039941277
-0.055350505 0.0002674463 -0.0677329 0.08700164 0.0033802 -0.105611585 -0.06448106 -0.04491071
0.046500597 -0.016698353 -0.049615797 0.023571556 -0.03081045 0.089049175 0.022150457 0.0041165077
0.049823068 0.018412566 -0.064366214 -0.049783338 -0.03455455 0.09986947 -0.05611908 -0.0658787
0.07663402 0.06841809 -0.028738666 -0.06661758 0.0163543 -0.0117899915 -0.10366604 0.06249886
-0.09670983 0.06698277 -0.06542802 -0.047985394 0.018069267 -0.006044848 0.06456298 0.051178925
-0.02936722 -0.068547055 -0.07972027 0.080199875 -0.0526587 -0.03472649 0.05789621 -0.08600912
0.059461623 0.005168239 -0.075441 0.07910654 0.03594048 -0.097669505 -0.059469756 -0.020164452
0.0618574 -0.05196788 -0.10809646 -0.02315378 -0.030847175 -0.008126347 -0.0152797215 -0.0010159475
-0.020314867 0.056807276 0.012670102 -0.035459366 0.008521161 -0.01664494 0.06738739 0.13450338
0.07864906 -0.01924793 -0.0056146076 0.08789418 0.00084185565 -0.09985677 -0.013803392 -0.048830688
0.0019996036 -0.010159529 0.033697255 -0.010502472 0.049869783 0.08590504 0.05881267 -0.05187252
-0.07403299 0.0114179505 -0.028705187 -0.089807644 -0.12554403 0.042349644 -0.13658915 0.04716159
-0.05783235 -0.050061297 0.06383849 -0.107558385 0.057788547 0.04240115 -0.0318102 0.10746226
-0.090920255 0.09314207 0.064082384 0.0765061 0.020964751 0.029721998 0.04461222 -0.045862734
0.026884854 0.020393748 0.032734916 -0.09494339 0.10329293 0.029459804 -0.14240189 0.014000861
-0.07816536 0.099793725 0.0098017575 0.08880947 0.102949664 0.024458716 0.12838608 0.061176483
-0.008036239 -0.05784503 0.08207665 0.093575016 -0.030951135 -0.014295778 0.075113386 0.12320368
0.07770935 0.07786316 0.010759344 0.039597128 0.042457126 0.06273043 0.031798583 0.04642215
0.044131003 -0.109765776 0.09957094 -0.013200649 -0.014591532 0.07865689 0.03766821 0.044752676
-0.16051477 0.06351941 -0.09790116 -0.04336265 0.055290498 0.065036766 0.1163187 0.14256741
-0.103032514 0.029660473 -0.01491766 -0.09993121 -0.05375532 -0.035923447 0.05612907 0.070504546
0.03562837 -0.05967861 -0.036994398 0.057589497 0.028390666 0.0949941 -0.09826611 -0.021262972
0.042769324 0.063286975 -0.039674997 -0.014998347 0.03195864 -0.05830814 -0.015037046 0.05951

fc2.bias f4 [84]
00000000: 265a 403d 819f 0ebd eb7b 3abd 7611 1dbe
00000010: fcb0 adbd ca54 343e 495e 7a3d 44d8 4f3e
00000020: 5658 16be c446 263e fece f3bd 2ad3 91bd
00000030: ff2a 3d3d 7448 403e f7cd 4f3e 9232 57bd
00000040: 7cf9 b83d 5277 403e b0c0 be3e 3815 783e
00000050: 0ba6 a43d e8a3 863d 9959 47be 8b32 8e3c
00000060: 9da4 a53c 9481 4c3d 90f6 523e 0abb 003e
00000070: a07b c2bd 96bc 58bc ab6e e33c a8fd a33d
00000080: d102 65bc 7b8c 343e e2f2 efbd 0f23 eb3c
00000090: e7cd 653d 675f 753d f5c1 e23b cff9 493d
000000a0: 3f2b 5e3e 3bce 6a3d 3942 c5bd 988d ec3c
000000b0: e8e5 f43c 4b78 da3d b2e3 a73e a05d 79bd
000000c0: 1e63 a9bd 668a 74bd ecf8 85bd eeed 2d3e
000000d0: af13 3c3e afff 2f3e 95d2 d63d 3fc3 943b
000000e0: 01e8 91bd 9059 88bd 2a2a cdbd 9f70 c53d
000000f0: e68e 483e a8f7 ec3d c661 183d 459a 013e
00000100: 8b59 083e 6fba 8e3e 29de 83bd b13a 31bd
00000110: 9a1d da3d 56b9 fa3d 978e d2bd 5ca3 aa3d
00000120: 154d d2bd 63eb 863d f317 06bd d30b 843d
00000130: f954 d03d 5bae 0c3d c732 843e 1d22 b83e
00000140: 2533 0c3d cf70 303e 651c 903d 415a f7bc
0.046960972 -0.034820084 -0.045528334 -0.15338692 -0.08481023 0.1761047 0.061125074 0.20297343
-0.14682135 0.16237932 -0.11904715 -0.071203545 0.046183582 0.18777639 0.20293413 -0.052538462
0.0903196 0.18795517 0.37256384 0.24226844 0.08039483 0.065742314 -0.19467773 0.017358085
0.020220095 0.049928263 0.20601869 0.1257135 -0.09496236 -0.013228556 0.027762732 0.080073655
-0.013977722 0.17631714 -0.11716248 0.02870324 0.056104567 0.059905436 0.006920094 0.0493105
0.21696185 0.057325583 -0.096317716 0.02887611 0.029894784 0.10667475 0.32790905 -0.060880303
-0.08270858 -0.0597023 -0.06541619 0.16985294 0.18366884 0.1718738 0.10489384 0.0045398767
-0.07124329 -0.06657708 -0.10017808 0.096406214 0.19585761 0.11570674 0.03720262 0.12656505
0.13315408 0.27876613 -0.06438858 -0.043268863 0.10650177 0.12242381 -0.10281103 0.083319396
-0.102686085 0.06587865 -0.032737684 0.06447568 0.10172457 0.034345966 0.2581999 0.35963526
0.034228463 0.17230533 0.07036666 -0.030194404

fc3.weight f4 [10, 84]
00000000: 40d7 13bb 204e e93d 0072 ab3d 62d4 8e3c
00000010: 1839 413e 0103 37bd 0ab4 363d 1d81 9fbe
00000020: 208a 043e 9163 4ebe d50b d03d d233 7abd
00000030: ff7f e03d d974 45be ad1b 81be 5998 51bd
00000040: 83ee 273e 26bc 863e cb73 96be adc3 993e
00000050: d863 043e 3962 433d fd24 25bd 1585 ad38
00000060: 5d3c fcbc 756d 7bbd ef4d f93b 3460 a73d
00000070: 3875 3d3e 194d 113d 109f fdbd 8e05 edbd
00000080: b2d1 f0bd 1dfb 16bc b61d 09be d5ad a93c
00000090: 95e2 383b e741 0dbe 95c0 e7bd 1d63 e5bb
000000a0: ccf6 41be e4e5 c2bd 0a08 a33d f368 a7bc
000000b0: fa45 243e f968 333d c83f 4cbd 01c6 babd
000000c0: 5862 5f3e b2a7 d2bd 8993 d8bd e42e babc
000000d0: ccb2 e4bd 8691 3a3e 8b5b 013d ab9b 923c
000000e0: 5b02 98bd 546f 773e ee9c 773e ec12 5b3e
000000f0: 4522 c5bd d0d1 0f3e 709f 8c3c 89db cbbb
00000100: 0bf2 70bb 5f86 1ebd 4398 e3bd f1ae 1dbe
00000110: d742 a33d 1b96 0e3d 2614 73bd 0ae0 693d
00000120: e888 d7bc cdc3 8e3e 1280 da3d f6bb 02be
00000130: 3076 2e3e b855 56bc b60d 0abe 9f04 cd3c
00000140: 133e ed3d d15f 8ebe 343a 48bc 9fec 043e
00000150: 38c2 c6bb 7792 3c3e 1290 bf3d 1a8e 3a3e
00000160: 1327 503e 13f5 94bc c12a e1bd 2e93 ad3d
00000170: 5869 d13d 23f0 a13d 2db5 953e b55d 423e
00000180: 4983 86bd 0011 cbbd 1b0f a1be c97e bebd
00000190: 1ed2 7a3d 79ff 493d d009 43be e3f4 40be
000001a0: 168d 2cbe 0d4e c4bd 6831 243e 550a 583c
000001b0: 7140 113e 37a0 293d 3f63 d6bd 2d18 d439
000001c0: 2d47 a0bc 088d 27be 189e c5bd 98ec 50be
000001d0: 0bb1 4b3d 1e75 8cbd 9baf ff3d 6c93 a93d
000001e0: 4508 9b3e 6dbe 6bbd 194f d13d d096 06be
000001f0: b20d 3cbe 054e ce3d 9c87 bd3d b683 ddbd
00000200: f56d 033b a9e3 4d3e 88ac 87be c85a 5a3d
00000210: d241 813e b7bf a73e 7bc5 5fbd 9ab2 48be
00000220: 265a 003e 394c 83be 51ed 64bd db57 9a3d
00000230: 5c9b a2bb 7068 7a3e a00e 113e 22f8 22be
00000240: 54e2 433d c91f 79be a179 83bc a179 01be
00000250: 1c80 3a3e 7607 d2be d0b7 4dbd ae65 d53d
00000260: 3af6 b43d 3930 eb3d 5e6d 973e b3b6 04be
00000270: 5a9c cfbd 1053 2f3d 6b0b 223c 5b31 343e
00000280: 5d68 11be 0cd1 99bb 8deb 2abd 5555 f1bd
00000290: 3006 44be c1b4 c7bd 53bb 3fbe 9c94 fdbc
000002a0: e706 363e f1c9 eabd 52c5 2a3d 0d1c e03d
000002b0: 9e52 1fbe aca9 963d e154 96bd e1d2 e73a
000002c0: 79e1 69bd 52d9 e03d f8cc 8a3b 226e 793c
000002d0: d780 483e 76a3 a8bd 2781 42bc 0d11 5bbd
000002e0: b326 853c 2175 eb3d d59c d93c 671d 883e
000002f0: 5849 87bd 6373 f8bd 7af4 0fbe 632c 00be
00000300: 414d bbbd 6dfa 993d ecb1 a83e cbca afbd
00000310: b091 7abd f008 ab3d 837d e0bd d10f fc3d
00000320: 2a1a d2bd b377 e53d 2722 9d3d b1eb ca3c
00000330: 61b8 71be e251 11be 44eb 95bc 6470 a7bb
00000340: e06e 313e ef31 a53d 3d42 eb3d 95e8 a5bc
00000350: f02b 003c 9820 0abe d8e4 743e 12d3 e1bc
00000360: 616f 98bd b11a 2cbe 0924 053c 889d e53d
00000370: 5ebe e2bc a52d d93c d4d8 e83c b4b5 f33b
00000380: 8f9f ff3c d021 c23d 02ee d43d 31fa c73c
00000390: e82f 3b3e 6fb8 12be 9548 7d3d 230c e8bd
000003a0: f61e 493d 1688 513e a9c1 bb3c 0ead 4a3c
000003b0: 53ac b5bc 381c 3cbe 58a2 c1bd 0dac 503c
000003c0: 4657 c9bd 2329 e7bd 3177 23bd daa4 4d3d
000003d0: 47a8 bf3d a24a 17bc 6eb2 823d 737b 373e
000003e0: 0afd 4c3d 4836 08be 823b 503e 3efa a8bc
000003f0: 25bb 74bd 94a4 2fbe 995a f23b 6337 45bd
-0.002255872 0.11391854 0.08371353 0.017435256 0.18869436 -0.0446806 0.044605292 -0.31153193
0.12943316 -0.20155169 0.10158507 -0.061084576 0.10961913 -0.19282855 -0.25216427 -0.05117068
0.16399579 0.2631542 -0.29385218 0.300321 0.12928712 0.047701094 -0.040318478 8.274071e-05
-0.030790502 -0.061383683 0.0076081674 0.08172646 0.18501747 0.035473917 -0.123838544 -0.11573325
-0.11758746 -0.0092151435 -0.1339024 0.020712772 0.0028211225 -0.13794671 -0.11316029 -0.0070003406
-0.18941802 -0.095165044 0.07960518 -0.020435786 0.16042319 0.04380128 -0.049865514 -0.091197975
0.21814859 -0.102858916 -0.10575015 -0.022727437 -0.11166915 0.18219575 0.031581443 0.017896494
-0.07422324 0.24163562 0.24180958 0.21393937 -0.09625677 0.14044881 0.01716587 -0.006221239
-0.0036765363 -0.038702365 -0.11113026 -0.15398766 0.07971733 0.03481112 -0.059345387 0.057098426
-0.0263104 0.2788376 0.10668959 -0.12767014 0.17037272 -0.01308196 -0.13481793 0.025026618
0.11584105 -0.27807477 -0.012220908 0.12980889 -0.006065633 0.18415247 0.09353651 0.1821827
0.20327406 -0.018183267 -0.10994483 0.08475338 0.10225171 0.079071306 0.2923979 0.18981059
-0.065680094 -0.09915352 -0.31456837 -0.09301526 0.06123554 0.049315903 -0.19046712 -0.18843417
-0.16850695 -0.095851995 0.16034472 0.013186057 0.14184739 0.04141256 -0.104681484 0.00040453803
-0.01956519 -0.16362393 -0.096492946 -0.20402753 0.04972939 -0.06858276 0.12484666 0.082800716
0.30279747 -0.05755465 0.10220165 -0.13143468 -0.183646 0.10073475 0.09254381 -0.108161375
0.0020054553 0.20106377 -0.26498818 0.053309232 0.2524553 0.32763454 -0.05463169 -0.19599381
0.12534389 -0.2564409 -0.055890385 0.07536288 -0.004962368 0.24453902 0.14165735 -0.15914968
0.047823265 -0.24328531 -0.016049208 -0.12644054 0.18212932 -0.41021317 -0.050224125 0.104197845
0.088360265 0.11483807 0.29575628 -0.12960319 -0.101372436 0.042803824 0.009890418 0.17596953
-0.14199968 -0.00469411 -0.041728545 -0.11783854 -0.19142985 -0.09751273 -0.18723802 -0.030954652
0.1777607 -0.114642985 0.041692086 0.1094285 -0.1555886 0.07356581 -0.07340408 0.0017686748
-0.057099793 0.109789506 0.00423586 0.015224012 0.19580398 -0.08234303 -0.011871613 -0.053483058
0.016253805 0.1149695 0.026564041 0.26584932 -0.06605786 -0.12131383 -0.14058104 -0.12516932
-0.091455944 0.07518468 0.32948244 -0.085836016 -0.061174095 0.08351314 -0.109614395 0.12307704
-0.10258897 0.112044714 0.0767253 0.02477059 -0.23605491 -0.14191392 -0.01830066 -0.0051098336
0.17327452 0.08066165 0.11487243 -0.020252505 0.0078229755 -0.13488996 0.23915422 -0.027566466
-0.07443119 -0.16807057 0.008126267 0.11211687 -0.027678665 0.026511023 0.028423704 0.007437432
0.031204013 0.094791055 0.10396959 0.024411293 0.18279994 -0.14328168 0.061836798 -0.1133044
0.049101792 0.20462069 0.022919493 0.012370361 -0.022176897 -0.1837014 -0.09454793 0.012736333
-0.09831099 -0.11287143 -0.03990859 0.050206043 0.09358268 -0.009234102 0.06381689 0.17918186
0.050046004 -0.13301957 0.203352 -0.020627137 -0.059748787 -0.17152625 0.007396054 -0.048148524

fc3.bias f4 [10]
00000000: ad98 f5bd 2396 fabe 1320 5c3e c4c3 9b3e
00000010: 26f1 0f3f 52a8 e8bd c638 233e ac80 a5be
00000020: dc6b bc3e 5c49 babe
-0.11992011 -0.4894267 0.2149661 0.30422795 0.5622734 -0.113602296 0.15939626 -0.3232473
0.3680104 -0.36384094
