lab1-LeNet/model/1019161655.pth (torch, 250887 bytes, 10 tensors)

conv1.weight f4 [6, 3, 5, 5]
0	0x3dd9779b	0.10618516
1	0xbdd7875e	-0.10523866
2	0x3e4f06c2	0.20217422
3	0xbe611c71	-0.21983506
4	0x3e7a1897	0.24423443
5	0xbd0e250b	-0.034703296
6	0xbe87d151	-0.26526883
7	0x3f3ecde3	0.7453291
8	0xbf0e3358	-0.55547094
9	0x3d11fa82	0.035639293
10	0xbe4804a2	-0.19533017
11	0xbe799148	-0.24371827
12	0x3f93d089	1.1548015
13	0xbef12aef	-0.47103068
14	0xbeaf1549	-0.34195927
15	0x3e0848cf	0.13309024
16	0x3eaa7256	0.33290356
17	0x3f1a9a94	0.6039212
18	0xbf82a646	-1.0206993
19	0xbdd5d592	-0.10441126
20	0x3f10f7f3	0.5662834
21	0x3cc993d7	0.024606628
22	0xbcc2a6b3	-0.023761129
23	0xbe52e9c3	-0.20596986
24	0x3f16385f	0.58679765
25	0x3deec2c0	0.11658239
26	0xbd770987	-0.06031182
27	0x3f04a0fc	0.5180814
28	0xbeb2c0d5	-0.34912744
29	0x3dc2d39b	0.09513017
30	0x3dcc4566	0.09974174
31	0xbddce913	-0.10786643
32	0x3f731b20	0.94963264
33	0xbeaaeb98	-0.3338287
34	0xbb759482	-0.003747255
35	0xbe0d9342	-0.13825706
36	0xbdd6a276	-0.10480206
37	0x3f8f6bb4	1.1204743
38	0xbef1d25a	-0.47230798
39	0xbeb1e34a	-0.3474372
40	0x3dc55122	0.096346155
41	0x3ec345d3	0.3813921
42	0x3f36c691	0.7139674
43	0xbf593640	-0.84848404
44	0x3cdeda29	0.027203636
45	0x3e85a0bf	0.26099202
46	0xbc832915	-0.0160108
47	0xbd86b970	-0.06578338
48	0xbe492f9f	-0.19647072
49	0x3e7330b0	0.23749042
50	0xbe90ceb6	-0.28282708
51	0xbec0e69a	-0.37675935
52	0x3d9291e3	0.07156732
53	0xbec687e2	-0.38775545
54	0x3de56aac	0.11201987
55	0xbe0cd546	-0.13753232
56	0xbef863ed	-0.48513737
57	0x3f1650e0	0.58717155
58	0xbeb5b47c	-0.3548926
59	0x3d94cf53	0.072661065
60	0xbe8358f7	-0.25653812
61	0xbed21778	-0.4103353
62	0x3f815408	1.0103769
63	0xbec66772	-0.38750798
64	0xbdb16866	-0.086624905
65	0xbeae5608	-0.34050012
66	0x3dd90598	0.1059677
67	0x3ee285ae	0.44242615
68	0xbf425823	-0.75915736
69	0x3e0d9c98	0.13829267
70	0xbe586c25	-0.21135004
71	0xbee646dd	-0.4497594
72	0xbe886e52	-0.26646668
73	0xbe6df2b6	-0.23237118
74	0x3ed5ee4c	0.4178337
75	0xbe10c76e	-0.14138576
76	0xbdbc1ec7	-0.09185558
77	0x3db4addd	0.08822224
78	0xbbe2fb83	-0.006926955
79	0xbe32c590	-0.17458177
80	0xbc6e823a	-0.014557416
81	0xbe97b204	-0.29628003
82	0xbeae8d38	-0.34092116
83	0xbe1475ac	-0.14498013
84	0xbe406276	-0.1878756
85	0x3aad4482	0.001321927
86	0xbe3e332c	-0.18574208
87	0xbf21e1b5	-0.63235027
88	0xbeea4bd5	-0.4576098
89	0xbdf13479	-0.117775865
90	0xbcbdf3b0	-0.023187488
91	0x3e426a7f	0.18985938
92	0x3e3b86b2	0.18313101
93	0x3dadd739	0.08488316
94	0xbb176b2b	-0.0023104649
95	0x3e9da6bd	0.30791274
96	0x3efb4531	0.49076226
97	0x3f138784	0.57628655
98	0x3f084ecf	0.5324525
99	0x3ed70b5f	0.42000863
100	0xbde54377	-0.111945085
101	0xbe65fd90	-0.22460008
102	0x3da2da82	0.07951833
103	0x3ddbe692	0.10737337
104	0x3b9cda83	0.004786791
105	0x3d734825	0.059394974
106	0xbe763459	-0.24043407
107	0xbe537e5b	-0.2065367
108	0x3d1a861a	0.037725545
109	0x3d23aad7	0.039957847
110	0x3bfd8a26	0.007737416
111	0xbe2f6a6c	-0.1713044
112	0xbee83884	-0.45355618
113	0xbee884b5	-0.45413747
114	0xbdcec8ad	-0.100968696
115	0xbdec71ea	-0.11545165
116	0x3e099e99	0.13439406
117	0x3e57e89d	0.21084829
118	0xbbb2addb	-0.005452854
119	0xbe3cf540	-0.1845293
120	0x3d8ea5c9	0.06965215
121	0x3ec21fea	0.37914973
122	0x3f11b047	0.569096
123	0x3eb90a53	0.3614069
124	0x3e2f8850	0.17141843
125	0x3d47eeb5	0.048811633
126	0xbcfcb67c	-0.030848734
127	0x3e34c819	0.17654456
128	0x3e0243a5	0.12721117
129	0x3e776f70	0.24163604
130	0x3e618868	0.22024691
131	0x3b873cb8	0.0041271113
132	0xbe39d1bf	-0.18146418
133	0x3ddeb562	0.1087444
134	0x3e639e07	0.22228251
135	0x3e34254b	0.17592351
136	0xbe600089	-0.21875204
137	0xbed98b81	-0.42489246
138	0xbe8e82a5	-0.2783405
139	0x3cce697c	0.025196783
140	0xbe60dbcf	-0.2195885
141	0x3e001aa8	0.12510169
142	0x3d9f438a	0.07776554
143	0xbd64f189	-0.05589441
144	0xbeae4a7f	-0.3404121
145	0xbd68cea2	-0.056837685
146	0x3e61b8ba	0.22043124
147	0x3e7fe15d	0.24988313
148	0x3e8a8094	0.27051222
149	0x3bf2cec8	0.007409904
150	0x3ee17a99	0.44038847
151	0x3e30971f	0.17245148
152	0x3e186f57	0.14886223
153	0x3db2c1e9	0.08728392
154	0x3e17186d	0.14755411
155	0x3dc0c73e	0.094130024
156	0xbd9613aa	-0.07327969
157	0xbd2887c4	-0.0411451
158	0x3e2f1ded	0.1710126
159	0x3e201f6b	0.15636985
160	0xbcb1291d	-0.02162605
161	0xbea0e3e4	-0.31423867
162	0x3e53dac3	0.2068892
163	0x3e29d8f1	0.16586663
164	0x3e4a3660	0.19747305
165	0xbe9aac7d	-0.30209723
166	0xbd9f7317	-0.077856235
167	0x3e4e6a71	0.20157792
168	0x3e60c0bc	0.21948522
169	0xbd0c9ad6	-0.03432735
170	0xbe5c1954	-0.21494037
171	0xbd87cbe1	-0.06630684
172	0x3e155ac0	0.145854
173	0x3b404f97	0.0029344314
174	0xbd40e522	-0.047093518
175	0xbd711b0c	-0.058863685
176	0xbd9dc888	-0.07704264
177	0xbdf565a3	-0.11982276
178	0xbe046025	-0.12927301
179	0xbe2cd330	-0.16877437
180	0xbda77149	-0.08175904
181	0xbeab027d	-0.33400336
182	0xbe452fdc	-0.19256538
183	0x3c039563	0.008031222
184	0x3e32813b	0.1743211
185	0xbe8e5109	-0.277962
186	0xbeaa7eb2	-0.33299786
187	0xbd94bb76	-0.07262318
188	0x3e92ae63	0.28648672
189	0x3e454013	0.19262724
190	0xbea5571b	-0.3229302
191	0xbe3b65eb	-0.18300597
192	0x3e07159b	0.13191836
193	0x3e25be0e	0.16185781
194	0x3e23dab1	0.16001393
195	0xbdbe4f32	-0.09292449
196	0x3d18fcd7	0.037350502
197	0xbd9b4069	-0.07580645
198	0x3da89b3c	0.082327336
199	0xbd2fbd6e	-0.042905264
200	0xbe583e41	-0.21117498
201	0xbe476c9a	-0.19475022
202	0xbe6ae1d1	-0.22937705
203	0xbcb64811	-0.02225116
204	0x3e1fb6b0	0.15597034
205	0xbead871d	-0.33892146
206	0xbed22e58	-0.41050982
207	0xbe53c808	-0.20681775
208	0x3e7c04f4	0.24611264
209	0x3f04b6b9	0.5184131
210	0xbef70291	-0.48244146
211	0xbed24f1d	-0.41075984
212	0xbd6aa185	-0.057282943
213	0x3efe1c10	0.49630785
214	0x3ef5d033	0.48010406
215	0xbec74614	-0.38920653
216	0xbe4efbdc	-0.20213264
217	0x3e1b0ca7	0.15141545
218	0x3e63a997	0.22232662
219	0x3e901594	0.28141463
220	0xbd4f3cc4	-0.05059506
221	0x3e52a819	0.20571937
222	0x3e6c0a96	0.23050913
223	0x3e2db079	0.1696185
224	0x3e87d2f9	0.26528147
225	0xbeced937	-0.40400097
226	0xbe6b2863	-0.22964625
227	0xbdecd591	-0.11564172
228	0xbe0c7f4a	-0.13720432
229	0xbe3b26e9	-0.18276562
230	0x3a45c7a1	0.00075447006
231	0x3ed1422d	0.408708
232	0x3ecc8548	0.39945436
233	0x3e6d8e4f	0.23198818
234	0x3d258e34	0.04041882
235	0x3e8b7cda	0.27243692
236	0x3f0eb60a	0.5574652
237	0x3f13713a	0.57594645
238	0x3edb627c	0.42848575
239	0x3e8c3bba	0.27389318
240	0x3e51bfb6	0.20483288
241	0x3ed7b476	0.42129868
242	0x3eec3327	0.46132776
243	0x3ea7477d	0.3267173
244	0x3db5d056	0.088776276
245	0xbd928ea5	-0.071561135
246	0xbe22293e	-0.15836045
247	0x3dad2e67	0.08456116
248	0xbe00aba8	-0.12565482
249	0xbe9643a7	-0.2934849
250	0x3de6f156	0.112765
251	0x3c9c56a5	0.019084284
252	0xbbf5b7f4	-0.0074987356
253	0x3cd76394	0.0262926
254	0xbd361fcb	-0.044463914
255	0xbd216d24	-0.039410725

conv1.bias f4 [6]
0	0xbe43f8be	-0.19137856
1	0xbf2a8e69	-0.6662355
2	0xbe8e3896	-0.27777547
3	0xbf94406b	-1.1582159
4	0xbf330855	-0.6993459
5	0xbed58086	-0.41699618

conv2.weight f4 [16, 6, 5, 5]
0	0xbd97532d	-0.073889114
1	0xbe4e68d6	-0.20157179
2	0x3da3db57	0.0800082
3	0x3d861cef	0.065484874
4	0x3e46ad82	0.19402125
5	0x3de884a2	0.11353423
6	0xbeae61fc	-0.3405913
7	0xbb37faaa	-0.0028072991
8	0x3d808902	0.06276132
9	0xbcd94b81	-0.02652526
10	0x3e2d8ab3	0.16947441
11	0xbe1ace86	-0.15117845
12	0x3dbb1776	0.09135334
13	0x3d80faa9	0.0629781
14	0xbca02fbf	-0.019554017
15	0x3c94cbb2	0.018163536
16	0x3d2b9a66	0.041895293
17	0xbd905b93	-0.070487164
18	0x3d150f0c	0.036391303
19	0xbc56f43c	-0.013119753
20	0xbe60ae8f	-0.21941589
21	0x3de7d677	0.11320203
22	0x3db0aad7	0.08626335
23	0x3e81d662	0.25358874
24	0x3e301150	0.17194104
25	0x3cac0797	0.020999713
26	0xbddd4428	-0.108040154
27	0xbe415919	-0.18881644
28	0xbe555481	-0.20833017
29	0xbe8d2053	-0.27563724
30	0x3d780ac9	0.06055716
31	0xbdf99bd5	-0.12187926
32	0xbda22b23	-0.07918384
33	0xbe29a738	-0.16567695
34	0xbeaa70af	-0.33289096
35	0xbd925c8d	-0.07146559
36	0xbe2613b1	-0.16218449
37	0xbe6d48f3	-0.23172359
38	0xbe0c4f6d	-0.13702174
39	0xbe346540	-0.17616749
40	0xbddb884b	-0.10719355
41	0xbe2a4d0c	-0.16630954
42	0xbe515155	-0.20441182
43	0xbe49bbb0	-0.19700503
44	0xbdef7885	-0.11692909
45	0xbe6687d4	-0.22512752
46	0xbe3da245	-0.18518932
47	0xbddcc027	-0.10778838
48	0xbddf07e2	-0.108901754
49	0xbdc7cc99	-0.09755821
50	0x3e39a295	0.18128426
51	0x3e2cc301	0.16871263
52	0x3e8f94b2	0.28043133
53	0x3e4f548f	0.202471
54	0x3de38662	0.11109616
55	0x3e0c1300	0.13679123
56	0x3e1836b1	0.14864613
57	0x3da78b8f	0.081809156
58	0x3d1aa8ab	0.03775851
59	0x3bc12f3c	0.0058955234
60	0x3dd9890f	0.10621845
61	0x3def9d75	0.116999544
62	0x3c1dd656	0.009633621
63	0x3cd1c69b	0.025607398
64	0xbe145bfd	-0.14488216
65	0x3daa7dca	0.083247736
66	0xbd00f4b1	-0.031483356
67	0xbca5f17b	-0.020256748
68	0x3dad8139	0.08471913
69	0xbdbb0415	-0.09131638
70	0x3ddf78a1	0.1091168
71	0x3ddc5252	0.10757889
72	0xbd36382e	-0.04448717
73	0x3e34eaaa	0.17667642
74	0x3e7502bc	0.23926824
75	0xbd957673	-0.07297983
76	0xbdb1eb57	-0.08687466
77	0xbce1b7a6	-0.02755339
78	0x3cdd9d78	0.027052626
79	0x3e1d2ddc	0.15349525
80	0xbdbf4d63	-0.09340932
81	0xbd79de4d	-0.06100302
82	0xbd542dec	-0.051801607
83	0x3c4ea0db	0.012611593
84	0x3c90443f	0.017610667
85	0xbd8e212d	-0.069399215
86	0xbdcb3383	-0.099219345
87	0xbc2c3d1f	-0.010512619
88	0xbabfd4a9	-0.0014635521
89	0x3d8e4cb3	0.06948223
90	0x3c1cd839	0.009573036
91	0xbd9e1e50	-0.077206254
92	0xbd45d5a1	-0.048299436
93	0xbd1b7c9e	-0.03796064
94	0x3cd7adf9	0.026328074
95	0xbc27c571	-0.010239945
96	0xbdb2c865	-0.087296285
97	0xbdc8131c	-0.0976927
98	0xbd170870	-0.03687328
99	0x3c497e96	0.012298247
100	0x3cd828b7	0.026386602
101	0xbdee2bc5	-0.11629442
102	0xbeb25581	-0.3483086
103	0xbec547bf	-0.385313
104	0xbe5d2f3c	-0.2160005
105	0x3e183cd5	0.14866956
106	0xbdf1fb03	-0.11815455
107	0xbee443e7	-0.44583055
108	0xbece749a	-0.40323335
109	0xbeca9a01	-0.3957062
110	0xbdd654df	-0.104654066
111	0xbe75953e	-0.23982713
112	0xbeb32194	-0.34986556
113	0xbea32921	-0.31867316
114	0xbe83b552	-0.25724274
115	0xbdb1b219	-0.086765476
116	0xbe7bbe0a	-0.24584213
117	0xbe3d13aa	-0.18464532
118	0xbe8478c3	-0.25873384
119	0xbea10179	-0.31446436
120	0x3ddad30e	0.10684787
121	0xbdf2f7fa	-0.11863704
122	0xbe180561	-0.14845802
123	0xbe48962a	-0.19588533
124	0xbeb43241	-0.3519459
125	0xb96f212d	-0.00022805175
126	0x3e84e390	0.25954866
127	0x3bcd9572	0.006273919
128	0x3d98b813	0.07456984
129	0xbcf9cc77	-0.030493004
130	0x3de0f3c3	0.10983994
131	0x3e6a8789	0.22903265
132	0xbe88392e	-0.26606125
133	0xbd8ba3bb	-0.068183385
134	0xbe18afbf	-0.14910792
135	0xbe23e481	-0.16005136
136	0x3de2241f	0.11042046
137	0xbd204503	-0.039128315
138	0xbe694872	-0.22781542
139	0xbdfbf96b	-0.12303432
140	0xbd281f5f	-0.041045543
141	0xbe1ab4d5	-0.15108044
142	0x3dbe9589	0.09305865
143	0xbde16f6c	-0.1100758
144	0xbcd8af2c	-0.026450716
145	0xbe2d0f7f	-0.16900443
146	0xbd90f133	-0.07077255
147	0xbdcf7ed6	-0.10131614
148	0xbd9b252f	-0.075754516
149	0xbd2aeb01	-0.041728023
150	0x3ddf6157	0.10907238
151	0xbd2f2a05	-0.042764682
152	0x3e63771c	0.22213405
153	0x3e707c1c	0.23484844
154	0x3e059d42	0.1304827
155	0x3d78b601	0.060720447
156	0xbe787ffa	-0.24267569
157	0x3e0997b9	0.13436784
158	0x3e2e6d86	0.17033967
159	0x3c0376da	0.008023942
160	0xbdd85b49	-0.10564286
161	0xbe5d82f0	-0.2163198
162	0xbe26f5c4	-0.1630469
163	0xbdc3fcf5	-0.09569732
164	0xb9ab818e	-0.00032712187
165	0xbe12d7ae	-0.14340088
166	0xbb3373e5	-0.002738231
167	0xbe2af9c9	-0.16696848
168	0x3b503f5e	0.003177605
169	0x3d433e06	0.047666572
170	0xbe5c18a9	-0.21493782
171	0x3d542877	0.051796403
172	0x3d50c0a1	0.050964955
173	0xbe030821	-0.1279607
174	0xbdc0e213	-0.0941812
175	0x3dbd6501	0.092477806
176	0x3c210c19	0.009829544
177	0xbddb57c6	-0.10710101
178	0x3cfda387	0.030961765
179	0x3ce9dcc8	0.02854766
180	0x3e50d3fd	0.20393367
181	0x3e2302a1	0.15918972
182	0xbc2e3a39	-0.010633999
183	0x3c4339b1	0.01191561
184	0xbd95f74f	-0.07322561
185	0x3ded700d	0.115936376
186	0x3e22df4a	0.1590549
187	0x3cd64727	0.026156975
188	0x3d25589f	0.04036772
189	0x3da39019	0.07986469
190	0xbdf33248	-0.11874825
191	0x3e22a22b	0.15882175
192	0x3e5c3838	0.21505821
193	0x3d941791	0.072310574
194	0xbcbe3cbe	-0.023222324
195	0x3d94ce06	0.07265858
196	0xbcc90c4d	-0.024541998
197	0x3e341693	0.17586736
198	0x3e5e98b7	0.21737944
199	0x3e768611	0.2407458
200	0x3dd28de1	0.102809675
201	0x3dd7d3ff	0.10538482
202	0xbe7c5b9e	-0.24644324
203	0xbe98df58	-0.29857898
204	0xbd79fc25	-0.06103148
205	0x3d9d45b9	0.07679314
206	0x3d8ca5c1	0.068675525
207	0x3e409f44	0.18810755
208	0xbe2c3029	-0.16815247
209	0xbda4d98d	-0.08049307
210	0x3dcb287e	0.09919833
211	0xbe5557f8	-0.20834339
212	0x3cf8c821	0.030368866
213	0x3d4d5f43	0.050139677
214	0xbe113111	-0.14178874
215	0x3e1cb93c	0.15305036
216	0xbe9c9ab6	-0.30586785
217	0xbe161a5c	-0.14658493
218	0x3c8e8297	0.017396254
219	0xbd5c6eb4	-0.053816512
220	0x3e0ade2c	0.13561314
221	0x3c454e89	0.01204265
222	0xbd9e5d18	-0.077326
223	0xbda3294d	-0.07966862
224	0xbccac555	-0.024752298
225	0xbe19e110	-0.15027261
226	0xbe154b9d	-0.14579625
227	0xbe84de1b	-0.25950703
228	0xbe7906f8	-0.24319065
229	0xbe806825	-0.25079456
230	0x3cf81dd7	0.030287666
231	0xbe2766af	-0.16347764
232	0xbe81a92f	-0.2532439
233	0xbe3623b3	-0.17787056
234	0xbe44f430	-0.19233775
235	0x3dc5d655	0.09660021
236	0xbd348ecc	-0.044081494
237	0xbe587d85	-0.21141632
238	0xbe4fcd81	-0.20293237
239	0xbe161245	-0.14655407
240	0x3d40b30b	0.04704575
241	0x3c83e80d	0.016101861
242	0xbc6245fc	-0.013810631
243	0xbdca56e3	-0.098798536
244	0xbdd03072	-0.1016549
245	0x3d938b02	0.07204248
246	0x3e06b7fb	0.1315612
247	0xbcded9e5	-0.02720351
248	0x3caef40b	0.021356603
249	0x3d12a15e	0.035798423
250	0xbe8a7aac	-0.27046716
251	0xbe7680fb	-0.2407264
252	0xbe480b75	-0.1953562
253	0xbea11b34	-0.31466067
254	0xbe3b4458	-0.1828779
255	0xbe97c031	-0.29638818

conv2.bias f4 [16]
0	0x3f90d809	1.1315929
1	0x3e95c4bb	0.29251656
2	0xbe8205a6	-0.25394934
3	0xbec85d4b	-0.39133677
4	0xbf2cbb63	-0.6747343
5	0xbd80661c	-0.06269476
6	0xbee880cf	-0.45410773
7	0xbecfc301	-0.40578464
8	0xbe18d0b5	-0.14923365
9	0x3e32c9c6	0.17459783
10	0xbe2dc01a	-0.16967812
11	0xbb73b16f	-0.0037184616
12	0x3e9e1c27	0.30880854
13	0x3fdc928f	1.7232226
14	0xbf5c6553	-0.8609211
15	0xbeed2f96	-0.46325368

fc1.weight f4 [120, 400]
0	0xbb8b2365	-0.0042461627
1	0x3d150c24	0.03638853
2	0x3d901eee	0.07037149
3	0x3da25ba9	0.07927639
4	0x3cfa39d1	0.030545147
5	0xbd415f0f	-0.047209796
6	0xbc58a3c9	-0.013222643
7	0xbc607108	-0.013698824
8	0x3db904e5	0.09034137
9	0x3ceb8b86	0.028753053
10	0xbd67492d	-0.05646627
11	0xbd527f52	-0.051390953
12	0xbc90a891	-0.017658504
13	0x3ddab4ee	0.10679041
14	0x3dd576d8	0.10423058
15	0xbd5bce89	-0.053663764
16	0xbd750bcb	-0.0598257
17	0xbda05bb6	-0.078299925
18	0x3cf1b3b9	0.029504644
19	0x3d172d96	0.03690871
20	0xbd82885c	-0.06373665
21	0xbbe8e3f1	-0.007107251
22	0xbd19b8e0	-0.037529826
23	0x3d28bfe1	0.041198615
24	0x3e081bca	0.1329185
25	0x3bf61464	0.007509755
26	0xbde92d2e	-0.113855705
27	0xbd964142	-0.07336666
28	0xbd966744	-0.07343915
29	0xbd9ea060	-0.07745433
30	0x3d263ba4	0.04058422
31	0xbcc02f32	-0.023460004
32	0xbd9c100b	-0.076202475
33	0xbd468fbb	-0.048476916
34	0xbd30561c	-0.04305087
35	0xbc0eaa98	-0.008707665
36	0xbd63d3b8	-0.055621833
37	0xbdf99ea9	-0.12188465
38	0xbd9b0dfd	-0.075710274
39	0xbda889a3	-0.08229377
40	0x3d23473b	0.039862853
41	0xbd7efcc8	-0.06225279
42	0xbe184224	-0.1486898
43	0xbd258084	-0.040405765
44	0xbdae3453	-0.08506074
45	0x3e05930c	0.13044375
46	0x3d4579f6	0.048212014
47	0xbd259659	-0.040426586
48	0xbcc067d1	-0.023487004
49	0x3ce2e5c7	0.027697457
50	0x3cd11efa	0.025527466
51	0x3d82f62a	0.06394608
52	0x3de7e608	0.11323172
53	0xb9e35d36	-0.00043366262
54	0x3c16970f	0.009191289
55	0x3c83fb5e	0.016111072
56	0x3de235e8	0.11045438
57	0x3d96c8a2	0.073624864
58	0x3dbf566e	0.09342657
59	0x3d6bf371	0.05760521
60	0x3d5ee2c7	0.05441549
61	0x3d92e62a	0.071728066
62	0x3df56af2	0.11983289
63	0x3d536bef	0.051616605
64	0xbdb8a7bb	-0.09016367
65	0x3daaa4f1	0.08332241
66	0x3da71f69	0.08160288
67	0x3b57984b	0.003289717
68	0xbd610db0	-0.054944694
69	0x3d247c1c	0.040157422
70	0x3cf0c649	0.029391425
71	0xbd084023	-0.03326429
72	0x3d05681c	0.03256999
73	0xbd908741	-0.07057048
74	0xbd2a6e7a	-0.041609265
75	0xbd26312a	-0.04057423
76	0xbc9c9160	-0.019112289
77	0xbbda7e85	-0.0066679143
78	0x3c391112	0.011295574
79	0xbc77278c	-0.015085112
80	0xba9ed987	-0.0012119272
81	0x3cddb994	0.02706603
82	0x3d5f9d7f	0.05459356
83	0xbc9edc49	-0.01939215
84	0xbd3cbad0	-0.046076596
85	0x3ce6c57a	0.028170336
86	0x3d037924	0.03209795
87	0x3d7da828	0.061927944
88	0xbc8414da	-0.016123224
89	0x3d1def33	0.038558196
90	0x3dc5bf25	0.096555986
91	0x3ce80ca8	0.028326347
92	0x3da8062a	0.08204301
93	0x3cb2fd0c	0.021849178
94	0xbc81e682	-0.015856985
95	0x3d8831e2	0.066501394
96	0x3d868db1	0.06569994
97	0x3d136bed	0.035991598
98	0x3cf91c5e	0.030409034
99	0x3d916f90	0.07101357
100	0x3c466c96	0.01211085
101	0x3ccdf3ac	0.025140606
102	0x3c223238	0.009899668
103	0x3c995c6a	0.018720824
104	0x3c882fd5	0.01662437
105	0x3b9a59d6	0.0047104163
106	0xbd7094cc	-0.058735654
107	0xbd895696	-0.06705968
108	0xbae21373	-0.0017248228
109	0x3b8f7783	0.0043782606
110	0x3bdc745d	0.006727739
111	0x3c965114	0.018349208
112	0xbe0f7d40	-0.14012623
113	0x3ce43ff0	0.027862519
114	0xbd6bc796	-0.057563387
115	0xbd7c74bf	-0.061634775
116	0xbc540a43	-0.0129419
117	0xbdb4727c	-0.08810899
118	0xbda2eac1	-0.07954932
119	0x3c601ec8	0.013679214
120	0xbd113a84	-0.035456195
121	0xbd6efd91	-0.05834729
122	0xbdd0ad87	-0.10189348
123	0xbbefec5b	-0.007321877
124	0x3e0b65a8	0.13612998
125	0xbd434616	-0.04767426
126	0x3cb45676	0.022013884
127	0x3ca4dcbd	0.020124787
128	0xbd33b434	-0.043873027
129	0x3da73a2f	0.081653945
130	0x3d7becd0	0.06150514
131	0x3cb6a729	0.022296505
132	0xbc555053	-0.013019639
133	0xbd15b926	-0.036553524
134	0x3cd674bd	0.026178712
135	0x3e0a240b	0.13490312
136	0x3ce5618e	0.02800062
137	0xbce7eae6	-0.02831025
138	0xbc059eaa	-0.008155504
139	0x3b888b6c	0.004167011
140	0x3d11176d	0.03542273
141	0x3dc9d4d5	0.098550476
142	0x3d3054c5	0.043049593
143	0xbd196c03	-0.037456524
144	0xbd9fa240	-0.077946186
145	0x3d8ffc9f	0.070306055
146	0x3cc63fd9	0.024200367
147	0xbd7b9394	-0.06142004
148	0xbdf15bac	-0.11785063
149	0xbcf13035	-0.029441932
150	0xbcb66a8f	-0.022267608
151	0x3ce81003	0.028327947
152	0xbcbb79b0	-0.022885174
153	0x38157de4	3.5641613e-05
154	0xbe25ed0a	-0.16203704
155	0x3dd937b4	0.10606328
156	0x3d853d97	0.06505888
157	0x3d0b4c6e	0.034008436
158	0xbd6b2ac9	-0.05741385
159	0xbd786678	-0.060644597
160	0x3d790362	0.06079424
161	0xbda806d2	-0.08204426
162	0xbc0749d5	-0.008257349
163	0xbd6c1c02	-0.057643898
164	0xbda7da88	-0.081959784
165	0x3c80a898	0.015705392
166	0xbddab63c	-0.1067929
167	0xbdf992f0	-0.12186229
168	0xbe091e3d	-0.13390441
169	0xbd7aab8e	-0.061198764
170	0xbc70b05d	-0.014690486
171	0xbdaf761d	-0.0856745
172	0xbe00d3cd	-0.12580796
173	0xbdf011ff	-0.117221825
174	0xbd003734	-0.031302646
175	0x3bd83752	0.0065983916
176	0xbd1047c2	-0.035224684
177	0xbdc57188	-0.09640795
178	0xbdcbbcad	-0.099480964
179	0xbdcd0262	-0.1001022
180	0xbca140bf	-0.019684194
181	0xbc5676e5	-0.01308987
182	0xbc033d17	-0.00801017
183	0xbc17725a	-0.009243572
184	0xbd908435	-0.070564665
185	0xbdf7ee51	-0.12106002
186	0xbd8ffb81	-0.070303924
187	0xbbbdefce	-0.005796409
188	0xbad3c2a4	-0.001615603
189	0xbd4c2cb0	-0.049847305
190	0xbe08a4ff	-0.13344191
191	0xbdca7701	-0.098859794
192	0x3d6d9f50	0.05801326
193	0xbd34e7ec	-0.04416649
194	0xbd992eac	-0.07479605
195	0xbc755710	-0.014974371
196	0xbd59e434	-0.053196147
197	0x3c8ada93	0.016949927
198	0x3d394406	0.045230888
199	0x3d005e70	0.031340063
200	0xbdc8f3c0	-0.098121166
201	0x3cd21121	0.025642933
202	0x3b3a64ab	0.002844135
203	0xbc37add8	-0.011210881
204	0xbd151afd	-0.03640269
205	0xbd828fc1	-0.06375075
206	0xbc85bfcf	-0.016326813
207	0x3cb8cc7a	0.02255844
208	0xbbe8318a	-0.0070859836
209	0xbccb62f9	-0.024827467
210	0xbe2ab8e3	-0.16672091
211	0xbd823ff7	-0.063598566
212	0xbd1acf64	-0.03779544
213	0xbce82cd0	-0.02834168
214	0xbddf1c53	-0.10894074
215	0xbe320656	-0.1738523
216	0xbe2b83be	-0.16749474
217	0xbdbb3242	-0.09140445
218	0xbdbb0e36	-0.0913357
219	0xbdcaac77	-0.09896176
220	0xbdb1a59e	-0.08674167
221	0xbe60147c	-0.21882814
222	0xbe474b86	-0.19462404
223	0xbdb18a56	-0.086689636
224	0xbcfb774f	-0.03069654
225	0x3d843141	0.06454707
226	0x3ca25997	0.01981811
227	0xbd78c736	-0.060736857
228	0xbd3003e6	-0.042972468
229	0xbdf9562b	-0.12174638
230	0xbc12ed23	-0.008967671
231	0xbc7fa28a	-0.015602717
232	0xbc371ebf	-0.011176764
233	0xbd72dc86	-0.05929234
234	0x3c903bf0	0.017606705
235	0x3d338da8	0.043836266
236	0xbc4b2ffa	-0.012401575
237	0x3be4ec38	0.0069861673
238	0xbd770b0b	-0.060313266
239	0x3d36dbd1	0.044643227
240	0x3de884b0	0.11353433
241	0xbd0359b4	-0.03206797
242	0xbd5f931c	-0.054583654
243	0xbcf78c00	-0.030218124
244	0x3d95a70d	0.07307253
245	0x3d5d34c1	0.05400539
246	0xbd43994c	-0.047753617
247	0xbdd7a7ba	-0.10530038
248	0xbcab4215	-0.020905534
249	0x3d43dee0	0.047819972
250	0x38f3027f	0.00011587608
251	0xbcaade71	-0.020858021
252	0x3dd2091f	0.10255646
253	0x3d5628d8	0.052285045
254	0xbdd8e4c9	-0.10590512
255	0xbca2da7b	-0.01987957

fc1.bias f4 [120]
0	0x3d95d484	0.07315925
1	0xba6a6296	-0.0008941082
2	0xbd144466	-0.036198042
3	0xba484fd0	-0.00076412875
4	0x3dd1c0f6	0.102418825
5	0x3e99e6b2	0.3005882
6	0xbd2684ee	-0.040654115
7	0x3db22b80	0.08699703
8	0x3c55e164	0.013054226
9	0xbd0f2041	-0.03494287
10	0xbd621421	-0.055194978
11	0x3b4f0a83	0.0031591959
12	0x3c097270	0.0083891
13	0x3e4d3e0f	0.20043205
14	0x3d739280	0.059465885
15	0xbd308f8f	-0.04310566
16	0xbe1e9652	-0.1548703
17	0x3c32e0d2	0.010917859
18	0xbe069f29	-0.13146652
19	0x3daf01b1	0.085452445
20	0x3d824613	0.06361022
21	0x3e9f31f7	0.31092808
22	0x3e1528b3	0.14566307
23	0xbd4f2efb	-0.050581913
24	0xbd3f3419	-0.046680544
25	0x3dff1186	0.12454514
26	0x3ddc4f9f	0.10757374
27	0x3e239470	0.15974593
28	0xbdeb18a4	-0.11479309
29	0x3e5503b5	0.20802195
30	0x3cf15b93	0.029462611
31	0x3d2e474a	0.042548455
32	0x3e024bf2	0.12724283
33	0xbc9e4f22	-0.019324843
34	0xbd217bc2	-0.039424665
35	0xbd898301	-0.0671444
36	0xbe54667c	-0.2074222
37	0xbe0cc9fa	-0.13748923
38	0x3d941cb8	0.0723204
39	0x3e27a2ee	0.16370746
40	0x3dcafa4f	0.09911024
41	0xbd537afa	-0.05163095
42	0xbc811240	-0.015755773
43	0xbc72c9b9	-0.014818602
44	0x3b123bea	0.0022313544
45	0xbd263008	-0.04057315
46	0xbd4cc27b	-0.04999016
47	0xbd507034	-0.050888255
48	0x3e4bde8f	0.19909118
49	0xbcb307cb	-0.021854302
50	0x3c9bfc1d	0.019041115
51	0x3c66dc88	0.014090665
52	0xbdaf81c7	-0.08569675
53	0x3e52e0f3	0.20593624
54	0x3e13d476	0.14436516
55	0xbd1b3482	-0.037891872
56	0xbd1eb200	-0.038743973
57	0x3ea039be	0.31294054
58	0x3bc7ca4e	0.0060971146
59	0xbc3c612a	-0.011497775
60	0xbd2f6333	-0.042819213
61	0xbd4d0eba	-0.050062872
62	0xbd428089	-0.047485862
63	0xbd2b0462	-0.041752227
64	0x3aec7949	0.0018041517
65	0x3da08d0c	0.078394026
66	0x3e69dade	0.22837397
67	0x3d2ef160	0.042710662
68	0x3d86b980	0.0657835
69	0xbbd2e335	-0.0064357766
70	0x3e058b78	0.13041484
71	0xbe4fb48d	-0.20283718
72	0x3dbdff76	0.09277241
73	0xbdcd650f	-0.10029041
74	0xbb9e83f7	-0.004837509
75	0x3d4af2ec	0.049548075
76	0xbd2beba8	-0.041972786
77	0x3e222249	0.15833391
78	0xbcf2f9e5	-0.029660175
79	0x3e425b0b	0.18980043
80	0x3d46230c	0.048373267
81	0x3e4d636d	0.20057459
82	0x3b578705	0.0032886874
83	0x3c0ddce9	0.008658626
84	0xbdbe417d	-0.09289835
85	0xbd4f2233	-0.050569724
86	0xbc967976	-0.018368464
87	0xbe4192c4	-0.18903643
88	0x3e2474de	0.16060206
89	0x3e13b48e	0.14424345
90	0x3c2d7fbd	0.010589537
91	0x3e86c5d2	0.263228
92	0x3d237a15	0.03991135
93	0x3d4ff6af	0.050772365
94	0xbd20618e	-0.039155535
95	0x3cdc5675	0.026896695
96	0xbd79d5cf	-0.06099492
97	0x3d17a7dd	0.03702532
98	0xbd8fb405	-0.07016758
99	0x3dbfa155	0.093569435
100	0x3e719d57	0.23595177
101	0xbcf91b7b	-0.030408612
102	0xbd309845	-0.043113966
103	0xbd87801c	-0.06616232
104	0xbe03f7c8	-0.1288749
105	0x3d12ac23	0.035808694
106	0xbd2b963d	-0.041891325
107	0x3e8ad1f5	0.2711331
108	0xbdd49056	-0.103790924
109	0xb9f6b3c7	-0.0004705472
110	0x3dee290b	0.11628922
111	0x3e3b51a5	0.18292864
112	0xbc70d2cc	-0.014698695
113	0xbe01c7f6	-0.12673935
114	0x3be53c63	0.006995724
115	0x3de00ed0	0.10940325
116	0x3ed83abd	0.42232314
117	0x3c6b605d	0.0143662365
118	0x3e0a7509	0.13521208
119	0x3e28b145	0.16473873

fc2.weight f4 [84, 120]
0	0xbd18325d	-0.037157405
1	0x392951a5	0.00016147511
2	0xbd880255	-0.0664107
3	0xbdc26512	-0.09491934
4	0x3d7cca2e	0.06171625
5	0xbcb81d03	-0.022474771
6	0xbdb053b6	-0.086097166
7	0x3cc0e1af	0.023545114
8	0x3ae42a65	0.0017407654
9	0xbccf5129	-0.025307255
10	0xbd875f83	-0.06610014
11	0x3d1cbf7f	0.038268562
12	0xbccfee34	-0.025382139
13	0xbd87c5c0	-0.06629515
14	0xbcc2f03e	-0.023796197
15	0x3c332463	0.010933968
16	0xbd7a7bc5	-0.061153192
17	0xbcaa12c4	-0.020760901
18	0x3d6fb16b	0.05851881
19	0xbdc082bb	-0.09399935
20	0x3d2a0168	0.041505247
21	0x3cc2f3cd	0.023797894
22	0x3d6e2f20	0.05815041
23	0xbd2e39ed	-0.04253571
24	0xbacc8a12	-0.0015605113
25	0x3d0b77ef	0.034049924
26	0x3d5f3d65	0.05450191
27	0xbda8558d	-0.082194425
28	0x3dbaf4de	0.09128736
29	0xbd62547d	-0.055256356
30	0xbe00ffe9	-0.12597622
31	0xbbe50fc4	-0.006990405
32	0x3e072dca	0.13201061
33	0xbb98140c	-0.0046410616
34	0xbd1a6ed8	-0.037703365
35	0x3d0af050	0.033920586
36	0x3ca521ed	0.020157779
37	0xbdeb851f	-0.115
38	0xbd02a85c	-0.03189884
39	0x3c17ffed	0.009277326
40	0x3dd09dad	0.10186324
41	0x3d7104e0	0.05884254
42	0x3d87a56f	0.06623351
43	0xbb995aa9	-0.004679997
44	0x3d8467b7	0.064650945
45	0x3da8ac96	0.08236043
46	0xbd99c5ae	-0.075084075
47	0xbdb9ce92	-0.09072603
48	0xbd59362b	-0.053030174
49	0x3da8c87e	0.08241366
50	0xbd8886d0	-0.066663384
51	0x3d1776da	0.03697858
52	0xbd8456d4	-0.06461874
53	0x3b381626	0.0028089373
54	0xbd393f2e	-0.04522627
55	0xbc91ae49	-0.017783301
56	0xbd863a7d	-0.065541245
57	0xbd8917df	-0.06694006
58	0xbd596fab	-0.05308501
59	0xbb9d294d	-0.004796183
60	0x3cdffc9f	0.027342139
61	0xbd43091d	-0.047616113
62	0x3cfab2be	0.030602809
63	0xbdcc7124	-0.09982517
64	0x3bd26c49	0.0064216
65	0xbd09adfc	-0.03361319
66	0xbbcb235f	-0.006199285
67	0x3d76aa2d	0.060220886
68	0xbd0e028a	-0.03467039
69	0xbce44bb6	-0.027868133
70	0xbd754403	-0.059879314
71	0x3dd3acc9	0.103356905
72	0x3d9efd62	0.07763173
73	0xbd86cb62	-0.06581761
74	0xbd931bf7	-0.07183068
75	0xbd44230e	-0.047884993
76	0xbde6e027	-0.112732224
77	0x3d4dcc1e	0.05024349
78	0x3da19d63	0.07891347
79	0x3d85f6ac	0.065411896
80	0xbdba76ce	-0.091046914
81	0x3d808c54	0.062767655
82	0xba9c8994	-0.0011942857
83	0x3cb6e5e1	0.022326412
84	0x3d0c2d7e	0.034223072
85	0x3ced830e	0.028993156
86	0xbc982bc0	-0.01857555
87	0x3cc78a09	0.024357812
88	0x3d93206b	0.071839176
89	0xbdb7e3c5	-0.089789905
90	0xbda31b93	-0.07964244
91	0x3c5630c7	0.013073153
92	0xbd5bdcad	-0.05367725
93	0x3d58ecf3	0.052960347
94	0xbd3bb92c	-0.04583089
95	0x3dac1ede	0.08404325
96	0xbdb0a098	-0.08624381
97	0x3b841b24	0.0040315557
98	0x3c8adfac	0.016952358
99	0x3c398e51	0.011325435
100	0xbd9ae836	-0.07563822
101	0x3cb51c1c	0.02210813
102	0xbb8cd5cf	-0.004297949
103	0xba829163	-0.0009961542
104	0x3d012767	0.031531718
105	0xbd7842b1	-0.060610477
106	0x3d8d2ece	0.06893693
107	0xbd90d294	-0.070714146
108	0xbdbce67f	-0.09223651
109	0xbc6b27a9	-0.014352717
110	0x3de72e08	0.11288077
111	0xbcc0c5c8	-0.02353181
112	0xbd158e2f	-0.03651255
113	0x3da3d354	0.07999292
114	0xbdafbc14	-0.08580795
115	0x3c0a01a9	0.008423247
116	0xbcf650bc	-0.030067794
117	0xbbaf9d0e	-0.0053592985
118	0xbcf19477	-0.029489739
119	0x3d8d7600	0.06907272
120	0xbb22a832	-0.002481949
121	0xbdd7cd64	-0.10537222
122	0x38aa4a11	8.1200276e-05
123	0x3d735dff	0.059415814
124	0x3dbcfa01	0.09227372
125	0x3da703c6	0.081550166
126	0x3c40901a	0.0117531065
127	0x3ddcaf51	0.107756265
128	0x3e00aae5	0.12565191
129	0xbdb174ce	-0.08664857
130	0x3e339ec5	0.17541035
131	0xba8d3c70	-0.0010775458
132	0x3e0dda44	0.13852793
133	0xbdd59b27	-0.104299836
134	0xbe017152	-0.12640885
135	0x3dcf2c99	0.10115928
136	0x3e28da6e	0.16489574
137	0x3cd6df26	0.026229452
138	0x3e215428	0.1575476
139	0xbdca4bbc	-0.098777264
140	0x3e14fefb	0.14550392
141	0xbd05e68a	-0.032690562
142	0xbd8be07b	-0.068299256
143	0x3dd4b3e5	0.10385875
144	0xbdd3d4b8	-0.10343307
145	0xbdb1543a	-0.08658643
146	0xbcc9e7f7	-0.024646742
147	0x3d974a86	0.07387261
148	0xbd965b8f	-0.07341682
149	0x3cf219d6	0.029553335
150	0xbd82ac83	-0.0638056
151	0xbcd3f630	-0.025874227
152	0x3d4419ff	0.047876354
153	0x3d27fe51	0.04101402
154	0xbb48aeea	-0.0030621835
155	0x3d5abbb4	0.053401664
156	0x3d6b0ed3	0.057387184
157	0x3dda8628	0.106701195
158	0x3c953203	0.018212324
159	0xbc70e77f	-0.0147036305
160	0xbddb01c2	-0.10693695
161	0x3c69443e	0.014237462
162	0xbd7efa74	-0.06225057
163	0xbdf37a89	-0.11888606
164	0x3dcd233e	0.100164875
165	0x3e08481e	0.1330876
166	0x3c959ff1	0.018264743
167	0xbe143fa9	-0.1447741
168	0xb8f580b6	-0.00011706485
169	0xbd23eb12	-0.040019102
170	0xbd067bfc	-0.032833084
171	0xbb9ef583	-0.0048510446
172	0xbcdca334	-0.02693329
173	0xbdccef20	-0.10006547
174	0xbd02fe1d	-0.031980623
175	0xbc85a998	-0.01631622
176	0xbe5f9b3e	-0.21836564
177	0xbe2ff419	-0.1718296
178	0x3d9cb149	0.07651002
179	0x3d88bfd1	0.06677211
180	0xbd970001	-0.073730476
181	0xbcb0d540	-0.02158606
182	0x3cf1fe37	0.029540164
183	0x3d8c5fa9	0.06854183
184	0x3ca1168c	0.019664072
185	0x3d6cb7c0	0.057792425
186	0xbda66c83	-0.08126166
187	0xbdeb213f	-0.114809506
188	0xbe3c2fe7	-0.18377648
189	0xbe54342e	-0.2072303
190	0xbc7d8d08	-0.015475519
191	0x3d203be0	0.0391196
192	0xbc6f583f	-0.014608442
193	0x3dbddead	0.09270988
194	0x3d09fdc9	0.033689294
195	0x3d067cd8	0.032833904
196	0x3d5f7056	0.05455049
197	0x3d51abf5	0.05118938
198	0x3d8ae511	0.06781972
199	0xbd4d41c5	-0.05011155
200	0x3e1dd441	0.15413
201	0xbc0a84ec	-0.008454543
202	0x3db0886a	0.08619769
203	0x3c5d938e	0.013523949
204	0xbd1ff90f	-0.03905588
205	0xbdb369e5	-0.08760432
206	0x3d94aef0	0.07259929
207	0xbcc7e9be	-0.02440345
208	0xbd69d8bf	-0.05709147
209	0xbd133e20	-0.03594792
210	0x3d1cd621	0.038290147
211	0x3d9fb298	0.07797736
212	0x3ce9a0c6	0.028519046
213	0xbc9dda85	-0.019269237
214	0xbb7ac8ec	-0.0038266731
215	0xbdc12a48	-0.09431893
216	0xbd95c53d	-0.07313011
217	0x3d8b13a6	0.06790857
218	0x3d84e9b1	0.064898856
219	0x3e4cef46	0.2001315
220	0x3dced4b5	0.100991644
221	0xbdabca07	-0.08388143
222	0xbd47c810	-0.04877478
223	0xbd14cff7	-0.036331143
224	0xbe2100ec	-0.15723008
225	0xbda845ca	-0.08216436
226	0xbdc16e9e	-0.09444927
227	0xbd8de186	-0.06927781
228	0x3d337115	0.043809015
229	0xbdf64d99	-0.12026519
230	0xbd200408	-0.039066344
231	0xbe1c9e8a	-0.15294853
232	0xbe6f0f8e	-0.23345777
233	0xbcefdf6b	-0.029281339
234	0xbada25ee	-0.0016643384
235	0xbe1fbcd2	-0.15599373
236	0xbe205410	-0.15657067
237	0x3dfee3b5	0.124457754
238	0xbd6efb87	-0.058345344
239	0xbe37963e	-0.17928407
240	0x3dde5504	0.10856059
241	0xbd6ab786	-0.057303928
242	0xbded991d	-0.1160147
243	0xbdc55fcf	-0.09637415
244	0xbd35f8f2	-0.044426866
245	0x3e481e1b	0.19542734
246	0x3d584488	0.05279973
247	0x3e0eaa83	0.13932233
248	0xbdf29da4	-0.11846474
249	0xbd168b59	-0.036753986
250	0x3d29314e	0.041306786
251	0xbc06118d	-0.008182895
252	0x3c87bc98	0.01656942
253	0xbda5995b	-0.08085891
254	0xbc0c8f5e	-0.008579103
255	0xbd7a83d3	-0.061160874

fc2.bias f4 [84]
0	0xbd9149a9	-0.07094128
1	0x3e2cc39b	0.16871493
2	0x3e97e714	0.29668486
3	0x3e389d13	0.18028669
4	0xbde3d24a	-0.11124094
5	0x3e54cda4	0.2078157
6	0x3b126b8b	0.0022341933
7	0x3e81a0cb	0.25317988
8	0x3ceef876	0.02917121
9	0x3f1e46b3	0.6182663
10	0xbcec5033	-0.028846836
11	0xbdc7ee46	-0.09762244
12	0x3df6e678	0.12055677
13	0x3e3dc6f2	0.18532923
14	0x3e6b10d5	0.2295564
15	0xba4135e6	-0.0007370397
16	0x3c9f7e81	0.019469501
17	0x3eeeeb76	0.46664017
18	0x3e6a72c7	0.22895347
19	0x3e46731e	0.19379851
20	0x3e8d1d32	0.27561337
21	0xbdcf9181	-0.101351745
22	0xbcba2fc1	-0.022727849
23	0xbdca0625	-0.09864453
24	0xbda7bbeb	-0.081901394
25	0x3e965aa4	0.29366028
26	0x3f00c874	0.5030587
27	0x3e39b232	0.18134382
28	0xbdc489cf	-0.095965974
29	0x3d1bed38	0.038068026
30	0x3e83ce1b	0.25743183
31	0x3e2111ec	0.15729493
32	0x3ddb51d1	0.107089646
33	0x3c892794	0.016742505
34	0x3db1295f	0.08650469
35	0x3e09ce9b	0.1345772
36	0x3ce69473	0.028146958
37	0x3e054ff2	0.13018778
38	0xbc716fa5	-0.014736091
39	0x3ea78a7a	0.32722837
40	0xbda604f6	-0.08106415
41	0xbd0a6768	-0.033790022
42	0x3ca34735	0.019931415
43	0x3befdd00	0.0073200464
44	0x3d4ca774	0.049964383
45	0xbe216135	-0.15759738
46	0x3bd3bc43	0.0064616515
47	0x3ee5ea0c	0.44905126
48	0x3d9ae2b6	0.07562773
49	0xbca5d4ec	-0.02024313
50	0x3ae34f75	0.0017342406
51	0x3d173dbe	0.036924116
52	0x3e5f8d8e	0.21831343
53	0xbd74423d	-0.059633482
54	0xbd4150af	-0.047196086
55	0x3dc98d8b	0.0984145
56	0x3e178710	0.14797616
57	0x3ef07d7c	0.46970737
58	0x3cb31265	0.021859357
59	0x3e06279d	0.13101049
60	0xbb150573	-0.0022738844
61	0x3d8a0ade	0.06740354
62	0x3ef74d7e	0.4830131
63	0xbd712550	-0.058873475
64	0x3d842434	0.06452218
65	0x3e828ec4	0.25499547
66	0xbde9d13d	-0.11416862
67	0x3ee0f7d1	0.4393907
68	0x3ed68d4a	0.4190467
69	0x3e9ad098	0.3023727
70	0xbdbf6ac5	-0.093465365
71	0x3e5644a8	0.20924628
72	0xbd114308	-0.035464317
73	0xbd4767df	-0.048683044
74	0x3d6044e4	0.0547532
75	0x3e1f9d1c	0.15587276
76	0x3f042dce	0.5163239
77	0x3d236abf	0.039896723
78	0xbde96761	-0.11396671
79	0x3ec61f4f	0.38695762
80	0xbda25c96	-0.079278156
81	0xbda5c1b2	-0.08093585
82	0x3f074536	0.5283998
83	0x3d9c9fbc	0.076476544

fc3.weight f4 [10, 84]
0	0xbc81c2d2	-0.015839968
1	0xbdd07cea	-0.101800755
2	0xbe01376d	-0.126188
3	0xbe99ad03	-0.3001481
4	0x3cb9aafe	0.022664543
5	0x3ebf488b	0.37360033
6	0x3e3fcc9c	0.18730396
7	0x3d26192d	0.040551353
8	0x3e4c6bc8	0.1996299
9	0xbe12e3e3	-0.14344744
10	0x3e3e2fac	0.18572873
11	0x3d3b1790	0.045676768
12	0xbcc30a27	-0.023808552
13	0xbe33ed59	-0.1757101
14	0xbe9977e1	-0.29974273
15	0xbdc14e8e	-0.09438811
16	0xbdb59a23	-0.0886729
17	0x3e9a9d88	0.30198312
18	0x3df983a3	0.12183311
19	0x3e0300e5	0.1279331
20	0xbddec03e	-0.10876511
21	0x3cee1e67	0.029067231
22	0xbe1e294b	-0.1544544
23	0x3e2a5b2a	0.16636339
24	0x3e1449ad	0.1448123
25	0xbe5b6dff	-0.21428679
26	0xbd8353b0	-0.064124465
27	0x3e327e8d	0.17431088
28	0x3d6c9ec6	0.057768606
29	0x3cc5dd32	0.024153326
30	0x3e67bbdb	0.22630255
31	0x3e70dc84	0.2352162
32	0xbbfd313d	-0.007726817
33	0x3de31114	0.11087242
34	0x3e1ac200	0.15113068
35	0x3e187f98	0.14892423
36	0xbe1bc6db	-0.15212576
37	0x3e672187	0.22571383
38	0x3bb547b6	0.0055322303
39	0xbe0593a4	-0.13044602
40	0xbe09162c	-0.13387364
41	0x3e49193f	0.19638537
42	0xbd7a6d74	-0.06113954
43	0x3e688b9d	0.22709508
44	0xbddcc41c	-0.107795924
45	0x3e62c3fe	0.22145078
46	0x3dee5727	0.11637717
47	0xbd920a8f	-0.0713092
48	0x3dd57c5e	0.10424112
49	0xbceabdee	-0.028655019
50	0x3bcadfe0	0.0061912388
51	0x3cd3eb6f	0.0258691
52	0x3e907db5	0.28220907
53	0x3cee3cd4	0.02908174
54	0xbe4bf1e6	-0.19916496
55	0xbd59ee95	-0.053206045
56	0xbd9c5339	-0.07633061
57	0xbd9f9f3c	-0.077940434
58	0x3e8e59f8	0.27803016
59	0x3e060384	0.13087279
60	0x3e3463bc	0.1761617
61	0xbe0b9273	-0.13630085
62	0xbe6ba74f	-0.23013042
63	0xbdef3177	-0.116793565
64	0x3db40450	0.08789885
65	0x3e0dbf20	0.1384244
66	0x3ca5cd79	0.020239579
67	0xbe8ea98f	-0.27863738
68	0x3da36a35	0.07979242
69	0xbe2b14b7	-0.16707121
70	0xbbd312fe	-0.006441473
71	0x3e543c94	0.20726234
72	0x3d810e46	0.063015506
73	0x3e18ab9f	0.14909218
74	0x3e1232f4	0.1427725
75	0x3e07b976	0.13254341
76	0xbdf8b801	-0.12144471
77	0xbe166e49	-0.14690508
78	0xbb40faa6	-0.0029446273
79	0xbeb73004	-0.3577882
80	0x3db3f07a	0.08786102
81	0xbdd1b64b	-0.10239848
82	0xbedd8bc1	-0.43270686
83	0xbe25328f	-0.16132568
84	0x3dfb6ba8	0.12276393
85	0xbd90bee0	-0.070676565
86	0xbdd627ee	-0.10456835
87	0x3daa4d51	0.08315528
88	0xbd714f76	-0.05891367
89	0xbe02b1f6	-0.12763199
90	0xbdf4dffd	-0.11956785
91	0xbe417e40	-0.18895817
92	0xbd5f9659	-0.054586742
93	0xbe86822a	-0.26271182
94	0x3dad6d1a	0.08468075
95	0x3d282e61	0.041059855
96	0x3e8ae42b	0.27127203
97	0xbe369e98	-0.17833936
98	0xbe0ffeb3	-0.14062004
99	0x3df0bebd	0.117551304
100	0x3c1a0f69	0.009403088
101	0xbdbf1318	-0.09329814
102	0xbd3e4aee	-0.046458177
103	0xbe8f8609	-0.28031948
104	0x3d9a6baa	0.075400665
105	0xbcecf371	-0.028924676
106	0x3e072f30	0.13201594
107	0xbca730b2	-0.020408962
108	0x3d5c6b8b	0.0538135
109	0xbe191981	-0.14951135
110	0x3cacf286	0.021111738
111	0xbd04fce4	-0.032467738
112	0x3e047123	0.12933783
113	0x3ea4ce1c	0.321885
114	0xbe7cf1d8	-0.24701631
115	0xbe0a80fd	-0.13525768
116	0x3ec58463	0.38577566
117	0x3e7b1177	0.24518381
118	0x3c2cef39	0.010555082
119	0x3e0097d9	0.12557925
120	0xbdac8f98	-0.08425826
121	0x3b14febb	0.002273484
122	0x3cd09052	0.025459442
123	0xbe105061	-0.14093162
124	0xbcb46a10	-0.02202323
125	0xbdc70cbb	-0.09719225
126	0xbe1abbae	-0.15110657
127	0xbd4acb22	-0.04951013
128	0x3d5e34c4	0.05424954
129	0x3dcfd0cf	0.10147249
130	0xbd336f0f	-0.043807086
131	0x3c3f6ad6	0.0116831865
132	0x3d805adc	0.0626733
133	0x3d3f0a34	0.04664059
134	0xbd3e653a	-0.046483256
135	0x3d23b689	0.039969
136	0x3eb7d458	0.35904193
137	0xbda64d98	-0.081202686
138	0x3e8cb0cf	0.27478644
139	0x3d8f7c57	0.07006138
140	0xbe96ae9e	-0.29430097
141	0xbddbb22f	-0.10727345
142	0xbd6caa1b	-0.057779413
143	0xbe191c63	-0.14952235
144	0x3db919e4	0.09038141
145	0x3e304049	0.17212023
146	0xbee1167f	-0.43962476
147	0x3cc58f78	0.024116263
148	0x3eac9ca6	0.33713263
149	0x3e3b20d4	0.18274242
150	0x3e1ad292	0.15119389
151	0xbc3a8eea	-0.011386612
152	0xbe96ccf1	-0.29453233
153	0xbcaeba7c	-0.021329157
154	0xbd65b65f	-0.056082126
155	0xbe900055	-0.28125253
156	0xbd9dbb28	-0.07701713
157	0xbdc13461	-0.094338186
158	0xbda94694	-0.08265415
159	0x3ea025b7	0.31278774
160	0xbdefa7d7	-0.11701935
161	0x3ded8d10	0.11599171
162	0x3ca1fd70	0.019774169
163	0xbe0cd2f9	-0.13752355
164	0xbd22ffad	-0.039794613
165	0x3cd256a0	0.025676072
166	0xbe24cd9a	-0.16094056
167	0xbe24758d	-0.16060467
168	0x3dd90a73	0.10597696
169	0x3dc46913	0.09590354
170	0xbd2a20cc	-0.041535184
171	0x3da73c5b	0.08165809
172	0xbb82c246	-0.0039904444
173	0x3e3b476b	0.18288963
174	0xbcabe9a1	-0.020985426
175	0x3e8304bb	0.25589547
176	0xbcf96782	-0.030444864
177	0x3e7b7303	0.24555592
178	0x3d2f952e	0.04286688
179	0x3e0dccd2	0.13847664
180	0xbd7a8500	-0.061161995
181	0xbb8e64ac	-0.004345497
182	0x3e907965	0.28217617
183	0xbc93719e	-0.017998513
184	0x3c1c5adc	0.009543147
185	0x3ea0b6c7	0.31389448
186	0xbd9a9893	-0.075486325
187	0x3e21629b	0.15760271
188	0x3ae9f30d	0.0017848924
189	0x3dcf5f16	0.10125558
190	0x3e466439	0.1937417
191	0xbd0c9ffd	-0.034332264
192	0x3d86f5b8	0.06589836
193	0x3dc119d0	0.094287515
194	0xbda26541	-0.07929469
195	0xbd89d996	-0.06730954
196	0xbdd26892	-0.102738515
197	0x3e1d0f52	0.15337875
198	0x3e8476c2	0.25871855
199	0x3e7b21f0	0.24524665
200	0xbe033831	-0.12814404
201	0xbd9d485d	-0.07679818
202	0x3d5db6d6	0.054129444
203	0x3aea8682	0.001789287
204	0xbe734983	-0.23758511
205	0xbbaa4684	-0.0051963944
206	0xbca2202b	-0.01979073
207	0xbd858997	-0.06520384
208	0x3dc05212	0.09390654
209	0xbbedc241	-0.007255823
210	0x3e480970	0.1953485
211	0xbd2a8c0d	-0.04163747
212	0x3e0274a3	0.12739806
213	0xbd66c288	-0.056337863
214	0x3e78972f	0.24276422
215	0x3c6da405	0.014504437
216	0x3dcce83b	0.10005232
217	0xbdda76f5	-0.106672205
218	0x3c57a2d8	0.013161384
219	0x3e51155f	0.20418309
220	0xbe40aa58	-0.18814981
221	0xbdf244c1	-0.1182952
222	0x3dda9da2	0.10674597
223	0xbe3737b9	-0.1789235
224	0xbcde8eda	-0.027167726
225	0x3e2dc821	0.16970874
226	0xbdfba161	-0.1228664
227	0xbe48c00d	-0.19604512
228	0x3e0f1cd1	0.13975836
229	0x3e4c6f79	0.19964398
230	0xbd2fdf91	-0.04293782
231	0x3c4d6cd1	0.012538151
232	0xbdc0f88b	-0.09422406
233	0xbe5a3928	-0.21310866
234	0xbd55d019	-0.05220041
235	0x3ddfd4c7	0.10929256
236	0x3e708fc0	0.23492336
237	0xbe02a5da	-0.1275858
238	0x3d9a67e3	0.07539346
239	0x3e126d56	0.14299521
240	0x3cd4e6df	0.025988994
241	0x3e262879	0.16226377
242	0xbd17899a	-0.03699646
243	0xbe24d502	-0.16096881
244	0x3e922693	0.28545055
245	0xbe13643a	-0.14393702
246	0x3d1d97ff	0.038475033
247	0xbd7b8730	-0.06140822
248	0xba894d25	-0.0010475261
249	0xbe01389e	-0.12619254
250	0x3e4a03ac	0.19727963
251	0x3d3a1220	0.04542744
252	0x3d0b04fe	0.033940308
253	0x3ddc0281	0.10742665
254	0x3e3fd9c8	0.1873542
255	0x3e1524da	0.14564839

fc3.bias f4 [10]
0	0xbe584f44	-0.21123987
1	0xbf26b788	-0.65123796
2	0xbd4275b4	-0.04747553
3	0x3e91013c	0.28321254
4	0x3f450ac2	0.7696954
5	0xbdfebddd	-0.12438557
6	0x3d4e1ca1	0.05032027
7	0xbe4ab9e0	-0.19797468
8	0x3c21a827	0.009866751
9	0xbdc6f85b	-0.09715339
